program(1.0)
[buildInfo = dict<tensor<string, []>, tensor<string, []>>({{"coremlc-component-MIL", "5.30.0"}, {"coremlc-version", "1839.0.0"}})]
{
    func main<ios16>(tensor<fp32, [1, 77]> input_ids) {
            tensor<int32, []> var_5 = const()[name = tensor<string, []>("op_5"), val = tensor<int32, []>(-1)];
            tensor<bool, []> var_6 = const()[name = tensor<string, []>("op_6"), val = tensor<bool, []>(false)];
            tensor<string, []> cast_1_dtype_0 = const()[name = tensor<string, []>("cast_1_dtype_0"), val = tensor<string, []>("int32")];
            tensor<int32, []> inputs_embeds_axis_0 = const()[name = tensor<string, []>("inputs_embeds_axis_0"), val = tensor<int32, []>(0)];
            tensor<int32, []> inputs_embeds_batch_dims_0 = const()[name = tensor<string, []>("inputs_embeds_batch_dims_0"), val = tensor<int32, []>(0)];
            tensor<fp16, [49408, 1024]> text_encoder_text_model_embeddings_token_embedding_weight_to_fp16 = const()[name = tensor<string, []>("text_encoder_text_model_embeddings_token_embedding_weight_to_fp16"), val = tensor<fp16, [49408, 1024]>(BLOBFILE(path = tensor<string, []>("@model_path/weights/weight.bin"), offset = tensor<uint64, []>(64)))];
            tensor<int32, [1, 77]> cast_2 = cast(dtype = cast_1_dtype_0, x = input_ids)[name = tensor<string, []>("cast_2")];
            tensor<fp16, [1, 77, 1024]> inputs_embeds_cast = gather(axis = inputs_embeds_axis_0, batch_dims = inputs_embeds_batch_dims_0, indices = cast_2, x = text_encoder_text_model_embeddings_token_embedding_weight_to_fp16)[name = tensor<string, []>("inputs_embeds_cast")];
            tensor<fp16, [1, 77, 1024]> position_embeddings_to_fp16_palettized = constexpr_lut_to_dense()[indices = tensor<uint8, [59136]>(BLOBFILE(path = tensor<string, []>("@model_path/weights/weight.bin"), offset = tensor<uint64, []>(101187712))), lut = tensor<fp16, [64]>(BLOBFILE(path = tensor<string, []>("@model_path/weights/weight.bin"), offset = tensor<uint64, []>(101246912))), name = tensor<string, []>("position_embeddings_to_fp16_palettized"), shape = tensor<uint32, [3]>([1, 77, 1024])];
            tensor<fp16, [1, 77, 1024]> input_3_cast = add(x = inputs_embeds_cast, y = position_embeddings_to_fp16_palettized)[name = tensor<string, []>("input_3_cast")];
            tensor<int32, [1]> hidden_states_1_axes_0 = const()[name = tensor<string, []>("hidden_states_1_axes_0"), val = tensor<int32, [1]>([-1])];
            tensor<fp16, [1024]> text_encoder_text_model_encoder_layers_0_layer_norm1_weight_to_fp16 = const()[name = tensor<string, []>("text_encoder_text_model_encoder_layers_0_layer_norm1_weight_to_fp16"), val = tensor<fp16, [1024]>(BLOBFILE(path = tensor<string, []>("@model_path/weights/weight.bin"), offset = tensor<uint64, []>(101247104)))];
            tensor<fp16, [1024]> text_encoder_text_model_encoder_layers_0_layer_norm1_bias_to_fp16 = const()[name = tensor<string, []>("text_encoder_text_model_encoder_layers_0_layer_norm1_bias_to_fp16"), val = tensor<fp16, [1024]>(BLOBFILE(path = tensor<string, []>("@model_path/weights/weight.bin"), offset = tensor<uint64, []>(101249216)))];
            tensor<fp16, []> var_12_to_fp16 = const()[name = tensor<string, []>("op_12_to_fp16"), val = tensor<fp16, []>(0x1.5p-17)];
            tensor<fp16, [1, 77, 1024]> hidden_states_1_cast = layer_norm(axes = hidden_states_1_axes_0, beta = text_encoder_text_model_encoder_layers_0_layer_norm1_bias_to_fp16, epsilon = var_12_to_fp16, gamma = text_encoder_text_model_encoder_layers_0_layer_norm1_weight_to_fp16, x = input_3_cast)[name = tensor<string, []>("hidden_states_1_cast")];
            tensor<fp16, [1024, 1024]> text_encoder_text_model_encoder_layers_0_self_attn_q_proj_weight_to_fp16_palettized = constexpr_lut_to_dense()[indices = tensor<uint8, [786432]>(BLOBFILE(path = tensor<string, []>("@model_path/weights/weight.bin"), offset = tensor<uint64, []>(101251328))), lut = tensor<fp16, [64]>(BLOBFILE(path = tensor<string, []>("@model_path/weights/weight.bin"), offset = tensor<uint64, []>(102037824))), name = tensor<string, []>("text_encoder_text_model_encoder_layers_0_self_attn_q_proj_weight_to_fp16_palettized"), shape = tensor<uint32, [2]>([1024, 1024])];
            tensor<fp16, [1024]> text_encoder_text_model_encoder_layers_0_self_attn_q_proj_bias_to_fp16 = const()[name = tensor<string, []>("text_encoder_text_model_encoder_layers_0_self_attn_q_proj_bias_to_fp16"), val = tensor<fp16, [1024]>(BLOBFILE(path = tensor<string, []>("@model_path/weights/weight.bin"), offset = tensor<uint64, []>(102038016)))];
            tensor<fp16, [1, 77, 1024]> var_109_cast = linear(bias = text_encoder_text_model_encoder_layers_0_self_attn_q_proj_bias_to_fp16, weight = text_encoder_text_model_encoder_layers_0_self_attn_q_proj_weight_to_fp16_palettized, x = hidden_states_1_cast)[name = tensor<string, []>("op_109_cast")];
            tensor<fp16, []> var_110_to_fp16 = const()[name = tensor<string, []>("op_110_to_fp16"), val = tensor<fp16, []>(0x1p-3)];
            tensor<fp16, [1, 77, 1024]> tensor_5_cast = mul(x = var_109_cast, y = var_110_to_fp16)[name = tensor<string, []>("tensor_5_cast")];
            tensor<fp16, [1024, 1024]> text_encoder_text_model_encoder_layers_0_self_attn_k_proj_weight_to_fp16_palettized = constexpr_lut_to_dense()[indices = tensor<uint8, [786432]>(BLOBFILE(path = tensor<string, []>("@model_path/weights/weight.bin"), offset = tensor<uint64, []>(102040128))), lut = tensor<fp16, [64]>(BLOBFILE(path = tensor<string, []>("@model_path/weights/weight.bin"), offset = tensor<uint64, []>(102826624))), name = tensor<string, []>("text_encoder_text_model_encoder_layers_0_self_attn_k_proj_weight_to_fp16_palettized"), shape = tensor<uint32, [2]>([1024, 1024])];
            tensor<fp16, [1024]> text_encoder_text_model_encoder_layers_0_self_attn_k_proj_bias_to_fp16 = const()[name = tensor<string, []>("text_encoder_text_model_encoder_layers_0_self_attn_k_proj_bias_to_fp16"), val = tensor<fp16, [1024]>(BLOBFILE(path = tensor<string, []>("@model_path/weights/weight.bin"), offset = tensor<uint64, []>(102826816)))];
            tensor<fp16, [1, 77, 1024]> tensor_1_cast = linear(bias = text_encoder_text_model_encoder_layers_0_self_attn_k_proj_bias_to_fp16, weight = text_encoder_text_model_encoder_layers_0_self_attn_k_proj_weight_to_fp16_palettized, x = hidden_states_1_cast)[name = tensor<string, []>("tensor_1_cast")];
            tensor<int32, [4]> var_115 = const()[name = tensor<string, []>("op_115"), val = tensor<int32, [4]>([1, -1, 16, 64])];
            tensor<fp16, [1, 77, 16, 64]> var_116_cast = reshape(shape = var_115, x = tensor_1_cast)[name = tensor<string, []>("op_116_cast")];
            tensor<int32, [4]> var_117_perm_0 = const()[name = tensor<string, []>("op_117_perm_0"), val = tensor<int32, [4]>([0, 2, 1, 3])];
            tensor<fp16, [1024, 1024]> text_encoder_text_model_encoder_layers_0_self_attn_v_proj_weight_to_fp16_palettized = constexpr_lut_to_dense()[indices = tensor<uint8, [786432]>(BLOBFILE(path = tensor<string, []>("@model_path/weights/weight.bin"), offset = tensor<uint64, []>(102828928))), lut = tensor<fp16, [64]>(BLOBFILE(path = tensor<string, []>("@model_path/weights/weight.bin"), offset = tensor<uint64, []>(103615424))), name = tensor<string, []>("text_encoder_text_model_encoder_layers_0_self_attn_v_proj_weight_to_fp16_palettized"), shape = tensor<uint32, [2]>([1024, 1024])];
            tensor<fp16, [1024]> text_encoder_text_model_encoder_layers_0_self_attn_v_proj_bias_to_fp16 = const()[name = tensor<string, []>("text_encoder_text_model_encoder_layers_0_self_attn_v_proj_bias_to_fp16"), val = tensor<fp16, [1024]>(BLOBFILE(path = tensor<string, []>("@model_path/weights/weight.bin"), offset = tensor<uint64, []>(103615616)))];
            tensor<fp16, [1, 77, 1024]> tensor_3_cast = linear(bias = text_encoder_text_model_encoder_layers_0_self_attn_v_proj_bias_to_fp16, weight = text_encoder_text_model_encoder_layers_0_self_attn_v_proj_weight_to_fp16_palettized, x = hidden_states_1_cast)[name = tensor<string, []>("tensor_3_cast")];
            tensor<int32, [4]> var_122 = const()[name = tensor<string, []>("op_122"), val = tensor<int32, [4]>([1, -1, 16, 64])];
            tensor<fp16, [1, 77, 16, 64]> var_123_cast = reshape(shape = var_122, x = tensor_3_cast)[name = tensor<string, []>("op_123_cast")];
            tensor<int32, [4]> var_124_perm_0 = const()[name = tensor<string, []>("op_124_perm_0"), val = tensor<int32, [4]>([0, 2, 1, 3])];
            tensor<int32, [4]> var_131 = const()[name = tensor<string, []>("op_131"), val = tensor<int32, [4]>([1, 77, 16, 64])];
            tensor<fp16, [1, 77, 16, 64]> var_132_cast = reshape(shape = var_131, x = tensor_5_cast)[name = tensor<string, []>("op_132_cast")];
            tensor<int32, [4]> var_133_perm_0 = const()[name = tensor<string, []>("op_133_perm_0"), val = tensor<int32, [4]>([0, 2, 1, 3])];
            tensor<int32, [3]> var_135 = const()[name = tensor<string, []>("op_135"), val = tensor<int32, [3]>([16, -1, 64])];
            tensor<fp16, [1, 16, 77, 64]> transpose_114 = transpose(perm = var_133_perm_0, x = var_132_cast)[name = tensor<string, []>("transpose_114")];
            tensor<fp16, [16, 77, 64]> query_states_1_cast = reshape(shape = var_135, x = transpose_114)[name = tensor<string, []>("query_states_1_cast")];
            tensor<int32, [3]> var_137 = const()[name = tensor<string, []>("op_137"), val = tensor<int32, [3]>([16, -1, 64])];
            tensor<fp16, [1, 16, 77, 64]> transpose_113 = transpose(perm = var_117_perm_0, x = var_116_cast)[name = tensor<string, []>("transpose_113")];
            tensor<fp16, [16, 77, 64]> key_states_3_cast = reshape(shape = var_137, x = transpose_113)[name = tensor<string, []>("key_states_3_cast")];
            tensor<int32, [3]> var_139 = const()[name = tensor<string, []>("op_139"), val = tensor<int32, [3]>([16, -1, 64])];
            tensor<fp16, [1, 16, 77, 64]> transpose_112 = transpose(perm = var_124_perm_0, x = var_123_cast)[name = tensor<string, []>("transpose_112")];
            tensor<fp16, [16, 77, 64]> value_states_3_cast = reshape(shape = var_139, x = transpose_112)[name = tensor<string, []>("value_states_3_cast")];
            tensor<int32, [3]> var_142_perm_0 = const()[name = tensor<string, []>("op_142_perm_0"), val = tensor<int32, [3]>([0, 2, 1])];
            tensor<bool, []> attn_weights_1_transpose_x_0 = const()[name = tensor<string, []>("attn_weights_1_transpose_x_0"), val = tensor<bool, []>(false)];
            tensor<bool, []> attn_weights_1_transpose_y_0 = const()[name = tensor<string, []>("attn_weights_1_transpose_y_0"), val = tensor<bool, []>(false)];
            tensor<fp16, [16, 64, 77]> transpose_111 = transpose(perm = var_142_perm_0, x = key_states_3_cast)[name = tensor<string, []>("transpose_111")];
            tensor<fp16, [16, 77, 77]> attn_weights_1_cast = matmul(transpose_x = attn_weights_1_transpose_x_0, transpose_y = attn_weights_1_transpose_y_0, x = query_states_1_cast, y = transpose_111)[name = tensor<string, []>("attn_weights_1_cast")];
            tensor<int32, [4]> var_144 = const()[name = tensor<string, []>("op_144"), val = tensor<int32, [4]>([1, 16, 77, 77])];
            tensor<fp16, [1, 16, 77, 77]> var_145_cast = reshape(shape = var_144, x = attn_weights_1_cast)[name = tensor<string, []>("op_145_cast")];
            tensor<fp16, [1, 1, 77, 77]> causal_attention_mask_to_fp16_palettized = constexpr_lut_to_dense()[indices = tensor<uint8, [4447]>(BLOBFILE(path = tensor<string, []>("@model_path/weights/weight.bin"), offset = tensor<uint64, []>(103617728))), lut = tensor<fp16, [64]>(BLOBFILE(path = tensor<string, []>("@model_path/weights/weight.bin"), offset = tensor<uint64, []>(103622272))), name = tensor<string, []>("causal_attention_mask_to_fp16_palettized"), shape = tensor<uint32, [4]>([1, 1, 77, 77])];
            tensor<fp16, [1, 16, 77, 77]> attn_weights_3_cast = add(x = var_145_cast, y = causal_attention_mask_to_fp16_palettized)[name = tensor<string, []>("attn_weights_3_cast")];
            tensor<int32, [3]> var_150 = const()[name = tensor<string, []>("op_150"), val = tensor<int32, [3]>([16, 77, 77])];
            tensor<fp16, [16, 77, 77]> input_5_cast = reshape(shape = var_150, x = attn_weights_3_cast)[name = tensor<string, []>("input_5_cast")];
            tensor<fp16, [16, 77, 77]> input_7_cast = softmax(axis = var_5, x = input_5_cast)[name = tensor<string, []>("input_7_cast")];
            tensor<bool, []> attn_output_1_transpose_x_0 = const()[name = tensor<string, []>("attn_output_1_transpose_x_0"), val = tensor<bool, []>(false)];
            tensor<bool, []> attn_output_1_transpose_y_0 = const()[name = tensor<string, []>("attn_output_1_transpose_y_0"), val = tensor<bool, []>(false)];
            tensor<fp16, [16, 77, 64]> attn_output_1_cast = matmul(transpose_x = attn_output_1_transpose_x_0, transpose_y = attn_output_1_transpose_y_0, x = input_7_cast, y = value_states_3_cast)[name = tensor<string, []>("attn_output_1_cast")];
            tensor<int32, [4]> var_155 = const()[name = tensor<string, []>("op_155"), val = tensor<int32, [4]>([1, 16, 77, 64])];
            tensor<fp16, [1, 16, 77, 64]> attn_output_3_cast = reshape(shape = var_155, x = attn_output_1_cast)[name = tensor<string, []>("attn_output_3_cast")];
            tensor<int32, [4]> attn_output_5_perm_0 = const()[name = tensor<string, []>("attn_output_5_perm_0"), val = tensor<int32, [4]>([0, 2, 1, 3])];
            tensor<int32, [3]> var_158 = const()[name = tensor<string, []>("op_158"), val = tensor<int32, [3]>([1, 77, 1024])];
            tensor<fp16, [1, 77, 16, 64]> transpose_110 = transpose(perm = attn_output_5_perm_0, x = attn_output_3_cast)[name = tensor<string, []>("transpose_110")];
            tensor<fp16, [1, 77, 1024]> input_9_cast = reshape(shape = var_158, x = transpose_110)[name = tensor<string, []>("input_9_cast")];
            tensor<fp16, [1024, 1024]> text_encoder_text_model_encoder_layers_0_self_attn_out_proj_weight_to_fp16_palettized = constexpr_lut_to_dense()[indices = tensor<uint8, [786432]>(BLOBFILE(path = tensor<string, []>("@model_path/weights/weight.bin"), offset = tensor<uint64, []>(103622464))), lut = tensor<fp16, [64]>(BLOBFILE(path = tensor<string, []>("@model_path/weights/weight.bin"), offset = tensor<uint64, []>(104408960))), name = tensor<string, []>("text_encoder_text_model_encoder_layers_0_self_attn_out_proj_weight_to_fp16_palettized"), shape = tensor<uint32, [2]>([1024, 1024])];
            tensor<fp16, [1024]> text_encoder_text_model_encoder_layers_0_self_attn_out_proj_bias_to_fp16 = const()[name = tensor<string, []>("text_encoder_text_model_encoder_layers_0_self_attn_out_proj_bias_to_fp16"), val = tensor<fp16, [1024]>(BLOBFILE(path = tensor<string, []>("@model_path/weights/weight.bin"), offset = tensor<uint64, []>(104409152)))];
            tensor<fp16, [1, 77, 1024]> hidden_states_3_cast = linear(bias = text_encoder_text_model_encoder_layers_0_self_attn_out_proj_bias_to_fp16, weight = text_encoder_text_model_encoder_layers_0_self_attn_out_proj_weight_to_fp16_palettized, x = input_9_cast)[name = tensor<string, []>("hidden_states_3_cast")];
            tensor<fp16, [1, 77, 1024]> input_11_cast = add(x = input_3_cast, y = hidden_states_3_cast)[name = tensor<string, []>("input_11_cast")];
            tensor<int32, [1]> input_13_axes_0 = const()[name = tensor<string, []>("input_13_axes_0"), val = tensor<int32, [1]>([-1])];
            tensor<fp16, [1024]> text_encoder_text_model_encoder_layers_0_layer_norm2_weight_to_fp16 = const()[name = tensor<string, []>("text_encoder_text_model_encoder_layers_0_layer_norm2_weight_to_fp16"), val = tensor<fp16, [1024]>(BLOBFILE(path = tensor<string, []>("@model_path/weights/weight.bin"), offset = tensor<uint64, []>(104411264)))];
            tensor<fp16, [1024]> text_encoder_text_model_encoder_layers_0_layer_norm2_bias_to_fp16 = const()[name = tensor<string, []>("text_encoder_text_model_encoder_layers_0_layer_norm2_bias_to_fp16"), val = tensor<fp16, [1024]>(BLOBFILE(path = tensor<string, []>("@model_path/weights/weight.bin"), offset = tensor<uint64, []>(104413376)))];
            tensor<fp16, [1, 77, 1024]> input_13_cast = layer_norm(axes = input_13_axes_0, beta = text_encoder_text_model_encoder_layers_0_layer_norm2_bias_to_fp16, epsilon = var_12_to_fp16, gamma = text_encoder_text_model_encoder_layers_0_layer_norm2_weight_to_fp16, x = input_11_cast)[name = tensor<string, []>("input_13_cast")];
            tensor<fp16, [4096, 1024]> text_encoder_text_model_encoder_layers_0_mlp_fc1_weight_to_fp16_palettized = constexpr_lut_to_dense()[indices = tensor<uint8, [3145728]>(BLOBFILE(path = tensor<string, []>("@model_path/weights/weight.bin"), offset = tensor<uint64, []>(104415488))), lut = tensor<fp16, [64]>(BLOBFILE(path = tensor<string, []>("@model_path/weights/weight.bin"), offset = tensor<uint64, []>(107561280))), name = tensor<string, []>("text_encoder_text_model_encoder_layers_0_mlp_fc1_weight_to_fp16_palettized"), shape = tensor<uint32, [2]>([4096, 1024])];
            tensor<fp16, [4096]> text_encoder_text_model_encoder_layers_0_mlp_fc1_bias_to_fp16_palettized = constexpr_lut_to_dense()[indices = tensor<uint8, [3072]>(BLOBFILE(path = tensor<string, []>("@model_path/weights/weight.bin"), offset = tensor<uint64, []>(107561472))), lut = tensor<fp16, [64]>(BLOBFILE(path = tensor<string, []>("@model_path/weights/weight.bin"), offset = tensor<uint64, []>(107564608))), name = tensor<string, []>("text_encoder_text_model_encoder_layers_0_mlp_fc1_bias_to_fp16_palettized"), shape = tensor<uint32, [1]>([4096])];
            tensor<fp16, [1, 77, 4096]> input_15_cast = linear(bias = text_encoder_text_model_encoder_layers_0_mlp_fc1_bias_to_fp16_palettized, weight = text_encoder_text_model_encoder_layers_0_mlp_fc1_weight_to_fp16_palettized, x = input_13_cast)[name = tensor<string, []>("input_15_cast")];
            tensor<string, []> input_17_mode_0 = const()[name = tensor<string, []>("input_17_mode_0"), val = tensor<string, []>("EXACT")];
            tensor<fp16, [1, 77, 4096]> input_17_cast = gelu(mode = input_17_mode_0, x = input_15_cast)[name = tensor<string, []>("input_17_cast")];
            tensor<fp16, [1024, 4096]> text_encoder_text_model_encoder_layers_0_mlp_fc2_weight_to_fp16_palettized = constexpr_lut_to_dense()[indices = tensor<uint8, [3145728]>(BLOBFILE(path = tensor<string, []>("@model_path/weights/weight.bin"), offset = tensor<uint64, []>(107564800))), lut = tensor<fp16, [64]>(BLOBFILE(path = tensor<string, []>("@model_path/weights/weight.bin"), offset = tensor<uint64, []>(110710592))), name = tensor<string, []>("text_encoder_text_model_encoder_layers_0_mlp_fc2_weight_to_fp16_palettized"), shape = tensor<uint32, [2]>([1024, 4096])];
            tensor<fp16, [1024]> text_encoder_text_model_encoder_layers_0_mlp_fc2_bias_to_fp16 = const()[name = tensor<string, []>("text_encoder_text_model_encoder_layers_0_mlp_fc2_bias_to_fp16"), val = tensor<fp16, [1024]>(BLOBFILE(path = tensor<string, []>("@model_path/weights/weight.bin"), offset = tensor<uint64, []>(110710784)))];
            tensor<fp16, [1, 77, 1024]> hidden_states_5_cast = linear(bias = text_encoder_text_model_encoder_layers_0_mlp_fc2_bias_to_fp16, weight = text_encoder_text_model_encoder_layers_0_mlp_fc2_weight_to_fp16_palettized, x = input_17_cast)[name = tensor<string, []>("hidden_states_5_cast")];
            tensor<fp16, [1, 77, 1024]> input_19_cast = add(x = input_11_cast, y = hidden_states_5_cast)[name = tensor<string, []>("input_19_cast")];
            tensor<int32, [1]> hidden_states_7_axes_0 = const()[name = tensor<string, []>("hidden_states_7_axes_0"), val = tensor<int32, [1]>([-1])];
            tensor<fp16, [1024]> text_encoder_text_model_encoder_layers_1_layer_norm1_weight_to_fp16 = const()[name = tensor<string, []>("text_encoder_text_model_encoder_layers_1_layer_norm1_weight_to_fp16"), val = tensor<fp16, [1024]>(BLOBFILE(path = tensor<string, []>("@model_path/weights/weight.bin"), offset = tensor<uint64, []>(110712896)))];
            tensor<fp16, [1024]> text_encoder_text_model_encoder_layers_1_layer_norm1_bias_to_fp16 = const()[name = tensor<string, []>("text_encoder_text_model_encoder_layers_1_layer_norm1_bias_to_fp16"), val = tensor<fp16, [1024]>(BLOBFILE(path = tensor<string, []>("@model_path/weights/weight.bin"), offset = tensor<uint64, []>(110715008)))];
            tensor<fp16, [1, 77, 1024]> hidden_states_7_cast = layer_norm(axes = hidden_states_7_axes_0, beta = text_encoder_text_model_encoder_layers_1_layer_norm1_bias_to_fp16, epsilon = var_12_to_fp16, gamma = text_encoder_text_model_encoder_layers_1_layer_norm1_weight_to_fp16, x = input_19_cast)[name = tensor<string, []>("hidden_states_7_cast")];
            tensor<fp16, [1024, 1024]> text_encoder_text_model_encoder_layers_1_self_attn_q_proj_weight_to_fp16_palettized = constexpr_lut_to_dense()[indices = tensor<uint8, [786432]>(BLOBFILE(path = tensor<string, []>("@model_path/weights/weight.bin"), offset = tensor<uint64, []>(110717120))), lut = tensor<fp16, [64]>(BLOBFILE(path = tensor<string, []>("@model_path/weights/weight.bin"), offset = tensor<uint64, []>(111503616))), name = tensor<string, []>("text_encoder_text_model_encoder_layers_1_self_attn_q_proj_weight_to_fp16_palettized"), shape = tensor<uint32, [2]>([1024, 1024])];
            tensor<fp16, [1024]> text_encoder_text_model_encoder_layers_1_self_attn_q_proj_bias_to_fp16 = const()[name = tensor<string, []>("text_encoder_text_model_encoder_layers_1_self_attn_q_proj_bias_to_fp16"), val = tensor<fp16, [1024]>(BLOBFILE(path = tensor<string, []>("@model_path/weights/weight.bin"), offset = tensor<uint64, []>(111503808)))];
            tensor<fp16, [1, 77, 1024]> var_196_cast = linear(bias = text_encoder_text_model_encoder_layers_1_self_attn_q_proj_bias_to_fp16, weight = text_encoder_text_model_encoder_layers_1_self_attn_q_proj_weight_to_fp16_palettized, x = hidden_states_7_cast)[name = tensor<string, []>("op_196_cast")];
            tensor<fp16, []> var_197_to_fp16 = const()[name = tensor<string, []>("op_197_to_fp16"), val = tensor<fp16, []>(0x1p-3)];
            tensor<fp16, [1, 77, 1024]> tensor_11_cast = mul(x = var_196_cast, y = var_197_to_fp16)[name = tensor<string, []>("tensor_11_cast")];
            tensor<fp16, [1024, 1024]> text_encoder_text_model_encoder_layers_1_self_attn_k_proj_weight_to_fp16_palettized = constexpr_lut_to_dense()[indices = tensor<uint8, [786432]>(BLOBFILE(path = tensor<string, []>("@model_path/weights/weight.bin"), offset = tensor<uint64, []>(111505920))), lut = tensor<fp16, [64]>(BLOBFILE(path = tensor<string, []>("@model_path/weights/weight.bin"), offset = tensor<uint64, []>(112292416))), name = tensor<string, []>("text_encoder_text_model_encoder_layers_1_self_attn_k_proj_weight_to_fp16_palettized"), shape = tensor<uint32, [2]>([1024, 1024])];
            tensor<fp16, [1024]> text_encoder_text_model_encoder_layers_1_self_attn_k_proj_bias_to_fp16 = const()[name = tensor<string, []>("text_encoder_text_model_encoder_layers_1_self_attn_k_proj_bias_to_fp16"), val = tensor<fp16, [1024]>(BLOBFILE(path = tensor<string, []>("@model_path/weights/weight.bin"), offset = tensor<uint64, []>(112292608)))];
            tensor<fp16, [1, 77, 1024]> tensor_7_cast = linear(bias = text_encoder_text_model_encoder_layers_1_self_attn_k_proj_bias_to_fp16, weight = text_encoder_text_model_encoder_layers_1_self_attn_k_proj_weight_to_fp16_palettized, x = hidden_states_7_cast)[name = tensor<string, []>("tensor_7_cast")];
            tensor<int32, [4]> var_202 = const()[name = tensor<string, []>("op_202"), val = tensor<int32, [4]>([1, -1, 16, 64])];
            tensor<fp16, [1, 77, 16, 64]> var_203_cast = reshape(shape = var_202, x = tensor_7_cast)[name = tensor<string, []>("op_203_cast")];
            tensor<int32, [4]> var_204_perm_0 = const()[name = tensor<string, []>("op_204_perm_0"), val = tensor<int32, [4]>([0, 2, 1, 3])];
            tensor<fp16, [1024, 1024]> text_encoder_text_model_encoder_layers_1_self_attn_v_proj_weight_to_fp16_palettized = constexpr_lut_to_dense()[indices = tensor<uint8, [786432]>(BLOBFILE(path = tensor<string, []>("@model_path/weights/weight.bin"), offset = tensor<uint64, []>(112294720))), lut = tensor<fp16, [64]>(BLOBFILE(path = tensor<string, []>("@model_path/weights/weight.bin"), offset = tensor<uint64, []>(113081216))), name = tensor<string, []>("text_encoder_text_model_encoder_layers_1_self_attn_v_proj_weight_to_fp16_palettized"), shape = tensor<uint32, [2]>([1024, 1024])];
            tensor<fp16, [1024]> text_encoder_text_model_encoder_layers_1_self_attn_v_proj_bias_to_fp16 = const()[name = tensor<string, []>("text_encoder_text_model_encoder_layers_1_self_attn_v_proj_bias_to_fp16"), val = tensor<fp16, [1024]>(BLOBFILE(path = tensor<string, []>("@model_path/weights/weight.bin"), offset = tensor<uint64, []>(113081408)))];
            tensor<fp16, [1, 77, 1024]> tensor_9_cast = linear(bias = text_encoder_text_model_encoder_layers_1_self_attn_v_proj_bias_to_fp16, weight = text_encoder_text_model_encoder_layers_1_self_attn_v_proj_weight_to_fp16_palettized, x = hidden_states_7_cast)[name = tensor<string, []>("tensor_9_cast")];
            tensor<int32, [4]> var_209 = const()[name = tensor<string, []>("op_209"), val = tensor<int32, [4]>([1, -1, 16, 64])];
            tensor<fp16, [1, 77, 16, 64]> var_210_cast = reshape(shape = var_209, x = tensor_9_cast)[name = tensor<string, []>("op_210_cast")];
            tensor<int32, [4]> var_211_perm_0 = const()[name = tensor<string, []>("op_211_perm_0"), val = tensor<int32, [4]>([0, 2, 1, 3])];
            tensor<int32, [4]> var_218 = const()[name = tensor<string, []>("op_218"), val = tensor<int32, [4]>([1, 77, 16, 64])];
            tensor<fp16, [1, 77, 16, 64]> var_219_cast = reshape(shape = var_218, x = tensor_11_cast)[name = tensor<string, []>("op_219_cast")];
            tensor<int32, [4]> var_220_perm_0 = const()[name = tensor<string, []>("op_220_perm_0"), val = tensor<int32, [4]>([0, 2, 1, 3])];
            tensor<int32, [3]> var_222 = const()[name = tensor<string, []>("op_222"), val = tensor<int32, [3]>([16, -1, 64])];
            tensor<fp16, [1, 16, 77, 64]> transpose_109 = transpose(perm = var_220_perm_0, x = var_219_cast)[name = tensor<string, []>("transpose_109")];
            tensor<fp16, [16, 77, 64]> query_states_3_cast = reshape(shape = var_222, x = transpose_109)[name = tensor<string, []>("query_states_3_cast")];
            tensor<int32, [3]> var_224 = const()[name = tensor<string, []>("op_224"), val = tensor<int32, [3]>([16, -1, 64])];
            tensor<fp16, [1, 16, 77, 64]> transpose_108 = transpose(perm = var_204_perm_0, x = var_203_cast)[name = tensor<string, []>("transpose_108")];
            tensor<fp16, [16, 77, 64]> key_states_7_cast = reshape(shape = var_224, x = transpose_108)[name = tensor<string, []>("key_states_7_cast")];
            tensor<int32, [3]> var_226 = const()[name = tensor<string, []>("op_226"), val = tensor<int32, [3]>([16, -1, 64])];
            tensor<fp16, [1, 16, 77, 64]> transpose_107 = transpose(perm = var_211_perm_0, x = var_210_cast)[name = tensor<string, []>("transpose_107")];
            tensor<fp16, [16, 77, 64]> value_states_7_cast = reshape(shape = var_226, x = transpose_107)[name = tensor<string, []>("value_states_7_cast")];
            tensor<int32, [3]> var_229_perm_0 = const()[name = tensor<string, []>("op_229_perm_0"), val = tensor<int32, [3]>([0, 2, 1])];
            tensor<bool, []> attn_weights_7_transpose_x_0 = const()[name = tensor<string, []>("attn_weights_7_transpose_x_0"), val = tensor<bool, []>(false)];
            tensor<bool, []> attn_weights_7_transpose_y_0 = const()[name = tensor<string, []>("attn_weights_7_transpose_y_0"), val = tensor<bool, []>(false)];
            tensor<fp16, [16, 64, 77]> transpose_106 = transpose(perm = var_229_perm_0, x = key_states_7_cast)[name = tensor<string, []>("transpose_106")];
            tensor<fp16, [16, 77, 77]> attn_weights_7_cast = matmul(transpose_x = attn_weights_7_transpose_x_0, transpose_y = attn_weights_7_transpose_y_0, x = query_states_3_cast, y = transpose_106)[name = tensor<string, []>("attn_weights_7_cast")];
            tensor<int32, [4]> var_231 = const()[name = tensor<string, []>("op_231"), val = tensor<int32, [4]>([1, 16, 77, 77])];
            tensor<fp16, [1, 16, 77, 77]> var_232_cast = reshape(shape = var_231, x = attn_weights_7_cast)[name = tensor<string, []>("op_232_cast")];
            tensor<fp16, [1, 16, 77, 77]> attn_weights_9_cast = add(x = var_232_cast, y = causal_attention_mask_to_fp16_palettized)[name = tensor<string, []>("attn_weights_9_cast")];
            tensor<int32, [3]> var_237 = const()[name = tensor<string, []>("op_237"), val = tensor<int32, [3]>([16, 77, 77])];
            tensor<fp16, [16, 77, 77]> input_21_cast = reshape(shape = var_237, x = attn_weights_9_cast)[name = tensor<string, []>("input_21_cast")];
            tensor<fp16, [16, 77, 77]> input_23_cast = softmax(axis = var_5, x = input_21_cast)[name = tensor<string, []>("input_23_cast")];
            tensor<bool, []> attn_output_7_transpose_x_0 = const()[name = tensor<string, []>("attn_output_7_transpose_x_0"), val = tensor<bool, []>(false)];
            tensor<bool, []> attn_output_7_transpose_y_0 = const()[name = tensor<string, []>("attn_output_7_transpose_y_0"), val = tensor<bool, []>(false)];
            tensor<fp16, [16, 77, 64]> attn_output_7_cast = matmul(transpose_x = attn_output_7_transpose_x_0, transpose_y = attn_output_7_transpose_y_0, x = input_23_cast, y = value_states_7_cast)[name = tensor<string, []>("attn_output_7_cast")];
            tensor<int32, [4]> var_242 = const()[name = tensor<string, []>("op_242"), val = tensor<int32, [4]>([1, 16, 77, 64])];
            tensor<fp16, [1, 16, 77, 64]> attn_output_9_cast = reshape(shape = var_242, x = attn_output_7_cast)[name = tensor<string, []>("attn_output_9_cast")];
            tensor<int32, [4]> attn_output_11_perm_0 = const()[name = tensor<string, []>("attn_output_11_perm_0"), val = tensor<int32, [4]>([0, 2, 1, 3])];
            tensor<int32, [3]> var_245 = const()[name = tensor<string, []>("op_245"), val = tensor<int32, [3]>([1, 77, 1024])];
            tensor<fp16, [1, 77, 16, 64]> transpose_105 = transpose(perm = attn_output_11_perm_0, x = attn_output_9_cast)[name = tensor<string, []>("transpose_105")];
            tensor<fp16, [1, 77, 1024]> input_25_cast = reshape(shape = var_245, x = transpose_105)[name = tensor<string, []>("input_25_cast")];
            tensor<fp16, [1024, 1024]> text_encoder_text_model_encoder_layers_1_self_attn_out_proj_weight_to_fp16_palettized = constexpr_lut_to_dense()[indices = tensor<uint8, [786432]>(BLOBFILE(path = tensor<string, []>("@model_path/weights/weight.bin"), offset = tensor<uint64, []>(113083520))), lut = tensor<fp16, [64]>(BLOBFILE(path = tensor<string, []>("@model_path/weights/weight.bin"), offset = tensor<uint64, []>(113870016))), name = tensor<string, []>("text_encoder_text_model_encoder_layers_1_self_attn_out_proj_weight_to_fp16_palettized"), shape = tensor<uint32, [2]>([1024, 1024])];
            tensor<fp16, [1024]> text_encoder_text_model_encoder_layers_1_self_attn_out_proj_bias_to_fp16 = const()[name = tensor<string, []>("text_encoder_text_model_encoder_layers_1_self_attn_out_proj_bias_to_fp16"), val = tensor<fp16, [1024]>(BLOBFILE(path = tensor<string, []>("@model_path/weights/weight.bin"), offset = tensor<uint64, []>(113870208)))];
            tensor<fp16, [1, 77, 1024]> hidden_states_9_cast = linear(bias = text_encoder_text_model_encoder_layers_1_self_attn_out_proj_bias_to_fp16, weight = text_encoder_text_model_encoder_layers_1_self_attn_out_proj_weight_to_fp16_palettized, x = input_25_cast)[name = tensor<string, []>("hidden_states_9_cast")];
            tensor<fp16, [1, 77, 1024]> input_27_cast = add(x = input_19_cast, y = hidden_states_9_cast)[name = tensor<string, []>("input_27_cast")];
            tensor<int32, [1]> input_29_axes_0 = const()[name = tensor<string, []>("input_29_axes_0"), val = tensor<int32, [1]>([-1])];
            tensor<fp16, [1024]> text_encoder_text_model_encoder_layers_1_layer_norm2_weight_to_fp16 = const()[name = tensor<string, []>("text_encoder_text_model_encoder_layers_1_layer_norm2_weight_to_fp16"), val = tensor<fp16, [1024]>(BLOBFILE(path = tensor<string, []>("@model_path/weights/weight.bin"), offset = tensor<uint64, []>(113872320)))];
            tensor<fp16, [1024]> text_encoder_text_model_encoder_layers_1_layer_norm2_bias_to_fp16 = const()[name = tensor<string, []>("text_encoder_text_model_encoder_layers_1_layer_norm2_bias_to_fp16"), val = tensor<fp16, [1024]>(BLOBFILE(path = tensor<string, []>("@model_path/weights/weight.bin"), offset = tensor<uint64, []>(113874432)))];
            tensor<fp16, [1, 77, 1024]> input_29_cast = layer_norm(axes = input_29_axes_0, beta = text_encoder_text_model_encoder_layers_1_layer_norm2_bias_to_fp16, epsilon = var_12_to_fp16, gamma = text_encoder_text_model_encoder_layers_1_layer_norm2_weight_to_fp16, x = input_27_cast)[name = tensor<string, []>("input_29_cast")];
            tensor<fp16, [4096, 1024]> text_encoder_text_model_encoder_layers_1_mlp_fc1_weight_to_fp16_palettized = constexpr_lut_to_dense()[indices = tensor<uint8, [3145728]>(BLOBFILE(path = tensor<string, []>("@model_path/weights/weight.bin"), offset = tensor<uint64, []>(113876544))), lut = tensor<fp16, [64]>(BLOBFILE(path = tensor<string, []>("@model_path/weights/weight.bin"), offset = tensor<uint64, []>(117022336))), name = tensor<string, []>("text_encoder_text_model_encoder_layers_1_mlp_fc1_weight_to_fp16_palettized"), shape = tensor<uint32, [2]>([4096, 1024])];
            tensor<fp16, [4096]> text_encoder_text_model_encoder_layers_1_mlp_fc1_bias_to_fp16_palettized = constexpr_lut_to_dense()[indices = tensor<uint8, [3072]>(BLOBFILE(path = tensor<string, []>("@model_path/weights/weight.bin"), offset = tensor<uint64, []>(117022528))), lut = tensor<fp16, [64]>(BLOBFILE(path = tensor<string, []>("@model_path/weights/weight.bin"), offset = tensor<uint64, []>(117025664))), name = tensor<string, []>("text_encoder_text_model_encoder_layers_1_mlp_fc1_bias_to_fp16_palettized"), shape = tensor<uint32, [1]>([4096])];
            tensor<fp16, [1, 77, 4096]> input_31_cast = linear(bias = text_encoder_text_model_encoder_layers_1_mlp_fc1_bias_to_fp16_palettized, weight = text_encoder_text_model_encoder_layers_1_mlp_fc1_weight_to_fp16_palettized, x = input_29_cast)[name = tensor<string, []>("input_31_cast")];
            tensor<string, []> input_33_mode_0 = const()[name = tensor<string, []>("input_33_mode_0"), val = tensor<string, []>("EXACT")];
            tensor<fp16, [1, 77, 4096]> input_33_cast = gelu(mode = input_33_mode_0, x = input_31_cast)[name = tensor<string, []>("input_33_cast")];
            tensor<fp16, [1024, 4096]> text_encoder_text_model_encoder_layers_1_mlp_fc2_weight_to_fp16_palettized = constexpr_lut_to_dense()[indices = tensor<uint8, [3145728]>(BLOBFILE(path = tensor<string, []>("@model_path/weights/weight.bin"), offset = tensor<uint64, []>(117025856))), lut = tensor<fp16, [64]>(BLOBFILE(path = tensor<string, []>("@model_path/weights/weight.bin"), offset = tensor<uint64, []>(120171648))), name = tensor<string, []>("text_encoder_text_model_encoder_layers_1_mlp_fc2_weight_to_fp16_palettized"), shape = tensor<uint32, [2]>([1024, 4096])];
            tensor<fp16, [1024]> text_encoder_text_model_encoder_layers_1_mlp_fc2_bias_to_fp16 = const()[name = tensor<string, []>("text_encoder_text_model_encoder_layers_1_mlp_fc2_bias_to_fp16"), val = tensor<fp16, [1024]>(BLOBFILE(path = tensor<string, []>("@model_path/weights/weight.bin"), offset = tensor<uint64, []>(120171840)))];
            tensor<fp16, [1, 77, 1024]> hidden_states_11_cast = linear(bias = text_encoder_text_model_encoder_layers_1_mlp_fc2_bias_to_fp16, weight = text_encoder_text_model_encoder_layers_1_mlp_fc2_weight_to_fp16_palettized, x = input_33_cast)[name = tensor<string, []>("hidden_states_11_cast")];
            tensor<fp16, [1, 77, 1024]> input_35_cast = add(x = input_27_cast, y = hidden_states_11_cast)[name = tensor<string, []>("input_35_cast")];
            tensor<int32, [1]> hidden_states_13_axes_0 = const()[name = tensor<string, []>("hidden_states_13_axes_0"), val = tensor<int32, [1]>([-1])];
            tensor<fp16, [1024]> text_encoder_text_model_encoder_layers_2_layer_norm1_weight_to_fp16 = const()[name = tensor<string, []>("text_encoder_text_model_encoder_layers_2_layer_norm1_weight_to_fp16"), val = tensor<fp16, [1024]>(BLOBFILE(path = tensor<string, []>("@model_path/weights/weight.bin"), offset = tensor<uint64, []>(120173952)))];
            tensor<fp16, [1024]> text_encoder_text_model_encoder_layers_2_layer_norm1_bias_to_fp16 = const()[name = tensor<string, []>("text_encoder_text_model_encoder_layers_2_layer_norm1_bias_to_fp16"), val = tensor<fp16, [1024]>(BLOBFILE(path = tensor<string, []>("@model_path/weights/weight.bin"), offset = tensor<uint64, []>(120176064)))];
            tensor<fp16, [1, 77, 1024]> hidden_states_13_cast = layer_norm(axes = hidden_states_13_axes_0, beta = text_encoder_text_model_encoder_layers_2_layer_norm1_bias_to_fp16, epsilon = var_12_to_fp16, gamma = text_encoder_text_model_encoder_layers_2_layer_norm1_weight_to_fp16, x = input_35_cast)[name = tensor<string, []>("hidden_states_13_cast")];
            tensor<fp16, [1024, 1024]> text_encoder_text_model_encoder_layers_2_self_attn_q_proj_weight_to_fp16_palettized = constexpr_lut_to_dense()[indices = tensor<uint8, [786432]>(BLOBFILE(path = tensor<string, []>("@model_path/weights/weight.bin"), offset = tensor<uint64, []>(120178176))), lut = tensor<fp16, [64]>(BLOBFILE(path = tensor<string, []>("@model_path/weights/weight.bin"), offset = tensor<uint64, []>(120964672))), name = tensor<string, []>("text_encoder_text_model_encoder_layers_2_self_attn_q_proj_weight_to_fp16_palettized"), shape = tensor<uint32, [2]>([1024, 1024])];
            tensor<fp16, [1024]> text_encoder_text_model_encoder_layers_2_self_attn_q_proj_bias_to_fp16 = const()[name = tensor<string, []>("text_encoder_text_model_encoder_layers_2_self_attn_q_proj_bias_to_fp16"), val = tensor<fp16, [1024]>(BLOBFILE(path = tensor<string, []>("@model_path/weights/weight.bin"), offset = tensor<uint64, []>(120964864)))];
            tensor<fp16, [1, 77, 1024]> var_283_cast = linear(bias = text_encoder_text_model_encoder_layers_2_self_attn_q_proj_bias_to_fp16, weight = text_encoder_text_model_encoder_layers_2_self_attn_q_proj_weight_to_fp16_palettized, x = hidden_states_13_cast)[name = tensor<string, []>("op_283_cast")];
            tensor<fp16, []> var_284_to_fp16 = const()[name = tensor<string, []>("op_284_to_fp16"), val = tensor<fp16, []>(0x1p-3)];
            tensor<fp16, [1, 77, 1024]> tensor_17_cast = mul(x = var_283_cast, y = var_284_to_fp16)[name = tensor<string, []>("tensor_17_cast")];
            tensor<fp16, [1024, 1024]> text_encoder_text_model_encoder_layers_2_self_attn_k_proj_weight_to_fp16_palettized = constexpr_lut_to_dense()[indices = tensor<uint8, [786432]>(BLOBFILE(path = tensor<string, []>("@model_path/weights/weight.bin"), offset = tensor<uint64, []>(120966976))), lut = tensor<fp16, [64]>(BLOBFILE(path = tensor<string, []>("@model_path/weights/weight.bin"), offset = tensor<uint64, []>(121753472))), name = tensor<string, []>("text_encoder_text_model_encoder_layers_2_self_attn_k_proj_weight_to_fp16_palettized"), shape = tensor<uint32, [2]>([1024, 1024])];
            tensor<fp16, [1024]> text_encoder_text_model_encoder_layers_2_self_attn_k_proj_bias_to_fp16 = const()[name = tensor<string, []>("text_encoder_text_model_encoder_layers_2_self_attn_k_proj_bias_to_fp16"), val = tensor<fp16, [1024]>(BLOBFILE(path = tensor<string, []>("@model_path/weights/weight.bin"), offset = tensor<uint64, []>(121753664)))];
            tensor<fp16, [1, 77, 1024]> tensor_13_cast = linear(bias = text_encoder_text_model_encoder_layers_2_self_attn_k_proj_bias_to_fp16, weight = text_encoder_text_model_encoder_layers_2_self_attn_k_proj_weight_to_fp16_palettized, x = hidden_states_13_cast)[name = tensor<string, []>("tensor_13_cast")];
            tensor<int32, [4]> var_289 = const()[name = tensor<string, []>("op_289"), val = tensor<int32, [4]>([1, -1, 16, 64])];
            tensor<fp16, [1, 77, 16, 64]> var_290_cast = reshape(shape = var_289, x = tensor_13_cast)[name = tensor<string, []>("op_290_cast")];
            tensor<int32, [4]> var_291_perm_0 = const()[name = tensor<string, []>("op_291_perm_0"), val = tensor<int32, [4]>([0, 2, 1, 3])];
            tensor<fp16, [1024, 1024]> text_encoder_text_model_encoder_layers_2_self_attn_v_proj_weight_to_fp16_palettized = constexpr_lut_to_dense()[indices = tensor<uint8, [786432]>(BLOBFILE(path = tensor<string, []>("@model_path/weights/weight.bin"), offset = tensor<uint64, []>(121755776))), lut = tensor<fp16, [64]>(BLOBFILE(path = tensor<string, []>("@model_path/weights/weight.bin"), offset = tensor<uint64, []>(122542272))), name = tensor<string, []>("text_encoder_text_model_encoder_layers_2_self_attn_v_proj_weight_to_fp16_palettized"), shape = tensor<uint32, [2]>([1024, 1024])];
            tensor<fp16, [1024]> text_encoder_text_model_encoder_layers_2_self_attn_v_proj_bias_to_fp16 = const()[name = tensor<string, []>("text_encoder_text_model_encoder_layers_2_self_attn_v_proj_bias_to_fp16"), val = tensor<fp16, [1024]>(BLOBFILE(path = tensor<string, []>("@model_path/weights/weight.bin"), offset = tensor<uint64, []>(122542464)))];
            tensor<fp16, [1, 77, 1024]> tensor_15_cast = linear(bias = text_encoder_text_model_encoder_layers_2_self_attn_v_proj_bias_to_fp16, weight = text_encoder_text_model_encoder_layers_2_self_attn_v_proj_weight_to_fp16_palettized, x = hidden_states_13_cast)[name = tensor<string, []>("tensor_15_cast")];
            tensor<int32, [4]> var_296 = const()[name = tensor<string, []>("op_296"), val = tensor<int32, [4]>([1, -1, 16, 64])];
            tensor<fp16, [1, 77, 16, 64]> var_297_cast = reshape(shape = var_296, x = tensor_15_cast)[name = tensor<string, []>("op_297_cast")];
            tensor<int32, [4]> var_298_perm_0 = const()[name = tensor<string, []>("op_298_perm_0"), val = tensor<int32, [4]>([0, 2, 1, 3])];
            tensor<int32, [4]> var_305 = const()[name = tensor<string, []>("op_305"), val = tensor<int32, [4]>([1, 77, 16, 64])];
            tensor<fp16, [1, 77, 16, 64]> var_306_cast = reshape(shape = var_305, x = tensor_17_cast)[name = tensor<string, []>("op_306_cast")];
            tensor<int32, [4]> var_307_perm_0 = const()[name = tensor<string, []>("op_307_perm_0"), val = tensor<int32, [4]>([0, 2, 1, 3])];
            tensor<int32, [3]> var_309 = const()[name = tensor<string, []>("op_309"), val = tensor<int32, [3]>([16, -1, 64])];
            tensor<fp16, [1, 16, 77, 64]> transpose_104 = transpose(perm = var_307_perm_0, x = var_306_cast)[name = tensor<string, []>("transpose_104")];
            tensor<fp16, [16, 77, 64]> query_states_5_cast = reshape(shape = var_309, x = transpose_104)[name = tensor<string, []>("query_states_5_cast")];
            tensor<int32, [3]> var_311 = const()[name = tensor<string, []>("op_311"), val = tensor<int32, [3]>([16, -1, 64])];
            tensor<fp16, [1, 16, 77, 64]> transpose_103 = transpose(perm = var_291_perm_0, x = var_290_cast)[name = tensor<string, []>("transpose_103")];
            tensor<fp16, [16, 77, 64]> key_states_11_cast = reshape(shape = var_311, x = transpose_103)[name = tensor<string, []>("key_states_11_cast")];
            tensor<int32, [3]> var_313 = const()[name = tensor<string, []>("op_313"), val = tensor<int32, [3]>([16, -1, 64])];
            tensor<fp16, [1, 16, 77, 64]> transpose_102 = transpose(perm = var_298_perm_0, x = var_297_cast)[name = tensor<string, []>("transpose_102")];
            tensor<fp16, [16, 77, 64]> value_states_11_cast = reshape(shape = var_313, x = transpose_102)[name = tensor<string, []>("value_states_11_cast")];
            tensor<int32, [3]> var_316_perm_0 = const()[name = tensor<string, []>("op_316_perm_0"), val = tensor<int32, [3]>([0, 2, 1])];
            tensor<bool, []> attn_weights_13_transpose_x_0 = const()[name = tensor<string, []>("attn_weights_13_transpose_x_0"), val = tensor<bool, []>(false)];
            tensor<bool, []> attn_weights_13_transpose_y_0 = const()[name = tensor<string, []>("attn_weights_13_transpose_y_0"), val = tensor<bool, []>(false)];
            tensor<fp16, [16, 64, 77]> transpose_101 = transpose(perm = var_316_perm_0, x = key_states_11_cast)[name = tensor<string, []>("transpose_101")];
            tensor<fp16, [16, 77, 77]> attn_weights_13_cast = matmul(transpose_x = attn_weights_13_transpose_x_0, transpose_y = attn_weights_13_transpose_y_0, x = query_states_5_cast, y = transpose_101)[name = tensor<string, []>("attn_weights_13_cast")];
            tensor<int32, [4]> var_318 = const()[name = tensor<string, []>("op_318"), val = tensor<int32, [4]>([1, 16, 77, 77])];
            tensor<fp16, [1, 16, 77, 77]> var_319_cast = reshape(shape = var_318, x = attn_weights_13_cast)[name = tensor<string, []>("op_319_cast")];
            tensor<fp16, [1, 16, 77, 77]> attn_weights_15_cast = add(x = var_319_cast, y = causal_attention_mask_to_fp16_palettized)[name = tensor<string, []>("attn_weights_15_cast")];
            tensor<int32, [3]> var_324 = const()[name = tensor<string, []>("op_324"), val = tensor<int32, [3]>([16, 77, 77])];
            tensor<fp16, [16, 77, 77]> input_37_cast = reshape(shape = var_324, x = attn_weights_15_cast)[name = tensor<string, []>("input_37_cast")];
            tensor<fp16, [16, 77, 77]> input_39_cast = softmax(axis = var_5, x = input_37_cast)[name = tensor<string, []>("input_39_cast")];
            tensor<bool, []> attn_output_13_transpose_x_0 = const()[name = tensor<string, []>("attn_output_13_transpose_x_0"), val = tensor<bool, []>(false)];
            tensor<bool, []> attn_output_13_transpose_y_0 = const()[name = tensor<string, []>("attn_output_13_transpose_y_0"), val = tensor<bool, []>(false)];
            tensor<fp16, [16, 77, 64]> attn_output_13_cast = matmul(transpose_x = attn_output_13_transpose_x_0, transpose_y = attn_output_13_transpose_y_0, x = input_39_cast, y = value_states_11_cast)[name = tensor<string, []>("attn_output_13_cast")];
            tensor<int32, [4]> var_329 = const()[name = tensor<string, []>("op_329"), val = tensor<int32, [4]>([1, 16, 77, 64])];
            tensor<fp16, [1, 16, 77, 64]> attn_output_15_cast = reshape(shape = var_329, x = attn_output_13_cast)[name = tensor<string, []>("attn_output_15_cast")];
            tensor<int32, [4]> attn_output_17_perm_0 = const()[name = tensor<string, []>("attn_output_17_perm_0"), val = tensor<int32, [4]>([0, 2, 1, 3])];
            tensor<int32, [3]> var_332 = const()[name = tensor<string, []>("op_332"), val = tensor<int32, [3]>([1, 77, 1024])];
            tensor<fp16, [1, 77, 16, 64]> transpose_100 = transpose(perm = attn_output_17_perm_0, x = attn_output_15_cast)[name = tensor<string, []>("transpose_100")];
            tensor<fp16, [1, 77, 1024]> input_41_cast = reshape(shape = var_332, x = transpose_100)[name = tensor<string, []>("input_41_cast")];
            tensor<fp16, [1024, 1024]> text_encoder_text_model_encoder_layers_2_self_attn_out_proj_weight_to_fp16_palettized = constexpr_lut_to_dense()[indices = tensor<uint8, [786432]>(BLOBFILE(path = tensor<string, []>("@model_path/weights/weight.bin"), offset = tensor<uint64, []>(122544576))), lut = tensor<fp16, [64]>(BLOBFILE(path = tensor<string, []>("@model_path/weights/weight.bin"), offset = tensor<uint64, []>(123331072))), name = tensor<string, []>("text_encoder_text_model_encoder_layers_2_self_attn_out_proj_weight_to_fp16_palettized"), shape = tensor<uint32, [2]>([1024, 1024])];
            tensor<fp16, [1024]> text_encoder_text_model_encoder_layers_2_self_attn_out_proj_bias_to_fp16 = const()[name = tensor<string, []>("text_encoder_text_model_encoder_layers_2_self_attn_out_proj_bias_to_fp16"), val = tensor<fp16, [1024]>(BLOBFILE(path = tensor<string, []>("@model_path/weights/weight.bin"), offset = tensor<uint64, []>(123331264)))];
            tensor<fp16, [1, 77, 1024]> hidden_states_15_cast = linear(bias = text_encoder_text_model_encoder_layers_2_self_attn_out_proj_bias_to_fp16, weight = text_encoder_text_model_encoder_layers_2_self_attn_out_proj_weight_to_fp16_palettized, x = input_41_cast)[name = tensor<string, []>("hidden_states_15_cast")];
            tensor<fp16, [1, 77, 1024]> input_43_cast = add(x = input_35_cast, y = hidden_states_15_cast)[name = tensor<string, []>("input_43_cast")];
            tensor<int32, [1]> input_45_axes_0 = const()[name = tensor<string, []>("input_45_axes_0"), val = tensor<int32, [1]>([-1])];
            tensor<fp16, [1024]> text_encoder_text_model_encoder_layers_2_layer_norm2_weight_to_fp16 = const()[name = tensor<string, []>("text_encoder_text_model_encoder_layers_2_layer_norm2_weight_to_fp16"), val = tensor<fp16, [1024]>(BLOBFILE(path = tensor<string, []>("@model_path/weights/weight.bin"), offset = tensor<uint64, []>(123333376)))];
            tensor<fp16, [1024]> text_encoder_text_model_encoder_layers_2_layer_norm2_bias_to_fp16 = const()[name = tensor<string, []>("text_encoder_text_model_encoder_layers_2_layer_norm2_bias_to_fp16"), val = tensor<fp16, [1024]>(BLOBFILE(path = tensor<string, []>("@model_path/weights/weight.bin"), offset = tensor<uint64, []>(123335488)))];
            tensor<fp16, [1, 77, 1024]> input_45_cast = layer_norm(axes = input_45_axes_0, beta = text_encoder_text_model_encoder_layers_2_layer_norm2_bias_to_fp16, epsilon = var_12_to_fp16, gamma = text_encoder_text_model_encoder_layers_2_layer_norm2_weight_to_fp16, x = input_43_cast)[name = tensor<string, []>("input_45_cast")];
            tensor<fp16, [4096, 1024]> text_encoder_text_model_encoder_layers_2_mlp_fc1_weight_to_fp16_palettized = constexpr_lut_to_dense()[indices = tensor<uint8, [3145728]>(BLOBFILE(path = tensor<string, []>("@model_path/weights/weight.bin"), offset = tensor<uint64, []>(123337600))), lut = tensor<fp16, [64]>(BLOBFILE(path = tensor<string, []>("@model_path/weights/weight.bin"), offset = tensor<uint64, []>(126483392))), name = tensor<string, []>("text_encoder_text_model_encoder_layers_2_mlp_fc1_weight_to_fp16_palettized"), shape = tensor<uint32, [2]>([4096, 1024])];
            tensor<fp16, [4096]> text_encoder_text_model_encoder_layers_2_mlp_fc1_bias_to_fp16_palettized = constexpr_lut_to_dense()[indices = tensor<uint8, [3072]>(BLOBFILE(path = tensor<string, []>("@model_path/weights/weight.bin"), offset = tensor<uint64, []>(126483584))), lut = tensor<fp16, [64]>(BLOBFILE(path = tensor<string, []>("@model_path/weights/weight.bin"), offset = tensor<uint64, []>(126486720))), name = tensor<string, []>("text_encoder_text_model_encoder_layers_2_mlp_fc1_bias_to_fp16_palettized"), shape = tensor<uint32, [1]>([4096])];
            tensor<fp16, [1, 77, 4096]> input_47_cast = linear(bias = text_encoder_text_model_encoder_layers_2_mlp_fc1_bias_to_fp16_palettized, weight = text_encoder_text_model_encoder_layers_2_mlp_fc1_weight_to_fp16_palettized, x = input_45_cast)[name = tensor<string, []>("input_47_cast")];
            tensor<string, []> input_49_mode_0 = const()[name = tensor<string, []>("input_49_mode_0"), val = tensor<string, []>("EXACT")];
            tensor<fp16, [1, 77, 4096]> input_49_cast = gelu(mode = input_49_mode_0, x = input_47_cast)[name = tensor<string, []>("input_49_cast")];
            tensor<fp16, [1024, 4096]> text_encoder_text_model_encoder_layers_2_mlp_fc2_weight_to_fp16_palettized = constexpr_lut_to_dense()[indices = tensor<uint8, [3145728]>(BLOBFILE(path = tensor<string, []>("@model_path/weights/weight.bin"), offset = tensor<uint64, []>(126486912))), lut = tensor<fp16, [64]>(BLOBFILE(path = tensor<string, []>("@model_path/weights/weight.bin"), offset = tensor<uint64, []>(129632704))), name = tensor<string, []>("text_encoder_text_model_encoder_layers_2_mlp_fc2_weight_to_fp16_palettized"), shape = tensor<uint32, [2]>([1024, 4096])];
            tensor<fp16, [1024]> text_encoder_text_model_encoder_layers_2_mlp_fc2_bias_to_fp16 = const()[name = tensor<string, []>("text_encoder_text_model_encoder_layers_2_mlp_fc2_bias_to_fp16"), val = tensor<fp16, [1024]>(BLOBFILE(path = tensor<string, []>("@model_path/weights/weight.bin"), offset = tensor<uint64, []>(129632896)))];
            tensor<fp16, [1, 77, 1024]> hidden_states_17_cast = linear(bias = text_encoder_text_model_encoder_layers_2_mlp_fc2_bias_to_fp16, weight = text_encoder_text_model_encoder_layers_2_mlp_fc2_weight_to_fp16_palettized, x = input_49_cast)[name = tensor<string, []>("hidden_states_17_cast")];
            tensor<fp16, [1, 77, 1024]> input_51_cast = add(x = input_43_cast, y = hidden_states_17_cast)[name = tensor<string, []>("input_51_cast")];
            tensor<int32, [1]> hidden_states_19_axes_0 = const()[name = tensor<string, []>("hidden_states_19_axes_0"), val = tensor<int32, [1]>([-1])];
            tensor<fp16, [1024]> text_encoder_text_model_encoder_layers_3_layer_norm1_weight_to_fp16 = const()[name = tensor<string, []>("text_encoder_text_model_encoder_layers_3_layer_norm1_weight_to_fp16"), val = tensor<fp16, [1024]>(BLOBFILE(path = tensor<string, []>("@model_path/weights/weight.bin"), offset = tensor<uint64, []>(129635008)))];
            tensor<fp16, [1024]> text_encoder_text_model_encoder_layers_3_layer_norm1_bias_to_fp16 = const()[name = tensor<string, []>("text_encoder_text_model_encoder_layers_3_layer_norm1_bias_to_fp16"), val = tensor<fp16, [1024]>(BLOBFILE(path = tensor<string, []>("@model_path/weights/weight.bin"), offset = tensor<uint64, []>(129637120)))];
            tensor<fp16, [1, 77, 1024]> hidden_states_19_cast = layer_norm(axes = hidden_states_19_axes_0, beta = text_encoder_text_model_encoder_layers_3_layer_norm1_bias_to_fp16, epsilon = var_12_to_fp16, gamma = text_encoder_text_model_encoder_layers_3_layer_norm1_weight_to_fp16, x = input_51_cast)[name = tensor<string, []>("hidden_states_19_cast")];
            tensor<fp16, [1024, 1024]> text_encoder_text_model_encoder_layers_3_self_attn_q_proj_weight_to_fp16_palettized = constexpr_lut_to_dense()[indices = tensor<uint8, [786432]>(BLOBFILE(path = tensor<string, []>("@model_path/weights/weight.bin"), offset = tensor<uint64, []>(129639232))), lut = tensor<fp16, [64]>(BLOBFILE(path = tensor<string, []>("@model_path/weights/weight.bin"), offset = tensor<uint64, []>(130425728))), name = tensor<string, []>("text_encoder_text_model_encoder_layers_3_self_attn_q_proj_weight_to_fp16_palettized"), shape = tensor<uint32, [2]>([1024, 1024])];
            tensor<fp16, [1024]> text_encoder_text_model_encoder_layers_3_self_attn_q_proj_bias_to_fp16 = const()[name = tensor<string, []>("text_encoder_text_model_encoder_layers_3_self_attn_q_proj_bias_to_fp16"), val = tensor<fp16, [1024]>(BLOBFILE(path = tensor<string, []>("@model_path/weights/weight.bin"), offset = tensor<uint64, []>(130425920)))];
            tensor<fp16, [1, 77, 1024]> var_370_cast = linear(bias = text_encoder_text_model_encoder_layers_3_self_attn_q_proj_bias_to_fp16, weight = text_encoder_text_model_encoder_layers_3_self_attn_q_proj_weight_to_fp16_palettized, x = hidden_states_19_cast)[name = tensor<string, []>("op_370_cast")];
            tensor<fp16, []> var_371_to_fp16 = const()[name = tensor<string, []>("op_371_to_fp16"), val = tensor<fp16, []>(0x1p-3)];
            tensor<fp16, [1, 77, 1024]> tensor_23_cast = mul(x = var_370_cast, y = var_371_to_fp16)[name = tensor<string, []>("tensor_23_cast")];
            tensor<fp16, [1024, 1024]> text_encoder_text_model_encoder_layers_3_self_attn_k_proj_weight_to_fp16_palettized = constexpr_lut_to_dense()[indices = tensor<uint8, [786432]>(BLOBFILE(path = tensor<string, []>("@model_path/weights/weight.bin"), offset = tensor<uint64, []>(130428032))), lut = tensor<fp16, [64]>(BLOBFILE(path = tensor<string, []>("@model_path/weights/weight.bin"), offset = tensor<uint64, []>(131214528))), name = tensor<string, []>("text_encoder_text_model_encoder_layers_3_self_attn_k_proj_weight_to_fp16_palettized"), shape = tensor<uint32, [2]>([1024, 1024])];
            tensor<fp16, [1024]> text_encoder_text_model_encoder_layers_3_self_attn_k_proj_bias_to_fp16 = const()[name = tensor<string, []>("text_encoder_text_model_encoder_layers_3_self_attn_k_proj_bias_to_fp16"), val = tensor<fp16, [1024]>(BLOBFILE(path = tensor<string, []>("@model_path/weights/weight.bin"), offset = tensor<uint64, []>(131214720)))];
            tensor<fp16, [1, 77, 1024]> tensor_19_cast = linear(bias = text_encoder_text_model_encoder_layers_3_self_attn_k_proj_bias_to_fp16, weight = text_encoder_text_model_encoder_layers_3_self_attn_k_proj_weight_to_fp16_palettized, x = hidden_states_19_cast)[name = tensor<string, []>("tensor_19_cast")];
            tensor<int32, [4]> var_376 = const()[name = tensor<string, []>("op_376"), val = tensor<int32, [4]>([1, -1, 16, 64])];
            tensor<fp16, [1, 77, 16, 64]> var_377_cast = reshape(shape = var_376, x = tensor_19_cast)[name = tensor<string, []>("op_377_cast")];
            tensor<int32, [4]> var_378_perm_0 = const()[name = tensor<string, []>("op_378_perm_0"), val = tensor<int32, [4]>([0, 2, 1, 3])];
            tensor<fp16, [1024, 1024]> text_encoder_text_model_encoder_layers_3_self_attn_v_proj_weight_to_fp16_palettized = constexpr_lut_to_dense()[indices = tensor<uint8, [786432]>(BLOBFILE(path = tensor<string, []>("@model_path/weights/weight.bin"), offset = tensor<uint64, []>(131216832))), lut = tensor<fp16, [64]>(BLOBFILE(path = tensor<string, []>("@model_path/weights/weight.bin"), offset = tensor<uint64, []>(132003328))), name = tensor<string, []>("text_encoder_text_model_encoder_layers_3_self_attn_v_proj_weight_to_fp16_palettized"), shape = tensor<uint32, [2]>([1024, 1024])];
            tensor<fp16, [1024]> text_encoder_text_model_encoder_layers_3_self_attn_v_proj_bias_to_fp16 = const()[name = tensor<string, []>("text_encoder_text_model_encoder_layers_3_self_attn_v_proj_bias_to_fp16"), val = tensor<fp16, [1024]>(BLOBFILE(path = tensor<string, []>("@model_path/weights/weight.bin"), offset = tensor<uint64, []>(132003520)))];
            tensor<fp16, [1, 77, 1024]> tensor_21_cast = linear(bias = text_encoder_text_model_encoder_layers_3_self_attn_v_proj_bias_to_fp16, weight = text_encoder_text_model_encoder_layers_3_self_attn_v_proj_weight_to_fp16_palettized, x = hidden_states_19_cast)[name = tensor<string, []>("tensor_21_cast")];
            tensor<int32, [4]> var_383 = const()[name = tensor<string, []>("op_383"), val = tensor<int32, [4]>([1, -1, 16, 64])];
            tensor<fp16, [1, 77, 16, 64]> var_384_cast = reshape(shape = var_383, x = tensor_21_cast)[name = tensor<string, []>("op_384_cast")];
            tensor<int32, [4]> var_385_perm_0 = const()[name = tensor<string, []>("op_385_perm_0"), val = tensor<int32, [4]>([0, 2, 1, 3])];
            tensor<int32, [4]> var_392 = const()[name = tensor<string, []>("op_392"), val = tensor<int32, [4]>([1, 77, 16, 64])];
            tensor<fp16, [1, 77, 16, 64]> var_393_cast = reshape(shape = var_392, x = tensor_23_cast)[name = tensor<string, []>("op_393_cast")];
            tensor<int32, [4]> var_394_perm_0 = const()[name = tensor<string, []>("op_394_perm_0"), val = tensor<int32, [4]>([0, 2, 1, 3])];
            tensor<int32, [3]> var_396 = const()[name = tensor<string, []>("op_396"), val = tensor<int32, [3]>([16, -1, 64])];
            tensor<fp16, [1, 16, 77, 64]> transpose_99 = transpose(perm = var_394_perm_0, x = var_393_cast)[name = tensor<string, []>("transpose_99")];
            tensor<fp16, [16, 77, 64]> query_states_7_cast = reshape(shape = var_396, x = transpose_99)[name = tensor<string, []>("query_states_7_cast")];
            tensor<int32, [3]> var_398 = const()[name = tensor<string, []>("op_398"), val = tensor<int32, [3]>([16, -1, 64])];
            tensor<fp16, [1, 16, 77, 64]> transpose_98 = transpose(perm = var_378_perm_0, x = var_377_cast)[name = tensor<string, []>("transpose_98")];
            tensor<fp16, [16, 77, 64]> key_states_15_cast = reshape(shape = var_398, x = transpose_98)[name = tensor<string, []>("key_states_15_cast")];
            tensor<int32, [3]> var_400 = const()[name = tensor<string, []>("op_400"), val = tensor<int32, [3]>([16, -1, 64])];
            tensor<fp16, [1, 16, 77, 64]> transpose_97 = transpose(perm = var_385_perm_0, x = var_384_cast)[name = tensor<string, []>("transpose_97")];
            tensor<fp16, [16, 77, 64]> value_states_15_cast = reshape(shape = var_400, x = transpose_97)[name = tensor<string, []>("value_states_15_cast")];
            tensor<int32, [3]> var_403_perm_0 = const()[name = tensor<string, []>("op_403_perm_0"), val = tensor<int32, [3]>([0, 2, 1])];
            tensor<bool, []> attn_weights_19_transpose_x_0 = const()[name = tensor<string, []>("attn_weights_19_transpose_x_0"), val = tensor<bool, []>(false)];
            tensor<bool, []> attn_weights_19_transpose_y_0 = const()[name = tensor<string, []>("attn_weights_19_transpose_y_0"), val = tensor<bool, []>(false)];
            tensor<fp16, [16, 64, 77]> transpose_96 = transpose(perm = var_403_perm_0, x = key_states_15_cast)[name = tensor<string, []>("transpose_96")];
            tensor<fp16, [16, 77, 77]> attn_weights_19_cast = matmul(transpose_x = attn_weights_19_transpose_x_0, transpose_y = attn_weights_19_transpose_y_0, x = query_states_7_cast, y = transpose_96)[name = tensor<string, []>("attn_weights_19_cast")];
            tensor<int32, [4]> var_405 = const()[name = tensor<string, []>("op_405"), val = tensor<int32, [4]>([1, 16, 77, 77])];
            tensor<fp16, [1, 16, 77, 77]> var_406_cast = reshape(shape = var_405, x = attn_weights_19_cast)[name = tensor<string, []>("op_406_cast")];
            tensor<fp16, [1, 16, 77, 77]> attn_weights_21_cast = add(x = var_406_cast, y = causal_attention_mask_to_fp16_palettized)[name = tensor<string, []>("attn_weights_21_cast")];
            tensor<int32, [3]> var_411 = const()[name = tensor<string, []>("op_411"), val = tensor<int32, [3]>([16, 77, 77])];
            tensor<fp16, [16, 77, 77]> input_53_cast = reshape(shape = var_411, x = attn_weights_21_cast)[name = tensor<string, []>("input_53_cast")];
            tensor<fp16, [16, 77, 77]> input_55_cast = softmax(axis = var_5, x = input_53_cast)[name = tensor<string, []>("input_55_cast")];
            tensor<bool, []> attn_output_19_transpose_x_0 = const()[name = tensor<string, []>("attn_output_19_transpose_x_0"), val = tensor<bool, []>(false)];
            tensor<bool, []> attn_output_19_transpose_y_0 = const()[name = tensor<string, []>("attn_output_19_transpose_y_0"), val = tensor<bool, []>(false)];
            tensor<fp16, [16, 77, 64]> attn_output_19_cast = matmul(transpose_x = attn_output_19_transpose_x_0, transpose_y = attn_output_19_transpose_y_0, x = input_55_cast, y = value_states_15_cast)[name = tensor<string, []>("attn_output_19_cast")];
            tensor<int32, [4]> var_416 = const()[name = tensor<string, []>("op_416"), val = tensor<int32, [4]>([1, 16, 77, 64])];
            tensor<fp16, [1, 16, 77, 64]> attn_output_21_cast = reshape(shape = var_416, x = attn_output_19_cast)[name = tensor<string, []>("attn_output_21_cast")];
            tensor<int32, [4]> attn_output_23_perm_0 = const()[name = tensor<string, []>("attn_output_23_perm_0"), val = tensor<int32, [4]>([0, 2, 1, 3])];
            tensor<int32, [3]> var_419 = const()[name = tensor<string, []>("op_419"), val = tensor<int32, [3]>([1, 77, 1024])];
            tensor<fp16, [1, 77, 16, 64]> transpose_95 = transpose(perm = attn_output_23_perm_0, x = attn_output_21_cast)[name = tensor<string, []>("transpose_95")];
            tensor<fp16, [1, 77, 1024]> input_57_cast = reshape(shape = var_419, x = transpose_95)[name = tensor<string, []>("input_57_cast")];
            tensor<fp16, [1024, 1024]> text_encoder_text_model_encoder_layers_3_self_attn_out_proj_weight_to_fp16_palettized = constexpr_lut_to_dense()[indices = tensor<uint8, [786432]>(BLOBFILE(path = tensor<string, []>("@model_path/weights/weight.bin"), offset = tensor<uint64, []>(132005632))), lut = tensor<fp16, [64]>(BLOBFILE(path = tensor<string, []>("@model_path/weights/weight.bin"), offset = tensor<uint64, []>(132792128))), name = tensor<string, []>("text_encoder_text_model_encoder_layers_3_self_attn_out_proj_weight_to_fp16_palettized"), shape = tensor<uint32, [2]>([1024, 1024])];
            tensor<fp16, [1024]> text_encoder_text_model_encoder_layers_3_self_attn_out_proj_bias_to_fp16 = const()[name = tensor<string, []>("text_encoder_text_model_encoder_layers_3_self_attn_out_proj_bias_to_fp16"), val = tensor<fp16, [1024]>(BLOBFILE(path = tensor<string, []>("@model_path/weights/weight.bin"), offset = tensor<uint64, []>(132792320)))];
            tensor<fp16, [1, 77, 1024]> hidden_states_21_cast = linear(bias = text_encoder_text_model_encoder_layers_3_self_attn_out_proj_bias_to_fp16, weight = text_encoder_text_model_encoder_layers_3_self_attn_out_proj_weight_to_fp16_palettized, x = input_57_cast)[name = tensor<string, []>("hidden_states_21_cast")];
            tensor<fp16, [1, 77, 1024]> input_59_cast = add(x = input_51_cast, y = hidden_states_21_cast)[name = tensor<string, []>("input_59_cast")];
            tensor<int32, [1]> input_61_axes_0 = const()[name = tensor<string, []>("input_61_axes_0"), val = tensor<int32, [1]>([-1])];
            tensor<fp16, [1024]> text_encoder_text_model_encoder_layers_3_layer_norm2_weight_to_fp16 = const()[name = tensor<string, []>("text_encoder_text_model_encoder_layers_3_layer_norm2_weight_to_fp16"), val = tensor<fp16, [1024]>(BLOBFILE(path = tensor<string, []>("@model_path/weights/weight.bin"), offset = tensor<uint64, []>(132794432)))];
            tensor<fp16, [1024]> text_encoder_text_model_encoder_layers_3_layer_norm2_bias_to_fp16 = const()[name = tensor<string, []>("text_encoder_text_model_encoder_layers_3_layer_norm2_bias_to_fp16"), val = tensor<fp16, [1024]>(BLOBFILE(path = tensor<string, []>("@model_path/weights/weight.bin"), offset = tensor<uint64, []>(132796544)))];
            tensor<fp16, [1, 77, 1024]> input_61_cast = layer_norm(axes = input_61_axes_0, beta = text_encoder_text_model_encoder_layers_3_layer_norm2_bias_to_fp16, epsilon = var_12_to_fp16, gamma = text_encoder_text_model_encoder_layers_3_layer_norm2_weight_to_fp16, x = input_59_cast)[name = tensor<string, []>("input_61_cast")];
            tensor<fp16, [4096, 1024]> text_encoder_text_model_encoder_layers_3_mlp_fc1_weight_to_fp16_palettized = constexpr_lut_to_dense()[indices = tensor<uint8, [3145728]>(BLOBFILE(path = tensor<string, []>("@model_path/weights/weight.bin"), offset = tensor<uint64, []>(132798656))), lut = tensor<fp16, [64]>(BLOBFILE(path = tensor<string, []>("@model_path/weights/weight.bin"), offset = tensor<uint64, []>(135944448))), name = tensor<string, []>("text_encoder_text_model_encoder_layers_3_mlp_fc1_weight_to_fp16_palettized"), shape = tensor<uint32, [2]>([4096, 1024])];
            tensor<fp16, [4096]> text_encoder_text_model_encoder_layers_3_mlp_fc1_bias_to_fp16_palettized = constexpr_lut_to_dense()[indices = tensor<uint8, [3072]>(BLOBFILE(path = tensor<string, []>("@model_path/weights/weight.bin"), offset = tensor<uint64, []>(135944640))), lut = tensor<fp16, [64]>(BLOBFILE(path = tensor<string, []>("@model_path/weights/weight.bin"), offset = tensor<uint64, []>(135947776))), name = tensor<string, []>("text_encoder_text_model_encoder_layers_3_mlp_fc1_bias_to_fp16_palettized"), shape = tensor<uint32, [1]>([4096])];
            tensor<fp16, [1, 77, 4096]> input_63_cast = linear(bias = text_encoder_text_model_encoder_layers_3_mlp_fc1_bias_to_fp16_palettized, weight = text_encoder_text_model_encoder_layers_3_mlp_fc1_weight_to_fp16_palettized, x = input_61_cast)[name = tensor<string, []>("input_63_cast")];
            tensor<string, []> input_65_mode_0 = const()[name = tensor<string, []>("input_65_mode_0"), val = tensor<string, []>("EXACT")];
            tensor<fp16, [1, 77, 4096]> input_65_cast = gelu(mode = input_65_mode_0, x = input_63_cast)[name = tensor<string, []>("input_65_cast")];
            tensor<fp16, [1024, 4096]> text_encoder_text_model_encoder_layers_3_mlp_fc2_weight_to_fp16_palettized = constexpr_lut_to_dense()[indices = tensor<uint8, [3145728]>(BLOBFILE(path = tensor<string, []>("@model_path/weights/weight.bin"), offset = tensor<uint64, []>(135947968))), lut = tensor<fp16, [64]>(BLOBFILE(path = tensor<string, []>("@model_path/weights/weight.bin"), offset = tensor<uint64, []>(139093760))), name = tensor<string, []>("text_encoder_text_model_encoder_layers_3_mlp_fc2_weight_to_fp16_palettized"), shape = tensor<uint32, [2]>([1024, 4096])];
            tensor<fp16, [1024]> text_encoder_text_model_encoder_layers_3_mlp_fc2_bias_to_fp16 = const()[name = tensor<string, []>("text_encoder_text_model_encoder_layers_3_mlp_fc2_bias_to_fp16"), val = tensor<fp16, [1024]>(BLOBFILE(path = tensor<string, []>("@model_path/weights/weight.bin"), offset = tensor<uint64, []>(139093952)))];
            tensor<fp16, [1, 77, 1024]> hidden_states_23_cast = linear(bias = text_encoder_text_model_encoder_layers_3_mlp_fc2_bias_to_fp16, weight = text_encoder_text_model_encoder_layers_3_mlp_fc2_weight_to_fp16_palettized, x = input_65_cast)[name = tensor<string, []>("hidden_states_23_cast")];
            tensor<fp16, [1, 77, 1024]> input_67_cast = add(x = input_59_cast, y = hidden_states_23_cast)[name = tensor<string, []>("input_67_cast")];
            tensor<int32, [1]> hidden_states_25_axes_0 = const()[name = tensor<string, []>("hidden_states_25_axes_0"), val = tensor<int32, [1]>([-1])];
            tensor<fp16, [1024]> text_encoder_text_model_encoder_layers_4_layer_norm1_weight_to_fp16 = const()[name = tensor<string, []>("text_encoder_text_model_encoder_layers_4_layer_norm1_weight_to_fp16"), val = tensor<fp16, [1024]>(BLOBFILE(path = tensor<string, []>("@model_path/weights/weight.bin"), offset = tensor<uint64, []>(139096064)))];
            tensor<fp16, [1024]> text_encoder_text_model_encoder_layers_4_layer_norm1_bias_to_fp16 = const()[name = tensor<string, []>("text_encoder_text_model_encoder_layers_4_layer_norm1_bias_to_fp16"), val = tensor<fp16, [1024]>(BLOBFILE(path = tensor<string, []>("@model_path/weights/weight.bin"), offset = tensor<uint64, []>(139098176)))];
            tensor<fp16, [1, 77, 1024]> hidden_states_25_cast = layer_norm(axes = hidden_states_25_axes_0, beta = text_encoder_text_model_encoder_layers_4_layer_norm1_bias_to_fp16, epsilon = var_12_to_fp16, gamma = text_encoder_text_model_encoder_layers_4_layer_norm1_weight_to_fp16, x = input_67_cast)[name = tensor<string, []>("hidden_states_25_cast")];
            tensor<fp16, [1024, 1024]> text_encoder_text_model_encoder_layers_4_self_attn_q_proj_weight_to_fp16_palettized = constexpr_lut_to_dense()[indices = tensor<uint8, [786432]>(BLOBFILE(path = tensor<string, []>("@model_path/weights/weight.bin"), offset = tensor<uint64, []>(139100288))), lut = tensor<fp16, [64]>(BLOBFILE(path = tensor<string, []>("@model_path/weights/weight.bin"), offset = tensor<uint64, []>(139886784))), name = tensor<string, []>("text_encoder_text_model_encoder_layers_4_self_attn_q_proj_weight_to_fp16_palettized"), shape = tensor<uint32, [2]>([1024, 1024])];
            tensor<fp16, [1024]> text_encoder_text_model_encoder_layers_4_self_attn_q_proj_bias_to_fp16 = const()[name = tensor<string, []>("text_encoder_text_model_encoder_layers_4_self_attn_q_proj_bias_to_fp16"), val = tensor<fp16, [1024]>(BLOBFILE(path = tensor<string, []>("@model_path/weights/weight.bin"), offset = tensor<uint64, []>(139886976)))];
            tensor<fp16, [1, 77, 1024]> var_457_cast = linear(bias = text_encoder_text_model_encoder_layers_4_self_attn_q_proj_bias_to_fp16, weight = text_encoder_text_model_encoder_layers_4_self_attn_q_proj_weight_to_fp16_palettized, x = hidden_states_25_cast)[name = tensor<string, []>("op_457_cast")];
            tensor<fp16, []> var_458_to_fp16 = const()[name = tensor<string, []>("op_458_to_fp16"), val = tensor<fp16, []>(0x1p-3)];
            tensor<fp16, [1, 77, 1024]> tensor_29_cast = mul(x = var_457_cast, y = var_458_to_fp16)[name = tensor<string, []>("tensor_29_cast")];
            tensor<fp16, [1024, 1024]> text_encoder_text_model_encoder_layers_4_self_attn_k_proj_weight_to_fp16_palettized = constexpr_lut_to_dense()[indices = tensor<uint8, [786432]>(BLOBFILE(path = tensor<string, []>("@model_path/weights/weight.bin"), offset = tensor<uint64, []>(139889088))), lut = tensor<fp16, [64]>(BLOBFILE(path = tensor<string, []>("@model_path/weights/weight.bin"), offset = tensor<uint64, []>(140675584))), name = tensor<string, []>("text_encoder_text_model_encoder_layers_4_self_attn_k_proj_weight_to_fp16_palettized"), shape = tensor<uint32, [2]>([1024, 1024])];
            tensor<fp16, [1024]> text_encoder_text_model_encoder_layers_4_self_attn_k_proj_bias_to_fp16 = const()[name = tensor<string, []>("text_encoder_text_model_encoder_layers_4_self_attn_k_proj_bias_to_fp16"), val = tensor<fp16, [1024]>(BLOBFILE(path = tensor<string, []>("@model_path/weights/weight.bin"), offset = tensor<uint64, []>(140675776)))];
            tensor<fp16, [1, 77, 1024]> tensor_25_cast = linear(bias = text_encoder_text_model_encoder_layers_4_self_attn_k_proj_bias_to_fp16, weight = text_encoder_text_model_encoder_layers_4_self_attn_k_proj_weight_to_fp16_palettized, x = hidden_states_25_cast)[name = tensor<string, []>("tensor_25_cast")];
            tensor<int32, [4]> var_463 = const()[name = tensor<string, []>("op_463"), val = tensor<int32, [4]>([1, -1, 16, 64])];
            tensor<fp16, [1, 77, 16, 64]> var_464_cast = reshape(shape = var_463, x = tensor_25_cast)[name = tensor<string, []>("op_464_cast")];
            tensor<int32, [4]> var_465_perm_0 = const()[name = tensor<string, []>("op_465_perm_0"), val = tensor<int32, [4]>([0, 2, 1, 3])];
            tensor<fp16, [1024, 1024]> text_encoder_text_model_encoder_layers_4_self_attn_v_proj_weight_to_fp16_palettized = constexpr_lut_to_dense()[indices = tensor<uint8, [786432]>(BLOBFILE(path = tensor<string, []>("@model_path/weights/weight.bin"), offset = tensor<uint64, []>(140677888))), lut = tensor<fp16, [64]>(BLOBFILE(path = tensor<string, []>("@model_path/weights/weight.bin"), offset = tensor<uint64, []>(141464384))), name = tensor<string, []>("text_encoder_text_model_encoder_layers_4_self_attn_v_proj_weight_to_fp16_palettized"), shape = tensor<uint32, [2]>([1024, 1024])];
            tensor<fp16, [1024]> text_encoder_text_model_encoder_layers_4_self_attn_v_proj_bias_to_fp16 = const()[name = tensor<string, []>("text_encoder_text_model_encoder_layers_4_self_attn_v_proj_bias_to_fp16"), val = tensor<fp16, [1024]>(BLOBFILE(path = tensor<string, []>("@model_path/weights/weight.bin"), offset = tensor<uint64, []>(141464576)))];
            tensor<fp16, [1, 77, 1024]> tensor_27_cast = linear(bias = text_encoder_text_model_encoder_layers_4_self_attn_v_proj_bias_to_fp16, weight = text_encoder_text_model_encoder_layers_4_self_attn_v_proj_weight_to_fp16_palettized, x = hidden_states_25_cast)[name = tensor<string, []>("tensor_27_cast")];
            tensor<int32, [4]> var_470 = const()[name = tensor<string, []>("op_470"), val = tensor<int32, [4]>([1, -1, 16, 64])];
            tensor<fp16, [1, 77, 16, 64]> var_471_cast = reshape(shape = var_470, x = tensor_27_cast)[name = tensor<string, []>("op_471_cast")];
            tensor<int32, [4]> var_472_perm_0 = const()[name = tensor<string, []>("op_472_perm_0"), val = tensor<int32, [4]>([0, 2, 1, 3])];
            tensor<int32, [4]> var_479 = const()[name = tensor<string, []>("op_479"), val = tensor<int32, [4]>([1, 77, 16, 64])];
            tensor<fp16, [1, 77, 16, 64]> var_480_cast = reshape(shape = var_479, x = tensor_29_cast)[name = tensor<string, []>("op_480_cast")];
            tensor<int32, [4]> var_481_perm_0 = const()[name = tensor<string, []>("op_481_perm_0"), val = tensor<int32, [4]>([0, 2, 1, 3])];
            tensor<int32, [3]> var_483 = const()[name = tensor<string, []>("op_483"), val = tensor<int32, [3]>([16, -1, 64])];
            tensor<fp16, [1, 16, 77, 64]> transpose_94 = transpose(perm = var_481_perm_0, x = var_480_cast)[name = tensor<string, []>("transpose_94")];
            tensor<fp16, [16, 77, 64]> query_states_9_cast = reshape(shape = var_483, x = transpose_94)[name = tensor<string, []>("query_states_9_cast")];
            tensor<int32, [3]> var_485 = const()[name = tensor<string, []>("op_485"), val = tensor<int32, [3]>([16, -1, 64])];
            tensor<fp16, [1, 16, 77, 64]> transpose_93 = transpose(perm = var_465_perm_0, x = var_464_cast)[name = tensor<string, []>("transpose_93")];
            tensor<fp16, [16, 77, 64]> key_states_19_cast = reshape(shape = var_485, x = transpose_93)[name = tensor<string, []>("key_states_19_cast")];
            tensor<int32, [3]> var_487 = const()[name = tensor<string, []>("op_487"), val = tensor<int32, [3]>([16, -1, 64])];
            tensor<fp16, [1, 16, 77, 64]> transpose_92 = transpose(perm = var_472_perm_0, x = var_471_cast)[name = tensor<string, []>("transpose_92")];
            tensor<fp16, [16, 77, 64]> value_states_19_cast = reshape(shape = var_487, x = transpose_92)[name = tensor<string, []>("value_states_19_cast")];
            tensor<int32, [3]> var_490_perm_0 = const()[name = tensor<string, []>("op_490_perm_0"), val = tensor<int32, [3]>([0, 2, 1])];
            tensor<bool, []> attn_weights_25_transpose_x_0 = const()[name = tensor<string, []>("attn_weights_25_transpose_x_0"), val = tensor<bool, []>(false)];
            tensor<bool, []> attn_weights_25_transpose_y_0 = const()[name = tensor<string, []>("attn_weights_25_transpose_y_0"), val = tensor<bool, []>(false)];
            tensor<fp16, [16, 64, 77]> transpose_91 = transpose(perm = var_490_perm_0, x = key_states_19_cast)[name = tensor<string, []>("transpose_91")];
            tensor<fp16, [16, 77, 77]> attn_weights_25_cast = matmul(transpose_x = attn_weights_25_transpose_x_0, transpose_y = attn_weights_25_transpose_y_0, x = query_states_9_cast, y = transpose_91)[name = tensor<string, []>("attn_weights_25_cast")];
            tensor<int32, [4]> var_492 = const()[name = tensor<string, []>("op_492"), val = tensor<int32, [4]>([1, 16, 77, 77])];
            tensor<fp16, [1, 16, 77, 77]> var_493_cast = reshape(shape = var_492, x = attn_weights_25_cast)[name = tensor<string, []>("op_493_cast")];
            tensor<fp16, [1, 16, 77, 77]> attn_weights_27_cast = add(x = var_493_cast, y = causal_attention_mask_to_fp16_palettized)[name = tensor<string, []>("attn_weights_27_cast")];
            tensor<int32, [3]> var_498 = const()[name = tensor<string, []>("op_498"), val = tensor<int32, [3]>([16, 77, 77])];
            tensor<fp16, [16, 77, 77]> input_69_cast = reshape(shape = var_498, x = attn_weights_27_cast)[name = tensor<string, []>("input_69_cast")];
            tensor<fp16, [16, 77, 77]> input_71_cast = softmax(axis = var_5, x = input_69_cast)[name = tensor<string, []>("input_71_cast")];
            tensor<bool, []> attn_output_25_transpose_x_0 = const()[name = tensor<string, []>("attn_output_25_transpose_x_0"), val = tensor<bool, []>(false)];
            tensor<bool, []> attn_output_25_transpose_y_0 = const()[name = tensor<string, []>("attn_output_25_transpose_y_0"), val = tensor<bool, []>(false)];
            tensor<fp16, [16, 77, 64]> attn_output_25_cast = matmul(transpose_x = attn_output_25_transpose_x_0, transpose_y = attn_output_25_transpose_y_0, x = input_71_cast, y = value_states_19_cast)[name = tensor<string, []>("attn_output_25_cast")];
            tensor<int32, [4]> var_503 = const()[name = tensor<string, []>("op_503"), val = tensor<int32, [4]>([1, 16, 77, 64])];
            tensor<fp16, [1, 16, 77, 64]> attn_output_27_cast = reshape(shape = var_503, x = attn_output_25_cast)[name = tensor<string, []>("attn_output_27_cast")];
            tensor<int32, [4]> attn_output_29_perm_0 = const()[name = tensor<string, []>("attn_output_29_perm_0"), val = tensor<int32, [4]>([0, 2, 1, 3])];
            tensor<int32, [3]> var_506 = const()[name = tensor<string, []>("op_506"), val = tensor<int32, [3]>([1, 77, 1024])];
            tensor<fp16, [1, 77, 16, 64]> transpose_90 = transpose(perm = attn_output_29_perm_0, x = attn_output_27_cast)[name = tensor<string, []>("transpose_90")];
            tensor<fp16, [1, 77, 1024]> input_73_cast = reshape(shape = var_506, x = transpose_90)[name = tensor<string, []>("input_73_cast")];
            tensor<fp16, [1024, 1024]> text_encoder_text_model_encoder_layers_4_self_attn_out_proj_weight_to_fp16_palettized = constexpr_lut_to_dense()[indices = tensor<uint8, [786432]>(BLOBFILE(path = tensor<string, []>("@model_path/weights/weight.bin"), offset = tensor<uint64, []>(141466688))), lut = tensor<fp16, [64]>(BLOBFILE(path = tensor<string, []>("@model_path/weights/weight.bin"), offset = tensor<uint64, []>(142253184))), name = tensor<string, []>("text_encoder_text_model_encoder_layers_4_self_attn_out_proj_weight_to_fp16_palettized"), shape = tensor<uint32, [2]>([1024, 1024])];
            tensor<fp16, [1024]> text_encoder_text_model_encoder_layers_4_self_attn_out_proj_bias_to_fp16 = const()[name = tensor<string, []>("text_encoder_text_model_encoder_layers_4_self_attn_out_proj_bias_to_fp16"), val = tensor<fp16, [1024]>(BLOBFILE(path = tensor<string, []>("@model_path/weights/weight.bin"), offset = tensor<uint64, []>(142253376)))];
            tensor<fp16, [1, 77, 1024]> hidden_states_27_cast = linear(bias = text_encoder_text_model_encoder_layers_4_self_attn_out_proj_bias_to_fp16, weight = text_encoder_text_model_encoder_layers_4_self_attn_out_proj_weight_to_fp16_palettized, x = input_73_cast)[name = tensor<string, []>("hidden_states_27_cast")];
            tensor<fp16, [1, 77, 1024]> input_75_cast = add(x = input_67_cast, y = hidden_states_27_cast)[name = tensor<string, []>("input_75_cast")];
            tensor<int32, [1]> input_77_axes_0 = const()[name = tensor<string, []>("input_77_axes_0"), val = tensor<int32, [1]>([-1])];
            tensor<fp16, [1024]> text_encoder_text_model_encoder_layers_4_layer_norm2_weight_to_fp16 = const()[name = tensor<string, []>("text_encoder_text_model_encoder_layers_4_layer_norm2_weight_to_fp16"), val = tensor<fp16, [1024]>(BLOBFILE(path = tensor<string, []>("@model_path/weights/weight.bin"), offset = tensor<uint64, []>(142255488)))];
            tensor<fp16, [1024]> text_encoder_text_model_encoder_layers_4_layer_norm2_bias_to_fp16 = const()[name = tensor<string, []>("text_encoder_text_model_encoder_layers_4_layer_norm2_bias_to_fp16"), val = tensor<fp16, [1024]>(BLOBFILE(path = tensor<string, []>("@model_path/weights/weight.bin"), offset = tensor<uint64, []>(142257600)))];
            tensor<fp16, [1, 77, 1024]> input_77_cast = layer_norm(axes = input_77_axes_0, beta = text_encoder_text_model_encoder_layers_4_layer_norm2_bias_to_fp16, epsilon = var_12_to_fp16, gamma = text_encoder_text_model_encoder_layers_4_layer_norm2_weight_to_fp16, x = input_75_cast)[name = tensor<string, []>("input_77_cast")];
            tensor<fp16, [4096, 1024]> text_encoder_text_model_encoder_layers_4_mlp_fc1_weight_to_fp16_palettized = constexpr_lut_to_dense()[indices = tensor<uint8, [3145728]>(BLOBFILE(path = tensor<string, []>("@model_path/weights/weight.bin"), offset = tensor<uint64, []>(142259712))), lut = tensor<fp16, [64]>(BLOBFILE(path = tensor<string, []>("@model_path/weights/weight.bin"), offset = tensor<uint64, []>(145405504))), name = tensor<string, []>("text_encoder_text_model_encoder_layers_4_mlp_fc1_weight_to_fp16_palettized"), shape = tensor<uint32, [2]>([4096, 1024])];
            tensor<fp16, [4096]> text_encoder_text_model_encoder_layers_4_mlp_fc1_bias_to_fp16_palettized = constexpr_lut_to_dense()[indices = tensor<uint8, [3072]>(BLOBFILE(path = tensor<string, []>("@model_path/weights/weight.bin"), offset = tensor<uint64, []>(145405696))), lut = tensor<fp16, [64]>(BLOBFILE(path = tensor<string, []>("@model_path/weights/weight.bin"), offset = tensor<uint64, []>(145408832))), name = tensor<string, []>("text_encoder_text_model_encoder_layers_4_mlp_fc1_bias_to_fp16_palettized"), shape = tensor<uint32, [1]>([4096])];
            tensor<fp16, [1, 77, 4096]> input_79_cast = linear(bias = text_encoder_text_model_encoder_layers_4_mlp_fc1_bias_to_fp16_palettized, weight = text_encoder_text_model_encoder_layers_4_mlp_fc1_weight_to_fp16_palettized, x = input_77_cast)[name = tensor<string, []>("input_79_cast")];
            tensor<string, []> input_81_mode_0 = const()[name = tensor<string, []>("input_81_mode_0"), val = tensor<string, []>("EXACT")];
            tensor<fp16, [1, 77, 4096]> input_81_cast = gelu(mode = input_81_mode_0, x = input_79_cast)[name = tensor<string, []>("input_81_cast")];
            tensor<fp16, [1024, 4096]> text_encoder_text_model_encoder_layers_4_mlp_fc2_weight_to_fp16_palettized = constexpr_lut_to_dense()[indices = tensor<uint8, [3145728]>(BLOBFILE(path = tensor<string, []>("@model_path/weights/weight.bin"), offset = tensor<uint64, []>(145409024))), lut = tensor<fp16, [64]>(BLOBFILE(path = tensor<string, []>("@model_path/weights/weight.bin"), offset = tensor<uint64, []>(148554816))), name = tensor<string, []>("text_encoder_text_model_encoder_layers_4_mlp_fc2_weight_to_fp16_palettized"), shape = tensor<uint32, [2]>([1024, 4096])];
            tensor<fp16, [1024]> text_encoder_text_model_encoder_layers_4_mlp_fc2_bias_to_fp16 = const()[name = tensor<string, []>("text_encoder_text_model_encoder_layers_4_mlp_fc2_bias_to_fp16"), val = tensor<fp16, [1024]>(BLOBFILE(path = tensor<string, []>("@model_path/weights/weight.bin"), offset = tensor<uint64, []>(148555008)))];
            tensor<fp16, [1, 77, 1024]> hidden_states_29_cast = linear(bias = text_encoder_text_model_encoder_layers_4_mlp_fc2_bias_to_fp16, weight = text_encoder_text_model_encoder_layers_4_mlp_fc2_weight_to_fp16_palettized, x = input_81_cast)[name = tensor<string, []>("hidden_states_29_cast")];
            tensor<fp16, [1, 77, 1024]> input_83_cast = add(x = input_75_cast, y = hidden_states_29_cast)[name = tensor<string, []>("input_83_cast")];
            tensor<int32, [1]> hidden_states_31_axes_0 = const()[name = tensor<string, []>("hidden_states_31_axes_0"), val = tensor<int32, [1]>([-1])];
            tensor<fp16, [1024]> text_encoder_text_model_encoder_layers_5_layer_norm1_weight_to_fp16 = const()[name = tensor<string, []>("text_encoder_text_model_encoder_layers_5_layer_norm1_weight_to_fp16"), val = tensor<fp16, [1024]>(BLOBFILE(path = tensor<string, []>("@model_path/weights/weight.bin"), offset = tensor<uint64, []>(148557120)))];
            tensor<fp16, [1024]> text_encoder_text_model_encoder_layers_5_layer_norm1_bias_to_fp16 = const()[name = tensor<string, []>("text_encoder_text_model_encoder_layers_5_layer_norm1_bias_to_fp16"), val = tensor<fp16, [1024]>(BLOBFILE(path = tensor<string, []>("@model_path/weights/weight.bin"), offset = tensor<uint64, []>(148559232)))];
            tensor<fp16, [1, 77, 1024]> hidden_states_31_cast = layer_norm(axes = hidden_states_31_axes_0, beta = text_encoder_text_model_encoder_layers_5_layer_norm1_bias_to_fp16, epsilon = var_12_to_fp16, gamma = text_encoder_text_model_encoder_layers_5_layer_norm1_weight_to_fp16, x = input_83_cast)[name = tensor<string, []>("hidden_states_31_cast")];
            tensor<fp16, [1024, 1024]> text_encoder_text_model_encoder_layers_5_self_attn_q_proj_weight_to_fp16_palettized = constexpr_lut_to_dense()[indices = tensor<uint8, [786432]>(BLOBFILE(path = tensor<string, []>("@model_path/weights/weight.bin"), offset = tensor<uint64, []>(148561344))), lut = tensor<fp16, [64]>(BLOBFILE(path = tensor<string, []>("@model_path/weights/weight.bin"), offset = tensor<uint64, []>(149347840))), name = tensor<string, []>("text_encoder_text_model_encoder_layers_5_self_attn_q_proj_weight_to_fp16_palettized"), shape = tensor<uint32, [2]>([1024, 1024])];
            tensor<fp16, [1024]> text_encoder_text_model_encoder_layers_5_self_attn_q_proj_bias_to_fp16 = const()[name = tensor<string, []>("text_encoder_text_model_encoder_layers_5_self_attn_q_proj_bias_to_fp16"), val = tensor<fp16, [1024]>(BLOBFILE(path = tensor<string, []>("@model_path/weights/weight.bin"), offset = tensor<uint64, []>(149348032)))];
            tensor<fp16, [1, 77, 1024]> var_544_cast = linear(bias = text_encoder_text_model_encoder_layers_5_self_attn_q_proj_bias_to_fp16, weight = text_encoder_text_model_encoder_layers_5_self_attn_q_proj_weight_to_fp16_palettized, x = hidden_states_31_cast)[name = tensor<string, []>("op_544_cast")];
            tensor<fp16, []> var_545_to_fp16 = const()[name = tensor<string, []>("op_545_to_fp16"), val = tensor<fp16, []>(0x1p-3)];
            tensor<fp16, [1, 77, 1024]> tensor_35_cast = mul(x = var_544_cast, y = var_545_to_fp16)[name = tensor<string, []>("tensor_35_cast")];
            tensor<fp16, [1024, 1024]> text_encoder_text_model_encoder_layers_5_self_attn_k_proj_weight_to_fp16_palettized = constexpr_lut_to_dense()[indices = tensor<uint8, [786432]>(BLOBFILE(path = tensor<string, []>("@model_path/weights/weight.bin"), offset = tensor<uint64, []>(149350144))), lut = tensor<fp16, [64]>(BLOBFILE(path = tensor<string, []>("@model_path/weights/weight.bin"), offset = tensor<uint64, []>(150136640))), name = tensor<string, []>("text_encoder_text_model_encoder_layers_5_self_attn_k_proj_weight_to_fp16_palettized"), shape = tensor<uint32, [2]>([1024, 1024])];
            tensor<fp16, [1024]> text_encoder_text_model_encoder_layers_5_self_attn_k_proj_bias_to_fp16 = const()[name = tensor<string, []>("text_encoder_text_model_encoder_layers_5_self_attn_k_proj_bias_to_fp16"), val = tensor<fp16, [1024]>(BLOBFILE(path = tensor<string, []>("@model_path/weights/weight.bin"), offset = tensor<uint64, []>(150136832)))];
            tensor<fp16, [1, 77, 1024]> tensor_31_cast = linear(bias = text_encoder_text_model_encoder_layers_5_self_attn_k_proj_bias_to_fp16, weight = text_encoder_text_model_encoder_layers_5_self_attn_k_proj_weight_to_fp16_palettized, x = hidden_states_31_cast)[name = tensor<string, []>("tensor_31_cast")];
            tensor<int32, [4]> var_550 = const()[name = tensor<string, []>("op_550"), val = tensor<int32, [4]>([1, -1, 16, 64])];
            tensor<fp16, [1, 77, 16, 64]> var_551_cast = reshape(shape = var_550, x = tensor_31_cast)[name = tensor<string, []>("op_551_cast")];
            tensor<int32, [4]> var_552_perm_0 = const()[name = tensor<string, []>("op_552_perm_0"), val = tensor<int32, [4]>([0, 2, 1, 3])];
            tensor<fp16, [1024, 1024]> text_encoder_text_model_encoder_layers_5_self_attn_v_proj_weight_to_fp16_palettized = constexpr_lut_to_dense()[indices = tensor<uint8, [786432]>(BLOBFILE(path = tensor<string, []>("@model_path/weights/weight.bin"), offset = tensor<uint64, []>(150138944))), lut = tensor<fp16, [64]>(BLOBFILE(path = tensor<string, []>("@model_path/weights/weight.bin"), offset = tensor<uint64, []>(150925440))), name = tensor<string, []>("text_encoder_text_model_encoder_layers_5_self_attn_v_proj_weight_to_fp16_palettized"), shape = tensor<uint32, [2]>([1024, 1024])];
            tensor<fp16, [1024]> text_encoder_text_model_encoder_layers_5_self_attn_v_proj_bias_to_fp16 = const()[name = tensor<string, []>("text_encoder_text_model_encoder_layers_5_self_attn_v_proj_bias_to_fp16"), val = tensor<fp16, [1024]>(BLOBFILE(path = tensor<string, []>("@model_path/weights/weight.bin"), offset = tensor<uint64, []>(150925632)))];
            tensor<fp16, [1, 77, 1024]> tensor_33_cast = linear(bias = text_encoder_text_model_encoder_layers_5_self_attn_v_proj_bias_to_fp16, weight = text_encoder_text_model_encoder_layers_5_self_attn_v_proj_weight_to_fp16_palettized, x = hidden_states_31_cast)[name = tensor<string, []>("tensor_33_cast")];
            tensor<int32, [4]> var_557 = const()[name = tensor<string, []>("op_557"), val = tensor<int32, [4]>([1, -1, 16, 64])];
            tensor<fp16, [1, 77, 16, 64]> var_558_cast = reshape(shape = var_557, x = tensor_33_cast)[name = tensor<string, []>("op_558_cast")];
            tensor<int32, [4]> var_559_perm_0 = const()[name = tensor<string, []>("op_559_perm_0"), val = tensor<int32, [4]>([0, 2, 1, 3])];
            tensor<int32, [4]> var_566 = const()[name = tensor<string, []>("op_566"), val = tensor<int32, [4]>([1, 77, 16, 64])];
            tensor<fp16, [1, 77, 16, 64]> var_567_cast = reshape(shape = var_566, x = tensor_35_cast)[name = tensor<string, []>("op_567_cast")];
            tensor<int32, [4]> var_568_perm_0 = const()[name = tensor<string, []>("op_568_perm_0"), val = tensor<int32, [4]>([0, 2, 1, 3])];
            tensor<int32, [3]> var_570 = const()[name = tensor<string, []>("op_570"), val = tensor<int32, [3]>([16, -1, 64])];
            tensor<fp16, [1, 16, 77, 64]> transpose_89 = transpose(perm = var_568_perm_0, x = var_567_cast)[name = tensor<string, []>("transpose_89")];
            tensor<fp16, [16, 77, 64]> query_states_11_cast = reshape(shape = var_570, x = transpose_89)[name = tensor<string, []>("query_states_11_cast")];
            tensor<int32, [3]> var_572 = const()[name = tensor<string, []>("op_572"), val = tensor<int32, [3]>([16, -1, 64])];
            tensor<fp16, [1, 16, 77, 64]> transpose_88 = transpose(perm = var_552_perm_0, x = var_551_cast)[name = tensor<string, []>("transpose_88")];
            tensor<fp16, [16, 77, 64]> key_states_23_cast = reshape(shape = var_572, x = transpose_88)[name = tensor<string, []>("key_states_23_cast")];
            tensor<int32, [3]> var_574 = const()[name = tensor<string, []>("op_574"), val = tensor<int32, [3]>([16, -1, 64])];
            tensor<fp16, [1, 16, 77, 64]> transpose_87 = transpose(perm = var_559_perm_0, x = var_558_cast)[name = tensor<string, []>("transpose_87")];
            tensor<fp16, [16, 77, 64]> value_states_23_cast = reshape(shape = var_574, x = transpose_87)[name = tensor<string, []>("value_states_23_cast")];
            tensor<int32, [3]> var_577_perm_0 = const()[name = tensor<string, []>("op_577_perm_0"), val = tensor<int32, [3]>([0, 2, 1])];
            tensor<bool, []> attn_weights_31_transpose_x_0 = const()[name = tensor<string, []>("attn_weights_31_transpose_x_0"), val = tensor<bool, []>(false)];
            tensor<bool, []> attn_weights_31_transpose_y_0 = const()[name = tensor<string, []>("attn_weights_31_transpose_y_0"), val = tensor<bool, []>(false)];
            tensor<fp16, [16, 64, 77]> transpose_86 = transpose(perm = var_577_perm_0, x = key_states_23_cast)[name = tensor<string, []>("transpose_86")];
            tensor<fp16, [16, 77, 77]> attn_weights_31_cast = matmul(transpose_x = attn_weights_31_transpose_x_0, transpose_y = attn_weights_31_transpose_y_0, x = query_states_11_cast, y = transpose_86)[name = tensor<string, []>("attn_weights_31_cast")];
            tensor<int32, [4]> var_579 = const()[name = tensor<string, []>("op_579"), val = tensor<int32, [4]>([1, 16, 77, 77])];
            tensor<fp16, [1, 16, 77, 77]> var_580_cast = reshape(shape = var_579, x = attn_weights_31_cast)[name = tensor<string, []>("op_580_cast")];
            tensor<fp16, [1, 16, 77, 77]> attn_weights_33_cast = add(x = var_580_cast, y = causal_attention_mask_to_fp16_palettized)[name = tensor<string, []>("attn_weights_33_cast")];
            tensor<int32, [3]> var_585 = const()[name = tensor<string, []>("op_585"), val = tensor<int32, [3]>([16, 77, 77])];
            tensor<fp16, [16, 77, 77]> input_85_cast = reshape(shape = var_585, x = attn_weights_33_cast)[name = tensor<string, []>("input_85_cast")];
            tensor<fp16, [16, 77, 77]> input_87_cast = softmax(axis = var_5, x = input_85_cast)[name = tensor<string, []>("input_87_cast")];
            tensor<bool, []> attn_output_31_transpose_x_0 = const()[name = tensor<string, []>("attn_output_31_transpose_x_0"), val = tensor<bool, []>(false)];
            tensor<bool, []> attn_output_31_transpose_y_0 = const()[name = tensor<string, []>("attn_output_31_transpose_y_0"), val = tensor<bool, []>(false)];
            tensor<fp16, [16, 77, 64]> attn_output_31_cast = matmul(transpose_x = attn_output_31_transpose_x_0, transpose_y = attn_output_31_transpose_y_0, x = input_87_cast, y = value_states_23_cast)[name = tensor<string, []>("attn_output_31_cast")];
            tensor<int32, [4]> var_590 = const()[name = tensor<string, []>("op_590"), val = tensor<int32, [4]>([1, 16, 77, 64])];
            tensor<fp16, [1, 16, 77, 64]> attn_output_33_cast = reshape(shape = var_590, x = attn_output_31_cast)[name = tensor<string, []>("attn_output_33_cast")];
            tensor<int32, [4]> attn_output_35_perm_0 = const()[name = tensor<string, []>("attn_output_35_perm_0"), val = tensor<int32, [4]>([0, 2, 1, 3])];
            tensor<int32, [3]> var_593 = const()[name = tensor<string, []>("op_593"), val = tensor<int32, [3]>([1, 77, 1024])];
            tensor<fp16, [1, 77, 16, 64]> transpose_85 = transpose(perm = attn_output_35_perm_0, x = attn_output_33_cast)[name = tensor<string, []>("transpose_85")];
            tensor<fp16, [1, 77, 1024]> input_89_cast = reshape(shape = var_593, x = transpose_85)[name = tensor<string, []>("input_89_cast")];
            tensor<fp16, [1024, 1024]> text_encoder_text_model_encoder_layers_5_self_attn_out_proj_weight_to_fp16_palettized = constexpr_lut_to_dense()[indices = tensor<uint8, [786432]>(BLOBFILE(path = tensor<string, []>("@model_path/weights/weight.bin"), offset = tensor<uint64, []>(150927744))), lut = tensor<fp16, [64]>(BLOBFILE(path = tensor<string, []>("@model_path/weights/weight.bin"), offset = tensor<uint64, []>(151714240))), name = tensor<string, []>("text_encoder_text_model_encoder_layers_5_self_attn_out_proj_weight_to_fp16_palettized"), shape = tensor<uint32, [2]>([1024, 1024])];
            tensor<fp16, [1024]> text_encoder_text_model_encoder_layers_5_self_attn_out_proj_bias_to_fp16 = const()[name = tensor<string, []>("text_encoder_text_model_encoder_layers_5_self_attn_out_proj_bias_to_fp16"), val = tensor<fp16, [1024]>(BLOBFILE(path = tensor<string, []>("@model_path/weights/weight.bin"), offset = tensor<uint64, []>(151714432)))];
            tensor<fp16, [1, 77, 1024]> hidden_states_33_cast = linear(bias = text_encoder_text_model_encoder_layers_5_self_attn_out_proj_bias_to_fp16, weight = text_encoder_text_model_encoder_layers_5_self_attn_out_proj_weight_to_fp16_palettized, x = input_89_cast)[name = tensor<string, []>("hidden_states_33_cast")];
            tensor<fp16, [1, 77, 1024]> input_91_cast = add(x = input_83_cast, y = hidden_states_33_cast)[name = tensor<string, []>("input_91_cast")];
            tensor<int32, [1]> input_93_axes_0 = const()[name = tensor<string, []>("input_93_axes_0"), val = tensor<int32, [1]>([-1])];
            tensor<fp16, [1024]> text_encoder_text_model_encoder_layers_5_layer_norm2_weight_to_fp16 = const()[name = tensor<string, []>("text_encoder_text_model_encoder_layers_5_layer_norm2_weight_to_fp16"), val = tensor<fp16, [1024]>(BLOBFILE(path = tensor<string, []>("@model_path/weights/weight.bin"), offset = tensor<uint64, []>(151716544)))];
            tensor<fp16, [1024]> text_encoder_text_model_encoder_layers_5_layer_norm2_bias_to_fp16 = const()[name = tensor<string, []>("text_encoder_text_model_encoder_layers_5_layer_norm2_bias_to_fp16"), val = tensor<fp16, [1024]>(BLOBFILE(path = tensor<string, []>("@model_path/weights/weight.bin"), offset = tensor<uint64, []>(151718656)))];
            tensor<fp16, [1, 77, 1024]> input_93_cast = layer_norm(axes = input_93_axes_0, beta = text_encoder_text_model_encoder_layers_5_layer_norm2_bias_to_fp16, epsilon = var_12_to_fp16, gamma = text_encoder_text_model_encoder_layers_5_layer_norm2_weight_to_fp16, x = input_91_cast)[name = tensor<string, []>("input_93_cast")];
            tensor<fp16, [4096, 1024]> text_encoder_text_model_encoder_layers_5_mlp_fc1_weight_to_fp16_palettized = constexpr_lut_to_dense()[indices = tensor<uint8, [3145728]>(BLOBFILE(path = tensor<string, []>("@model_path/weights/weight.bin"), offset = tensor<uint64, []>(151720768))), lut = tensor<fp16, [64]>(BLOBFILE(path = tensor<string, []>("@model_path/weights/weight.bin"), offset = tensor<uint64, []>(154866560))), name = tensor<string, []>("text_encoder_text_model_encoder_layers_5_mlp_fc1_weight_to_fp16_palettized"), shape = tensor<uint32, [2]>([4096, 1024])];
            tensor<fp16, [4096]> text_encoder_text_model_encoder_layers_5_mlp_fc1_bias_to_fp16_palettized = constexpr_lut_to_dense()[indices = tensor<uint8, [3072]>(BLOBFILE(path = tensor<string, []>("@model_path/weights/weight.bin"), offset = tensor<uint64, []>(154866752))), lut = tensor<fp16, [64]>(BLOBFILE(path = tensor<string, []>("@model_path/weights/weight.bin"), offset = tensor<uint64, []>(154869888))), name = tensor<string, []>("text_encoder_text_model_encoder_layers_5_mlp_fc1_bias_to_fp16_palettized"), shape = tensor<uint32, [1]>([4096])];
            tensor<fp16, [1, 77, 4096]> input_95_cast = linear(bias = text_encoder_text_model_encoder_layers_5_mlp_fc1_bias_to_fp16_palettized, weight = text_encoder_text_model_encoder_layers_5_mlp_fc1_weight_to_fp16_palettized, x = input_93_cast)[name = tensor<string, []>("input_95_cast")];
            tensor<string, []> input_97_mode_0 = const()[name = tensor<string, []>("input_97_mode_0"), val = tensor<string, []>("EXACT")];
            tensor<fp16, [1, 77, 4096]> input_97_cast = gelu(mode = input_97_mode_0, x = input_95_cast)[name = tensor<string, []>("input_97_cast")];
            tensor<fp16, [1024, 4096]> text_encoder_text_model_encoder_layers_5_mlp_fc2_weight_to_fp16_palettized = constexpr_lut_to_dense()[indices = tensor<uint8, [3145728]>(BLOBFILE(path = tensor<string, []>("@model_path/weights/weight.bin"), offset = tensor<uint64, []>(154870080))), lut = tensor<fp16, [64]>(BLOBFILE(path = tensor<string, []>("@model_path/weights/weight.bin"), offset = tensor<uint64, []>(158015872))), name = tensor<string, []>("text_encoder_text_model_encoder_layers_5_mlp_fc2_weight_to_fp16_palettized"), shape = tensor<uint32, [2]>([1024, 4096])];
            tensor<fp16, [1024]> text_encoder_text_model_encoder_layers_5_mlp_fc2_bias_to_fp16 = const()[name = tensor<string, []>("text_encoder_text_model_encoder_layers_5_mlp_fc2_bias_to_fp16"), val = tensor<fp16, [1024]>(BLOBFILE(path = tensor<string, []>("@model_path/weights/weight.bin"), offset = tensor<uint64, []>(158016064)))];
            tensor<fp16, [1, 77, 1024]> hidden_states_35_cast = linear(bias = text_encoder_text_model_encoder_layers_5_mlp_fc2_bias_to_fp16, weight = text_encoder_text_model_encoder_layers_5_mlp_fc2_weight_to_fp16_palettized, x = input_97_cast)[name = tensor<string, []>("hidden_states_35_cast")];
            tensor<fp16, [1, 77, 1024]> input_99_cast = add(x = input_91_cast, y = hidden_states_35_cast)[name = tensor<string, []>("input_99_cast")];
            tensor<int32, [1]> hidden_states_37_axes_0 = const()[name = tensor<string, []>("hidden_states_37_axes_0"), val = tensor<int32, [1]>([-1])];
            tensor<fp16, [1024]> text_encoder_text_model_encoder_layers_6_layer_norm1_weight_to_fp16 = const()[name = tensor<string, []>("text_encoder_text_model_encoder_layers_6_layer_norm1_weight_to_fp16"), val = tensor<fp16, [1024]>(BLOBFILE(path = tensor<string, []>("@model_path/weights/weight.bin"), offset = tensor<uint64, []>(158018176)))];
            tensor<fp16, [1024]> text_encoder_text_model_encoder_layers_6_layer_norm1_bias_to_fp16 = const()[name = tensor<string, []>("text_encoder_text_model_encoder_layers_6_layer_norm1_bias_to_fp16"), val = tensor<fp16, [1024]>(BLOBFILE(path = tensor<string, []>("@model_path/weights/weight.bin"), offset = tensor<uint64, []>(158020288)))];
            tensor<fp16, [1, 77, 1024]> hidden_states_37_cast = layer_norm(axes = hidden_states_37_axes_0, beta = text_encoder_text_model_encoder_layers_6_layer_norm1_bias_to_fp16, epsilon = var_12_to_fp16, gamma = text_encoder_text_model_encoder_layers_6_layer_norm1_weight_to_fp16, x = input_99_cast)[name = tensor<string, []>("hidden_states_37_cast")];
            tensor<fp16, [1024, 1024]> text_encoder_text_model_encoder_layers_6_self_attn_q_proj_weight_to_fp16_palettized = constexpr_lut_to_dense()[indices = tensor<uint8, [786432]>(BLOBFILE(path = tensor<string, []>("@model_path/weights/weight.bin"), offset = tensor<uint64, []>(158022400))), lut = tensor<fp16, [64]>(BLOBFILE(path = tensor<string, []>("@model_path/weights/weight.bin"), offset = tensor<uint64, []>(158808896))), name = tensor<string, []>("text_encoder_text_model_encoder_layers_6_self_attn_q_proj_weight_to_fp16_palettized"), shape = tensor<uint32, [2]>([1024, 1024])];
            tensor<fp16, [1024]> text_encoder_text_model_encoder_layers_6_self_attn_q_proj_bias_to_fp16 = const()[name = tensor<string, []>("text_encoder_text_model_encoder_layers_6_self_attn_q_proj_bias_to_fp16"), val = tensor<fp16, [1024]>(BLOBFILE(path = tensor<string, []>("@model_path/weights/weight.bin"), offset = tensor<uint64, []>(158809088)))];
            tensor<fp16, [1, 77, 1024]> var_631_cast = linear(bias = text_encoder_text_model_encoder_layers_6_self_attn_q_proj_bias_to_fp16, weight = text_encoder_text_model_encoder_layers_6_self_attn_q_proj_weight_to_fp16_palettized, x = hidden_states_37_cast)[name = tensor<string, []>("op_631_cast")];
            tensor<fp16, []> var_632_to_fp16 = const()[name = tensor<string, []>("op_632_to_fp16"), val = tensor<fp16, []>(0x1p-3)];
            tensor<fp16, [1, 77, 1024]> tensor_41_cast = mul(x = var_631_cast, y = var_632_to_fp16)[name = tensor<string, []>("tensor_41_cast")];
            tensor<fp16, [1024, 1024]> text_encoder_text_model_encoder_layers_6_self_attn_k_proj_weight_to_fp16_palettized = constexpr_lut_to_dense()[indices = tensor<uint8, [786432]>(BLOBFILE(path = tensor<string, []>("@model_path/weights/weight.bin"), offset = tensor<uint64, []>(158811200))), lut = tensor<fp16, [64]>(BLOBFILE(path = tensor<string, []>("@model_path/weights/weight.bin"), offset = tensor<uint64, []>(159597696))), name = tensor<string, []>("text_encoder_text_model_encoder_layers_6_self_attn_k_proj_weight_to_fp16_palettized"), shape = tensor<uint32, [2]>([1024, 1024])];
            tensor<fp16, [1024]> text_encoder_text_model_encoder_layers_6_self_attn_k_proj_bias_to_fp16 = const()[name = tensor<string, []>("text_encoder_text_model_encoder_layers_6_self_attn_k_proj_bias_to_fp16"), val = tensor<fp16, [1024]>(BLOBFILE(path = tensor<string, []>("@model_path/weights/weight.bin"), offset = tensor<uint64, []>(159597888)))];
            tensor<fp16, [1, 77, 1024]> tensor_37_cast = linear(bias = text_encoder_text_model_encoder_layers_6_self_attn_k_proj_bias_to_fp16, weight = text_encoder_text_model_encoder_layers_6_self_attn_k_proj_weight_to_fp16_palettized, x = hidden_states_37_cast)[name = tensor<string, []>("tensor_37_cast")];
            tensor<int32, [4]> var_637 = const()[name = tensor<string, []>("op_637"), val = tensor<int32, [4]>([1, -1, 16, 64])];
            tensor<fp16, [1, 77, 16, 64]> var_638_cast = reshape(shape = var_637, x = tensor_37_cast)[name = tensor<string, []>("op_638_cast")];
            tensor<int32, [4]> var_639_perm_0 = const()[name = tensor<string, []>("op_639_perm_0"), val = tensor<int32, [4]>([0, 2, 1, 3])];
            tensor<fp16, [1024, 1024]> text_encoder_text_model_encoder_layers_6_self_attn_v_proj_weight_to_fp16_palettized = constexpr_lut_to_dense()[indices = tensor<uint8, [786432]>(BLOBFILE(path = tensor<string, []>("@model_path/weights/weight.bin"), offset = tensor<uint64, []>(159600000))), lut = tensor<fp16, [64]>(BLOBFILE(path = tensor<string, []>("@model_path/weights/weight.bin"), offset = tensor<uint64, []>(160386496))), name = tensor<string, []>("text_encoder_text_model_encoder_layers_6_self_attn_v_proj_weight_to_fp16_palettized"), shape = tensor<uint32, [2]>([1024, 1024])];
            tensor<fp16, [1024]> text_encoder_text_model_encoder_layers_6_self_attn_v_proj_bias_to_fp16 = const()[name = tensor<string, []>("text_encoder_text_model_encoder_layers_6_self_attn_v_proj_bias_to_fp16"), val = tensor<fp16, [1024]>(BLOBFILE(path = tensor<string, []>("@model_path/weights/weight.bin"), offset = tensor<uint64, []>(160386688)))];
            tensor<fp16, [1, 77, 1024]> tensor_39_cast = linear(bias = text_encoder_text_model_encoder_layers_6_self_attn_v_proj_bias_to_fp16, weight = text_encoder_text_model_encoder_layers_6_self_attn_v_proj_weight_to_fp16_palettized, x = hidden_states_37_cast)[name = tensor<string, []>("tensor_39_cast")];
            tensor<int32, [4]> var_644 = const()[name = tensor<string, []>("op_644"), val = tensor<int32, [4]>([1, -1, 16, 64])];
            tensor<fp16, [1, 77, 16, 64]> var_645_cast = reshape(shape = var_644, x = tensor_39_cast)[name = tensor<string, []>("op_645_cast")];
            tensor<int32, [4]> var_646_perm_0 = const()[name = tensor<string, []>("op_646_perm_0"), val = tensor<int32, [4]>([0, 2, 1, 3])];
            tensor<int32, [4]> var_653 = const()[name = tensor<string, []>("op_653"), val = tensor<int32, [4]>([1, 77, 16, 64])];
            tensor<fp16, [1, 77, 16, 64]> var_654_cast = reshape(shape = var_653, x = tensor_41_cast)[name = tensor<string, []>("op_654_cast")];
            tensor<int32, [4]> var_655_perm_0 = const()[name = tensor<string, []>("op_655_perm_0"), val = tensor<int32, [4]>([0, 2, 1, 3])];
            tensor<int32, [3]> var_657 = const()[name = tensor<string, []>("op_657"), val = tensor<int32, [3]>([16, -1, 64])];
            tensor<fp16, [1, 16, 77, 64]> transpose_84 = transpose(perm = var_655_perm_0, x = var_654_cast)[name = tensor<string, []>("transpose_84")];
            tensor<fp16, [16, 77, 64]> query_states_13_cast = reshape(shape = var_657, x = transpose_84)[name = tensor<string, []>("query_states_13_cast")];
            tensor<int32, [3]> var_659 = const()[name = tensor<string, []>("op_659"), val = tensor<int32, [3]>([16, -1, 64])];
            tensor<fp16, [1, 16, 77, 64]> transpose_83 = transpose(perm = var_639_perm_0, x = var_638_cast)[name = tensor<string, []>("transpose_83")];
            tensor<fp16, [16, 77, 64]> key_states_27_cast = reshape(shape = var_659, x = transpose_83)[name = tensor<string, []>("key_states_27_cast")];
            tensor<int32, [3]> var_661 = const()[name = tensor<string, []>("op_661"), val = tensor<int32, [3]>([16, -1, 64])];
            tensor<fp16, [1, 16, 77, 64]> transpose_82 = transpose(perm = var_646_perm_0, x = var_645_cast)[name = tensor<string, []>("transpose_82")];
            tensor<fp16, [16, 77, 64]> value_states_27_cast = reshape(shape = var_661, x = transpose_82)[name = tensor<string, []>("value_states_27_cast")];
            tensor<int32, [3]> var_664_perm_0 = const()[name = tensor<string, []>("op_664_perm_0"), val = tensor<int32, [3]>([0, 2, 1])];
            tensor<bool, []> attn_weights_37_transpose_x_0 = const()[name = tensor<string, []>("attn_weights_37_transpose_x_0"), val = tensor<bool, []>(false)];
            tensor<bool, []> attn_weights_37_transpose_y_0 = const()[name = tensor<string, []>("attn_weights_37_transpose_y_0"), val = tensor<bool, []>(false)];
            tensor<fp16, [16, 64, 77]> transpose_81 = transpose(perm = var_664_perm_0, x = key_states_27_cast)[name = tensor<string, []>("transpose_81")];
            tensor<fp16, [16, 77, 77]> attn_weights_37_cast = matmul(transpose_x = attn_weights_37_transpose_x_0, transpose_y = attn_weights_37_transpose_y_0, x = query_states_13_cast, y = transpose_81)[name = tensor<string, []>("attn_weights_37_cast")];
            tensor<int32, [4]> var_666 = const()[name = tensor<string, []>("op_666"), val = tensor<int32, [4]>([1, 16, 77, 77])];
            tensor<fp16, [1, 16, 77, 77]> var_667_cast = reshape(shape = var_666, x = attn_weights_37_cast)[name = tensor<string, []>("op_667_cast")];
            tensor<fp16, [1, 16, 77, 77]> attn_weights_39_cast = add(x = var_667_cast, y = causal_attention_mask_to_fp16_palettized)[name = tensor<string, []>("attn_weights_39_cast")];
            tensor<int32, [3]> var_672 = const()[name = tensor<string, []>("op_672"), val = tensor<int32, [3]>([16, 77, 77])];
            tensor<fp16, [16, 77, 77]> input_101_cast = reshape(shape = var_672, x = attn_weights_39_cast)[name = tensor<string, []>("input_101_cast")];
            tensor<fp16, [16, 77, 77]> input_103_cast = softmax(axis = var_5, x = input_101_cast)[name = tensor<string, []>("input_103_cast")];
            tensor<bool, []> attn_output_37_transpose_x_0 = const()[name = tensor<string, []>("attn_output_37_transpose_x_0"), val = tensor<bool, []>(false)];
            tensor<bool, []> attn_output_37_transpose_y_0 = const()[name = tensor<string, []>("attn_output_37_transpose_y_0"), val = tensor<bool, []>(false)];
            tensor<fp16, [16, 77, 64]> attn_output_37_cast = matmul(transpose_x = attn_output_37_transpose_x_0, transpose_y = attn_output_37_transpose_y_0, x = input_103_cast, y = value_states_27_cast)[name = tensor<string, []>("attn_output_37_cast")];
            tensor<int32, [4]> var_677 = const()[name = tensor<string, []>("op_677"), val = tensor<int32, [4]>([1, 16, 77, 64])];
            tensor<fp16, [1, 16, 77, 64]> attn_output_39_cast = reshape(shape = var_677, x = attn_output_37_cast)[name = tensor<string, []>("attn_output_39_cast")];
            tensor<int32, [4]> attn_output_41_perm_0 = const()[name = tensor<string, []>("attn_output_41_perm_0"), val = tensor<int32, [4]>([0, 2, 1, 3])];
            tensor<int32, [3]> var_680 = const()[name = tensor<string, []>("op_680"), val = tensor<int32, [3]>([1, 77, 1024])];
            tensor<fp16, [1, 77, 16, 64]> transpose_80 = transpose(perm = attn_output_41_perm_0, x = attn_output_39_cast)[name = tensor<string, []>("transpose_80")];
            tensor<fp16, [1, 77, 1024]> input_105_cast = reshape(shape = var_680, x = transpose_80)[name = tensor<string, []>("input_105_cast")];
            tensor<fp16, [1024, 1024]> text_encoder_text_model_encoder_layers_6_self_attn_out_proj_weight_to_fp16_palettized = constexpr_lut_to_dense()[indices = tensor<uint8, [786432]>(BLOBFILE(path = tensor<string, []>("@model_path/weights/weight.bin"), offset = tensor<uint64, []>(160388800))), lut = tensor<fp16, [64]>(BLOBFILE(path = tensor<string, []>("@model_path/weights/weight.bin"), offset = tensor<uint64, []>(161175296))), name = tensor<string, []>("text_encoder_text_model_encoder_layers_6_self_attn_out_proj_weight_to_fp16_palettized"), shape = tensor<uint32, [2]>([1024, 1024])];
            tensor<fp16, [1024]> text_encoder_text_model_encoder_layers_6_self_attn_out_proj_bias_to_fp16 = const()[name = tensor<string, []>("text_encoder_text_model_encoder_layers_6_self_attn_out_proj_bias_to_fp16"), val = tensor<fp16, [1024]>(BLOBFILE(path = tensor<string, []>("@model_path/weights/weight.bin"), offset = tensor<uint64, []>(161175488)))];
            tensor<fp16, [1, 77, 1024]> hidden_states_39_cast = linear(bias = text_encoder_text_model_encoder_layers_6_self_attn_out_proj_bias_to_fp16, weight = text_encoder_text_model_encoder_layers_6_self_attn_out_proj_weight_to_fp16_palettized, x = input_105_cast)[name = tensor<string, []>("hidden_states_39_cast")];
            tensor<fp16, [1, 77, 1024]> input_107_cast = add(x = input_99_cast, y = hidden_states_39_cast)[name = tensor<string, []>("input_107_cast")];
            tensor<int32, [1]> input_109_axes_0 = const()[name = tensor<string, []>("input_109_axes_0"), val = tensor<int32, [1]>([-1])];
            tensor<fp16, [1024]> text_encoder_text_model_encoder_layers_6_layer_norm2_weight_to_fp16 = const()[name = tensor<string, []>("text_encoder_text_model_encoder_layers_6_layer_norm2_weight_to_fp16"), val = tensor<fp16, [1024]>(BLOBFILE(path = tensor<string, []>("@model_path/weights/weight.bin"), offset = tensor<uint64, []>(161177600)))];
            tensor<fp16, [1024]> text_encoder_text_model_encoder_layers_6_layer_norm2_bias_to_fp16 = const()[name = tensor<string, []>("text_encoder_text_model_encoder_layers_6_layer_norm2_bias_to_fp16"), val = tensor<fp16, [1024]>(BLOBFILE(path = tensor<string, []>("@model_path/weights/weight.bin"), offset = tensor<uint64, []>(161179712)))];
            tensor<fp16, [1, 77, 1024]> input_109_cast = layer_norm(axes = input_109_axes_0, beta = text_encoder_text_model_encoder_layers_6_layer_norm2_bias_to_fp16, epsilon = var_12_to_fp16, gamma = text_encoder_text_model_encoder_layers_6_layer_norm2_weight_to_fp16, x = input_107_cast)[name = tensor<string, []>("input_109_cast")];
            tensor<fp16, [4096, 1024]> text_encoder_text_model_encoder_layers_6_mlp_fc1_weight_to_fp16_palettized = constexpr_lut_to_dense()[indices = tensor<uint8, [3145728]>(BLOBFILE(path = tensor<string, []>("@model_path/weights/weight.bin"), offset = tensor<uint64, []>(161181824))), lut = tensor<fp16, [64]>(BLOBFILE(path = tensor<string, []>("@model_path/weights/weight.bin"), offset = tensor<uint64, []>(164327616))), name = tensor<string, []>("text_encoder_text_model_encoder_layers_6_mlp_fc1_weight_to_fp16_palettized"), shape = tensor<uint32, [2]>([4096, 1024])];
            tensor<fp16, [4096]> text_encoder_text_model_encoder_layers_6_mlp_fc1_bias_to_fp16_palettized = constexpr_lut_to_dense()[indices = tensor<uint8, [3072]>(BLOBFILE(path = tensor<string, []>("@model_path/weights/weight.bin"), offset = tensor<uint64, []>(164327808))), lut = tensor<fp16, [64]>(BLOBFILE(path = tensor<string, []>("@model_path/weights/weight.bin"), offset = tensor<uint64, []>(164330944))), name = tensor<string, []>("text_encoder_text_model_encoder_layers_6_mlp_fc1_bias_to_fp16_palettized"), shape = tensor<uint32, [1]>([4096])];
            tensor<fp16, [1, 77, 4096]> input_111_cast = linear(bias = text_encoder_text_model_encoder_layers_6_mlp_fc1_bias_to_fp16_palettized, weight = text_encoder_text_model_encoder_layers_6_mlp_fc1_weight_to_fp16_palettized, x = input_109_cast)[name = tensor<string, []>("input_111_cast")];
            tensor<string, []> input_113_mode_0 = const()[name = tensor<string, []>("input_113_mode_0"), val = tensor<string, []>("EXACT")];
            tensor<fp16, [1, 77, 4096]> input_113_cast = gelu(mode = input_113_mode_0, x = input_111_cast)[name = tensor<string, []>("input_113_cast")];
            tensor<fp16, [1024, 4096]> text_encoder_text_model_encoder_layers_6_mlp_fc2_weight_to_fp16_palettized = constexpr_lut_to_dense()[indices = tensor<uint8, [3145728]>(BLOBFILE(path = tensor<string, []>("@model_path/weights/weight.bin"), offset = tensor<uint64, []>(164331136))), lut = tensor<fp16, [64]>(BLOBFILE(path = tensor<string, []>("@model_path/weights/weight.bin"), offset = tensor<uint64, []>(167476928))), name = tensor<string, []>("text_encoder_text_model_encoder_layers_6_mlp_fc2_weight_to_fp16_palettized"), shape = tensor<uint32, [2]>([1024, 4096])];
            tensor<fp16, [1024]> text_encoder_text_model_encoder_layers_6_mlp_fc2_bias_to_fp16 = const()[name = tensor<string, []>("text_encoder_text_model_encoder_layers_6_mlp_fc2_bias_to_fp16"), val = tensor<fp16, [1024]>(BLOBFILE(path = tensor<string, []>("@model_path/weights/weight.bin"), offset = tensor<uint64, []>(167477120)))];
            tensor<fp16, [1, 77, 1024]> hidden_states_41_cast = linear(bias = text_encoder_text_model_encoder_layers_6_mlp_fc2_bias_to_fp16, weight = text_encoder_text_model_encoder_layers_6_mlp_fc2_weight_to_fp16_palettized, x = input_113_cast)[name = tensor<string, []>("hidden_states_41_cast")];
            tensor<fp16, [1, 77, 1024]> input_115_cast = add(x = input_107_cast, y = hidden_states_41_cast)[name = tensor<string, []>("input_115_cast")];
            tensor<int32, [1]> hidden_states_43_axes_0 = const()[name = tensor<string, []>("hidden_states_43_axes_0"), val = tensor<int32, [1]>([-1])];
            tensor<fp16, [1024]> text_encoder_text_model_encoder_layers_7_layer_norm1_weight_to_fp16 = const()[name = tensor<string, []>("text_encoder_text_model_encoder_layers_7_layer_norm1_weight_to_fp16"), val = tensor<fp16, [1024]>(BLOBFILE(path = tensor<string, []>("@model_path/weights/weight.bin"), offset = tensor<uint64, []>(167479232)))];
            tensor<fp16, [1024]> text_encoder_text_model_encoder_layers_7_layer_norm1_bias_to_fp16 = const()[name = tensor<string, []>("text_encoder_text_model_encoder_layers_7_layer_norm1_bias_to_fp16"), val = tensor<fp16, [1024]>(BLOBFILE(path = tensor<string, []>("@model_path/weights/weight.bin"), offset = tensor<uint64, []>(167481344)))];
            tensor<fp16, [1, 77, 1024]> hidden_states_43_cast = layer_norm(axes = hidden_states_43_axes_0, beta = text_encoder_text_model_encoder_layers_7_layer_norm1_bias_to_fp16, epsilon = var_12_to_fp16, gamma = text_encoder_text_model_encoder_layers_7_layer_norm1_weight_to_fp16, x = input_115_cast)[name = tensor<string, []>("hidden_states_43_cast")];
            tensor<fp16, [1024, 1024]> text_encoder_text_model_encoder_layers_7_self_attn_q_proj_weight_to_fp16_palettized = constexpr_lut_to_dense()[indices = tensor<uint8, [786432]>(BLOBFILE(path = tensor<string, []>("@model_path/weights/weight.bin"), offset = tensor<uint64, []>(167483456))), lut = tensor<fp16, [64]>(BLOBFILE(path = tensor<string, []>("@model_path/weights/weight.bin"), offset = tensor<uint64, []>(168269952))), name = tensor<string, []>("text_encoder_text_model_encoder_layers_7_self_attn_q_proj_weight_to_fp16_palettized"), shape = tensor<uint32, [2]>([1024, 1024])];
            tensor<fp16, [1024]> text_encoder_text_model_encoder_layers_7_self_attn_q_proj_bias_to_fp16 = const()[name = tensor<string, []>("text_encoder_text_model_encoder_layers_7_self_attn_q_proj_bias_to_fp16"), val = tensor<fp16, [1024]>(BLOBFILE(path = tensor<string, []>("@model_path/weights/weight.bin"), offset = tensor<uint64, []>(168270144)))];
            tensor<fp16, [1, 77, 1024]> var_718_cast = linear(bias = text_encoder_text_model_encoder_layers_7_self_attn_q_proj_bias_to_fp16, weight = text_encoder_text_model_encoder_layers_7_self_attn_q_proj_weight_to_fp16_palettized, x = hidden_states_43_cast)[name = tensor<string, []>("op_718_cast")];
            tensor<fp16, []> var_719_to_fp16 = const()[name = tensor<string, []>("op_719_to_fp16"), val = tensor<fp16, []>(0x1p-3)];
            tensor<fp16, [1, 77, 1024]> tensor_47_cast = mul(x = var_718_cast, y = var_719_to_fp16)[name = tensor<string, []>("tensor_47_cast")];
            tensor<fp16, [1024, 1024]> text_encoder_text_model_encoder_layers_7_self_attn_k_proj_weight_to_fp16_palettized = constexpr_lut_to_dense()[indices = tensor<uint8, [786432]>(BLOBFILE(path = tensor<string, []>("@model_path/weights/weight.bin"), offset = tensor<uint64, []>(168272256))), lut = tensor<fp16, [64]>(BLOBFILE(path = tensor<string, []>("@model_path/weights/weight.bin"), offset = tensor<uint64, []>(169058752))), name = tensor<string, []>("text_encoder_text_model_encoder_layers_7_self_attn_k_proj_weight_to_fp16_palettized"), shape = tensor<uint32, [2]>([1024, 1024])];
            tensor<fp16, [1024]> text_encoder_text_model_encoder_layers_7_self_attn_k_proj_bias_to_fp16 = const()[name = tensor<string, []>("text_encoder_text_model_encoder_layers_7_self_attn_k_proj_bias_to_fp16"), val = tensor<fp16, [1024]>(BLOBFILE(path = tensor<string, []>("@model_path/weights/weight.bin"), offset = tensor<uint64, []>(169058944)))];
            tensor<fp16, [1, 77, 1024]> tensor_43_cast = linear(bias = text_encoder_text_model_encoder_layers_7_self_attn_k_proj_bias_to_fp16, weight = text_encoder_text_model_encoder_layers_7_self_attn_k_proj_weight_to_fp16_palettized, x = hidden_states_43_cast)[name = tensor<string, []>("tensor_43_cast")];
            tensor<int32, [4]> var_724 = const()[name = tensor<string, []>("op_724"), val = tensor<int32, [4]>([1, -1, 16, 64])];
            tensor<fp16, [1, 77, 16, 64]> var_725_cast = reshape(shape = var_724, x = tensor_43_cast)[name = tensor<string, []>("op_725_cast")];
            tensor<int32, [4]> var_726_perm_0 = const()[name = tensor<string, []>("op_726_perm_0"), val = tensor<int32, [4]>([0, 2, 1, 3])];
            tensor<fp16, [1024, 1024]> text_encoder_text_model_encoder_layers_7_self_attn_v_proj_weight_to_fp16_palettized = constexpr_lut_to_dense()[indices = tensor<uint8, [786432]>(BLOBFILE(path = tensor<string, []>("@model_path/weights/weight.bin"), offset = tensor<uint64, []>(169061056))), lut = tensor<fp16, [64]>(BLOBFILE(path = tensor<string, []>("@model_path/weights/weight.bin"), offset = tensor<uint64, []>(169847552))), name = tensor<string, []>("text_encoder_text_model_encoder_layers_7_self_attn_v_proj_weight_to_fp16_palettized"), shape = tensor<uint32, [2]>([1024, 1024])];
            tensor<fp16, [1024]> text_encoder_text_model_encoder_layers_7_self_attn_v_proj_bias_to_fp16 = const()[name = tensor<string, []>("text_encoder_text_model_encoder_layers_7_self_attn_v_proj_bias_to_fp16"), val = tensor<fp16, [1024]>(BLOBFILE(path = tensor<string, []>("@model_path/weights/weight.bin"), offset = tensor<uint64, []>(169847744)))];
            tensor<fp16, [1, 77, 1024]> tensor_45_cast = linear(bias = text_encoder_text_model_encoder_layers_7_self_attn_v_proj_bias_to_fp16, weight = text_encoder_text_model_encoder_layers_7_self_attn_v_proj_weight_to_fp16_palettized, x = hidden_states_43_cast)[name = tensor<string, []>("tensor_45_cast")];
            tensor<int32, [4]> var_731 = const()[name = tensor<string, []>("op_731"), val = tensor<int32, [4]>([1, -1, 16, 64])];
            tensor<fp16, [1, 77, 16, 64]> var_732_cast = reshape(shape = var_731, x = tensor_45_cast)[name = tensor<string, []>("op_732_cast")];
            tensor<int32, [4]> var_733_perm_0 = const()[name = tensor<string, []>("op_733_perm_0"), val = tensor<int32, [4]>([0, 2, 1, 3])];
            tensor<int32, [4]> var_740 = const()[name = tensor<string, []>("op_740"), val = tensor<int32, [4]>([1, 77, 16, 64])];
            tensor<fp16, [1, 77, 16, 64]> var_741_cast = reshape(shape = var_740, x = tensor_47_cast)[name = tensor<string, []>("op_741_cast")];
            tensor<int32, [4]> var_742_perm_0 = const()[name = tensor<string, []>("op_742_perm_0"), val = tensor<int32, [4]>([0, 2, 1, 3])];
            tensor<int32, [3]> var_744 = const()[name = tensor<string, []>("op_744"), val = tensor<int32, [3]>([16, -1, 64])];
            tensor<fp16, [1, 16, 77, 64]> transpose_79 = transpose(perm = var_742_perm_0, x = var_741_cast)[name = tensor<string, []>("transpose_79")];
            tensor<fp16, [16, 77, 64]> query_states_15_cast = reshape(shape = var_744, x = transpose_79)[name = tensor<string, []>("query_states_15_cast")];
            tensor<int32, [3]> var_746 = const()[name = tensor<string, []>("op_746"), val = tensor<int32, [3]>([16, -1, 64])];
            tensor<fp16, [1, 16, 77, 64]> transpose_78 = transpose(perm = var_726_perm_0, x = var_725_cast)[name = tensor<string, []>("transpose_78")];
            tensor<fp16, [16, 77, 64]> key_states_31_cast = reshape(shape = var_746, x = transpose_78)[name = tensor<string, []>("key_states_31_cast")];
            tensor<int32, [3]> var_748 = const()[name = tensor<string, []>("op_748"), val = tensor<int32, [3]>([16, -1, 64])];
            tensor<fp16, [1, 16, 77, 64]> transpose_77 = transpose(perm = var_733_perm_0, x = var_732_cast)[name = tensor<string, []>("transpose_77")];
            tensor<fp16, [16, 77, 64]> value_states_31_cast = reshape(shape = var_748, x = transpose_77)[name = tensor<string, []>("value_states_31_cast")];
            tensor<int32, [3]> var_751_perm_0 = const()[name = tensor<string, []>("op_751_perm_0"), val = tensor<int32, [3]>([0, 2, 1])];
            tensor<bool, []> attn_weights_43_transpose_x_0 = const()[name = tensor<string, []>("attn_weights_43_transpose_x_0"), val = tensor<bool, []>(false)];
            tensor<bool, []> attn_weights_43_transpose_y_0 = const()[name = tensor<string, []>("attn_weights_43_transpose_y_0"), val = tensor<bool, []>(false)];
            tensor<fp16, [16, 64, 77]> transpose_76 = transpose(perm = var_751_perm_0, x = key_states_31_cast)[name = tensor<string, []>("transpose_76")];
            tensor<fp16, [16, 77, 77]> attn_weights_43_cast = matmul(transpose_x = attn_weights_43_transpose_x_0, transpose_y = attn_weights_43_transpose_y_0, x = query_states_15_cast, y = transpose_76)[name = tensor<string, []>("attn_weights_43_cast")];
            tensor<int32, [4]> var_753 = const()[name = tensor<string, []>("op_753"), val = tensor<int32, [4]>([1, 16, 77, 77])];
            tensor<fp16, [1, 16, 77, 77]> var_754_cast = reshape(shape = var_753, x = attn_weights_43_cast)[name = tensor<string, []>("op_754_cast")];
            tensor<fp16, [1, 16, 77, 77]> attn_weights_45_cast = add(x = var_754_cast, y = causal_attention_mask_to_fp16_palettized)[name = tensor<string, []>("attn_weights_45_cast")];
            tensor<int32, [3]> var_759 = const()[name = tensor<string, []>("op_759"), val = tensor<int32, [3]>([16, 77, 77])];
            tensor<fp16, [16, 77, 77]> input_117_cast = reshape(shape = var_759, x = attn_weights_45_cast)[name = tensor<string, []>("input_117_cast")];
            tensor<fp16, [16, 77, 77]> input_119_cast = softmax(axis = var_5, x = input_117_cast)[name = tensor<string, []>("input_119_cast")];
            tensor<bool, []> attn_output_43_transpose_x_0 = const()[name = tensor<string, []>("attn_output_43_transpose_x_0"), val = tensor<bool, []>(false)];
            tensor<bool, []> attn_output_43_transpose_y_0 = const()[name = tensor<string, []>("attn_output_43_transpose_y_0"), val = tensor<bool, []>(false)];
            tensor<fp16, [16, 77, 64]> attn_output_43_cast = matmul(transpose_x = attn_output_43_transpose_x_0, transpose_y = attn_output_43_transpose_y_0, x = input_119_cast, y = value_states_31_cast)[name = tensor<string, []>("attn_output_43_cast")];
            tensor<int32, [4]> var_764 = const()[name = tensor<string, []>("op_764"), val = tensor<int32, [4]>([1, 16, 77, 64])];
            tensor<fp16, [1, 16, 77, 64]> attn_output_45_cast = reshape(shape = var_764, x = attn_output_43_cast)[name = tensor<string, []>("attn_output_45_cast")];
            tensor<int32, [4]> attn_output_47_perm_0 = const()[name = tensor<string, []>("attn_output_47_perm_0"), val = tensor<int32, [4]>([0, 2, 1, 3])];
            tensor<int32, [3]> var_767 = const()[name = tensor<string, []>("op_767"), val = tensor<int32, [3]>([1, 77, 1024])];
            tensor<fp16, [1, 77, 16, 64]> transpose_75 = transpose(perm = attn_output_47_perm_0, x = attn_output_45_cast)[name = tensor<string, []>("transpose_75")];
            tensor<fp16, [1, 77, 1024]> input_121_cast = reshape(shape = var_767, x = transpose_75)[name = tensor<string, []>("input_121_cast")];
            tensor<fp16, [1024, 1024]> text_encoder_text_model_encoder_layers_7_self_attn_out_proj_weight_to_fp16_palettized = constexpr_lut_to_dense()[indices = tensor<uint8, [786432]>(BLOBFILE(path = tensor<string, []>("@model_path/weights/weight.bin"), offset = tensor<uint64, []>(169849856))), lut = tensor<fp16, [64]>(BLOBFILE(path = tensor<string, []>("@model_path/weights/weight.bin"), offset = tensor<uint64, []>(170636352))), name = tensor<string, []>("text_encoder_text_model_encoder_layers_7_self_attn_out_proj_weight_to_fp16_palettized"), shape = tensor<uint32, [2]>([1024, 1024])];
            tensor<fp16, [1024]> text_encoder_text_model_encoder_layers_7_self_attn_out_proj_bias_to_fp16 = const()[name = tensor<string, []>("text_encoder_text_model_encoder_layers_7_self_attn_out_proj_bias_to_fp16"), val = tensor<fp16, [1024]>(BLOBFILE(path = tensor<string, []>("@model_path/weights/weight.bin"), offset = tensor<uint64, []>(170636544)))];
            tensor<fp16, [1, 77, 1024]> hidden_states_45_cast = linear(bias = text_encoder_text_model_encoder_layers_7_self_attn_out_proj_bias_to_fp16, weight = text_encoder_text_model_encoder_layers_7_self_attn_out_proj_weight_to_fp16_palettized, x = input_121_cast)[name = tensor<string, []>("hidden_states_45_cast")];
            tensor<fp16, [1, 77, 1024]> input_123_cast = add(x = input_115_cast, y = hidden_states_45_cast)[name = tensor<string, []>("input_123_cast")];
            tensor<int32, [1]> input_125_axes_0 = const()[name = tensor<string, []>("input_125_axes_0"), val = tensor<int32, [1]>([-1])];
            tensor<fp16, [1024]> text_encoder_text_model_encoder_layers_7_layer_norm2_weight_to_fp16 = const()[name = tensor<string, []>("text_encoder_text_model_encoder_layers_7_layer_norm2_weight_to_fp16"), val = tensor<fp16, [1024]>(BLOBFILE(path = tensor<string, []>("@model_path/weights/weight.bin"), offset = tensor<uint64, []>(170638656)))];
            tensor<fp16, [1024]> text_encoder_text_model_encoder_layers_7_layer_norm2_bias_to_fp16 = const()[name = tensor<string, []>("text_encoder_text_model_encoder_layers_7_layer_norm2_bias_to_fp16"), val = tensor<fp16, [1024]>(BLOBFILE(path = tensor<string, []>("@model_path/weights/weight.bin"), offset = tensor<uint64, []>(170640768)))];
            tensor<fp16, [1, 77, 1024]> input_125_cast = layer_norm(axes = input_125_axes_0, beta = text_encoder_text_model_encoder_layers_7_layer_norm2_bias_to_fp16, epsilon = var_12_to_fp16, gamma = text_encoder_text_model_encoder_layers_7_layer_norm2_weight_to_fp16, x = input_123_cast)[name = tensor<string, []>("input_125_cast")];
            tensor<fp16, [4096, 1024]> text_encoder_text_model_encoder_layers_7_mlp_fc1_weight_to_fp16_palettized = constexpr_lut_to_dense()[indices = tensor<uint8, [3145728]>(BLOBFILE(path = tensor<string, []>("@model_path/weights/weight.bin"), offset = tensor<uint64, []>(170642880))), lut = tensor<fp16, [64]>(BLOBFILE(path = tensor<string, []>("@model_path/weights/weight.bin"), offset = tensor<uint64, []>(173788672))), name = tensor<string, []>("text_encoder_text_model_encoder_layers_7_mlp_fc1_weight_to_fp16_palettized"), shape = tensor<uint32, [2]>([4096, 1024])];
            tensor<fp16, [4096]> text_encoder_text_model_encoder_layers_7_mlp_fc1_bias_to_fp16_palettized = constexpr_lut_to_dense()[indices = tensor<uint8, [3072]>(BLOBFILE(path = tensor<string, []>("@model_path/weights/weight.bin"), offset = tensor<uint64, []>(173788864))), lut = tensor<fp16, [64]>(BLOBFILE(path = tensor<string, []>("@model_path/weights/weight.bin"), offset = tensor<uint64, []>(173792000))), name = tensor<string, []>("text_encoder_text_model_encoder_layers_7_mlp_fc1_bias_to_fp16_palettized"), shape = tensor<uint32, [1]>([4096])];
            tensor<fp16, [1, 77, 4096]> input_127_cast = linear(bias = text_encoder_text_model_encoder_layers_7_mlp_fc1_bias_to_fp16_palettized, weight = text_encoder_text_model_encoder_layers_7_mlp_fc1_weight_to_fp16_palettized, x = input_125_cast)[name = tensor<string, []>("input_127_cast")];
            tensor<string, []> input_129_mode_0 = const()[name = tensor<string, []>("input_129_mode_0"), val = tensor<string, []>("EXACT")];
            tensor<fp16, [1, 77, 4096]> input_129_cast = gelu(mode = input_129_mode_0, x = input_127_cast)[name = tensor<string, []>("input_129_cast")];
            tensor<fp16, [1024, 4096]> text_encoder_text_model_encoder_layers_7_mlp_fc2_weight_to_fp16_palettized = constexpr_lut_to_dense()[indices = tensor<uint8, [3145728]>(BLOBFILE(path = tensor<string, []>("@model_path/weights/weight.bin"), offset = tensor<uint64, []>(173792192))), lut = tensor<fp16, [64]>(BLOBFILE(path = tensor<string, []>("@model_path/weights/weight.bin"), offset = tensor<uint64, []>(176937984))), name = tensor<string, []>("text_encoder_text_model_encoder_layers_7_mlp_fc2_weight_to_fp16_palettized"), shape = tensor<uint32, [2]>([1024, 4096])];
            tensor<fp16, [1024]> text_encoder_text_model_encoder_layers_7_mlp_fc2_bias_to_fp16 = const()[name = tensor<string, []>("text_encoder_text_model_encoder_layers_7_mlp_fc2_bias_to_fp16"), val = tensor<fp16, [1024]>(BLOBFILE(path = tensor<string, []>("@model_path/weights/weight.bin"), offset = tensor<uint64, []>(176938176)))];
            tensor<fp16, [1, 77, 1024]> hidden_states_47_cast = linear(bias = text_encoder_text_model_encoder_layers_7_mlp_fc2_bias_to_fp16, weight = text_encoder_text_model_encoder_layers_7_mlp_fc2_weight_to_fp16_palettized, x = input_129_cast)[name = tensor<string, []>("hidden_states_47_cast")];
            tensor<fp16, [1, 77, 1024]> input_131_cast = add(x = input_123_cast, y = hidden_states_47_cast)[name = tensor<string, []>("input_131_cast")];
            tensor<int32, [1]> hidden_states_49_axes_0 = const()[name = tensor<string, []>("hidden_states_49_axes_0"), val = tensor<int32, [1]>([-1])];
            tensor<fp16, [1024]> text_encoder_text_model_encoder_layers_8_layer_norm1_weight_to_fp16 = const()[name = tensor<string, []>("text_encoder_text_model_encoder_layers_8_layer_norm1_weight_to_fp16"), val = tensor<fp16, [1024]>(BLOBFILE(path = tensor<string, []>("@model_path/weights/weight.bin"), offset = tensor<uint64, []>(176940288)))];
            tensor<fp16, [1024]> text_encoder_text_model_encoder_layers_8_layer_norm1_bias_to_fp16 = const()[name = tensor<string, []>("text_encoder_text_model_encoder_layers_8_layer_norm1_bias_to_fp16"), val = tensor<fp16, [1024]>(BLOBFILE(path = tensor<string, []>("@model_path/weights/weight.bin"), offset = tensor<uint64, []>(176942400)))];
            tensor<fp16, [1, 77, 1024]> hidden_states_49_cast = layer_norm(axes = hidden_states_49_axes_0, beta = text_encoder_text_model_encoder_layers_8_layer_norm1_bias_to_fp16, epsilon = var_12_to_fp16, gamma = text_encoder_text_model_encoder_layers_8_layer_norm1_weight_to_fp16, x = input_131_cast)[name = tensor<string, []>("hidden_states_49_cast")];
            tensor<fp16, [1024, 1024]> text_encoder_text_model_encoder_layers_8_self_attn_q_proj_weight_to_fp16_palettized = constexpr_lut_to_dense()[indices = tensor<uint8, [786432]>(BLOBFILE(path = tensor<string, []>("@model_path/weights/weight.bin"), offset = tensor<uint64, []>(176944512))), lut = tensor<fp16, [64]>(BLOBFILE(path = tensor<string, []>("@model_path/weights/weight.bin"), offset = tensor<uint64, []>(177731008))), name = tensor<string, []>("text_encoder_text_model_encoder_layers_8_self_attn_q_proj_weight_to_fp16_palettized"), shape = tensor<uint32, [2]>([1024, 1024])];
            tensor<fp16, [1024]> text_encoder_text_model_encoder_layers_8_self_attn_q_proj_bias_to_fp16 = const()[name = tensor<string, []>("text_encoder_text_model_encoder_layers_8_self_attn_q_proj_bias_to_fp16"), val = tensor<fp16, [1024]>(BLOBFILE(path = tensor<string, []>("@model_path/weights/weight.bin"), offset = tensor<uint64, []>(177731200)))];
            tensor<fp16, [1, 77, 1024]> var_805_cast = linear(bias = text_encoder_text_model_encoder_layers_8_self_attn_q_proj_bias_to_fp16, weight = text_encoder_text_model_encoder_layers_8_self_attn_q_proj_weight_to_fp16_palettized, x = hidden_states_49_cast)[name = tensor<string, []>("op_805_cast")];
            tensor<fp16, []> var_806_to_fp16 = const()[name = tensor<string, []>("op_806_to_fp16"), val = tensor<fp16, []>(0x1p-3)];
            tensor<fp16, [1, 77, 1024]> tensor_53_cast = mul(x = var_805_cast, y = var_806_to_fp16)[name = tensor<string, []>("tensor_53_cast")];
            tensor<fp16, [1024, 1024]> text_encoder_text_model_encoder_layers_8_self_attn_k_proj_weight_to_fp16_palettized = constexpr_lut_to_dense()[indices = tensor<uint8, [786432]>(BLOBFILE(path = tensor<string, []>("@model_path/weights/weight.bin"), offset = tensor<uint64, []>(177733312))), lut = tensor<fp16, [64]>(BLOBFILE(path = tensor<string, []>("@model_path/weights/weight.bin"), offset = tensor<uint64, []>(178519808))), name = tensor<string, []>("text_encoder_text_model_encoder_layers_8_self_attn_k_proj_weight_to_fp16_palettized"), shape = tensor<uint32, [2]>([1024, 1024])];
            tensor<fp16, [1024]> text_encoder_text_model_encoder_layers_8_self_attn_k_proj_bias_to_fp16 = const()[name = tensor<string, []>("text_encoder_text_model_encoder_layers_8_self_attn_k_proj_bias_to_fp16"), val = tensor<fp16, [1024]>(BLOBFILE(path = tensor<string, []>("@model_path/weights/weight.bin"), offset = tensor<uint64, []>(178520000)))];
            tensor<fp16, [1, 77, 1024]> tensor_49_cast = linear(bias = text_encoder_text_model_encoder_layers_8_self_attn_k_proj_bias_to_fp16, weight = text_encoder_text_model_encoder_layers_8_self_attn_k_proj_weight_to_fp16_palettized, x = hidden_states_49_cast)[name = tensor<string, []>("tensor_49_cast")];
            tensor<int32, [4]> var_811 = const()[name = tensor<string, []>("op_811"), val = tensor<int32, [4]>([1, -1, 16, 64])];
            tensor<fp16, [1, 77, 16, 64]> var_812_cast = reshape(shape = var_811, x = tensor_49_cast)[name = tensor<string, []>("op_812_cast")];
            tensor<int32, [4]> var_813_perm_0 = const()[name = tensor<string, []>("op_813_perm_0"), val = tensor<int32, [4]>([0, 2, 1, 3])];
            tensor<fp16, [1024, 1024]> text_encoder_text_model_encoder_layers_8_self_attn_v_proj_weight_to_fp16_palettized = constexpr_lut_to_dense()[indices = tensor<uint8, [786432]>(BLOBFILE(path = tensor<string, []>("@model_path/weights/weight.bin"), offset = tensor<uint64, []>(178522112))), lut = tensor<fp16, [64]>(BLOBFILE(path = tensor<string, []>("@model_path/weights/weight.bin"), offset = tensor<uint64, []>(179308608))), name = tensor<string, []>("text_encoder_text_model_encoder_layers_8_self_attn_v_proj_weight_to_fp16_palettized"), shape = tensor<uint32, [2]>([1024, 1024])];
            tensor<fp16, [1024]> text_encoder_text_model_encoder_layers_8_self_attn_v_proj_bias_to_fp16 = const()[name = tensor<string, []>("text_encoder_text_model_encoder_layers_8_self_attn_v_proj_bias_to_fp16"), val = tensor<fp16, [1024]>(BLOBFILE(path = tensor<string, []>("@model_path/weights/weight.bin"), offset = tensor<uint64, []>(179308800)))];
            tensor<fp16, [1, 77, 1024]> tensor_51_cast = linear(bias = text_encoder_text_model_encoder_layers_8_self_attn_v_proj_bias_to_fp16, weight = text_encoder_text_model_encoder_layers_8_self_attn_v_proj_weight_to_fp16_palettized, x = hidden_states_49_cast)[name = tensor<string, []>("tensor_51_cast")];
            tensor<int32, [4]> var_818 = const()[name = tensor<string, []>("op_818"), val = tensor<int32, [4]>([1, -1, 16, 64])];
            tensor<fp16, [1, 77, 16, 64]> var_819_cast = reshape(shape = var_818, x = tensor_51_cast)[name = tensor<string, []>("op_819_cast")];
            tensor<int32, [4]> var_820_perm_0 = const()[name = tensor<string, []>("op_820_perm_0"), val = tensor<int32, [4]>([0, 2, 1, 3])];
            tensor<int32, [4]> var_827 = const()[name = tensor<string, []>("op_827"), val = tensor<int32, [4]>([1, 77, 16, 64])];
            tensor<fp16, [1, 77, 16, 64]> var_828_cast = reshape(shape = var_827, x = tensor_53_cast)[name = tensor<string, []>("op_828_cast")];
            tensor<int32, [4]> var_829_perm_0 = const()[name = tensor<string, []>("op_829_perm_0"), val = tensor<int32, [4]>([0, 2, 1, 3])];
            tensor<int32, [3]> var_831 = const()[name = tensor<string, []>("op_831"), val = tensor<int32, [3]>([16, -1, 64])];
            tensor<fp16, [1, 16, 77, 64]> transpose_74 = transpose(perm = var_829_perm_0, x = var_828_cast)[name = tensor<string, []>("transpose_74")];
            tensor<fp16, [16, 77, 64]> query_states_17_cast = reshape(shape = var_831, x = transpose_74)[name = tensor<string, []>("query_states_17_cast")];
            tensor<int32, [3]> var_833 = const()[name = tensor<string, []>("op_833"), val = tensor<int32, [3]>([16, -1, 64])];
            tensor<fp16, [1, 16, 77, 64]> transpose_73 = transpose(perm = var_813_perm_0, x = var_812_cast)[name = tensor<string, []>("transpose_73")];
            tensor<fp16, [16, 77, 64]> key_states_35_cast = reshape(shape = var_833, x = transpose_73)[name = tensor<string, []>("key_states_35_cast")];
            tensor<int32, [3]> var_835 = const()[name = tensor<string, []>("op_835"), val = tensor<int32, [3]>([16, -1, 64])];
            tensor<fp16, [1, 16, 77, 64]> transpose_72 = transpose(perm = var_820_perm_0, x = var_819_cast)[name = tensor<string, []>("transpose_72")];
            tensor<fp16, [16, 77, 64]> value_states_35_cast = reshape(shape = var_835, x = transpose_72)[name = tensor<string, []>("value_states_35_cast")];
            tensor<int32, [3]> var_838_perm_0 = const()[name = tensor<string, []>("op_838_perm_0"), val = tensor<int32, [3]>([0, 2, 1])];
            tensor<bool, []> attn_weights_49_transpose_x_0 = const()[name = tensor<string, []>("attn_weights_49_transpose_x_0"), val = tensor<bool, []>(false)];
            tensor<bool, []> attn_weights_49_transpose_y_0 = const()[name = tensor<string, []>("attn_weights_49_transpose_y_0"), val = tensor<bool, []>(false)];
            tensor<fp16, [16, 64, 77]> transpose_71 = transpose(perm = var_838_perm_0, x = key_states_35_cast)[name = tensor<string, []>("transpose_71")];
            tensor<fp16, [16, 77, 77]> attn_weights_49_cast = matmul(transpose_x = attn_weights_49_transpose_x_0, transpose_y = attn_weights_49_transpose_y_0, x = query_states_17_cast, y = transpose_71)[name = tensor<string, []>("attn_weights_49_cast")];
            tensor<int32, [4]> var_840 = const()[name = tensor<string, []>("op_840"), val = tensor<int32, [4]>([1, 16, 77, 77])];
            tensor<fp16, [1, 16, 77, 77]> var_841_cast = reshape(shape = var_840, x = attn_weights_49_cast)[name = tensor<string, []>("op_841_cast")];
            tensor<fp16, [1, 16, 77, 77]> attn_weights_51_cast = add(x = var_841_cast, y = causal_attention_mask_to_fp16_palettized)[name = tensor<string, []>("attn_weights_51_cast")];
            tensor<int32, [3]> var_846 = const()[name = tensor<string, []>("op_846"), val = tensor<int32, [3]>([16, 77, 77])];
            tensor<fp16, [16, 77, 77]> input_133_cast = reshape(shape = var_846, x = attn_weights_51_cast)[name = tensor<string, []>("input_133_cast")];
            tensor<fp16, [16, 77, 77]> input_135_cast = softmax(axis = var_5, x = input_133_cast)[name = tensor<string, []>("input_135_cast")];
            tensor<bool, []> attn_output_49_transpose_x_0 = const()[name = tensor<string, []>("attn_output_49_transpose_x_0"), val = tensor<bool, []>(false)];
            tensor<bool, []> attn_output_49_transpose_y_0 = const()[name = tensor<string, []>("attn_output_49_transpose_y_0"), val = tensor<bool, []>(false)];
            tensor<fp16, [16, 77, 64]> attn_output_49_cast = matmul(transpose_x = attn_output_49_transpose_x_0, transpose_y = attn_output_49_transpose_y_0, x = input_135_cast, y = value_states_35_cast)[name = tensor<string, []>("attn_output_49_cast")];
            tensor<int32, [4]> var_851 = const()[name = tensor<string, []>("op_851"), val = tensor<int32, [4]>([1, 16, 77, 64])];
            tensor<fp16, [1, 16, 77, 64]> attn_output_51_cast = reshape(shape = var_851, x = attn_output_49_cast)[name = tensor<string, []>("attn_output_51_cast")];
            tensor<int32, [4]> attn_output_53_perm_0 = const()[name = tensor<string, []>("attn_output_53_perm_0"), val = tensor<int32, [4]>([0, 2, 1, 3])];
            tensor<int32, [3]> var_854 = const()[name = tensor<string, []>("op_854"), val = tensor<int32, [3]>([1, 77, 1024])];
            tensor<fp16, [1, 77, 16, 64]> transpose_70 = transpose(perm = attn_output_53_perm_0, x = attn_output_51_cast)[name = tensor<string, []>("transpose_70")];
            tensor<fp16, [1, 77, 1024]> input_137_cast = reshape(shape = var_854, x = transpose_70)[name = tensor<string, []>("input_137_cast")];
            tensor<fp16, [1024, 1024]> text_encoder_text_model_encoder_layers_8_self_attn_out_proj_weight_to_fp16_palettized = constexpr_lut_to_dense()[indices = tensor<uint8, [786432]>(BLOBFILE(path = tensor<string, []>("@model_path/weights/weight.bin"), offset = tensor<uint64, []>(179310912))), lut = tensor<fp16, [64]>(BLOBFILE(path = tensor<string, []>("@model_path/weights/weight.bin"), offset = tensor<uint64, []>(180097408))), name = tensor<string, []>("text_encoder_text_model_encoder_layers_8_self_attn_out_proj_weight_to_fp16_palettized"), shape = tensor<uint32, [2]>([1024, 1024])];
            tensor<fp16, [1024]> text_encoder_text_model_encoder_layers_8_self_attn_out_proj_bias_to_fp16 = const()[name = tensor<string, []>("text_encoder_text_model_encoder_layers_8_self_attn_out_proj_bias_to_fp16"), val = tensor<fp16, [1024]>(BLOBFILE(path = tensor<string, []>("@model_path/weights/weight.bin"), offset = tensor<uint64, []>(180097600)))];
            tensor<fp16, [1, 77, 1024]> hidden_states_51_cast = linear(bias = text_encoder_text_model_encoder_layers_8_self_attn_out_proj_bias_to_fp16, weight = text_encoder_text_model_encoder_layers_8_self_attn_out_proj_weight_to_fp16_palettized, x = input_137_cast)[name = tensor<string, []>("hidden_states_51_cast")];
            tensor<fp16, [1, 77, 1024]> input_139_cast = add(x = input_131_cast, y = hidden_states_51_cast)[name = tensor<string, []>("input_139_cast")];
            tensor<int32, [1]> input_141_axes_0 = const()[name = tensor<string, []>("input_141_axes_0"), val = tensor<int32, [1]>([-1])];
            tensor<fp16, [1024]> text_encoder_text_model_encoder_layers_8_layer_norm2_weight_to_fp16 = const()[name = tensor<string, []>("text_encoder_text_model_encoder_layers_8_layer_norm2_weight_to_fp16"), val = tensor<fp16, [1024]>(BLOBFILE(path = tensor<string, []>("@model_path/weights/weight.bin"), offset = tensor<uint64, []>(180099712)))];
            tensor<fp16, [1024]> text_encoder_text_model_encoder_layers_8_layer_norm2_bias_to_fp16 = const()[name = tensor<string, []>("text_encoder_text_model_encoder_layers_8_layer_norm2_bias_to_fp16"), val = tensor<fp16, [1024]>(BLOBFILE(path = tensor<string, []>("@model_path/weights/weight.bin"), offset = tensor<uint64, []>(180101824)))];
            tensor<fp16, [1, 77, 1024]> input_141_cast = layer_norm(axes = input_141_axes_0, beta = text_encoder_text_model_encoder_layers_8_layer_norm2_bias_to_fp16, epsilon = var_12_to_fp16, gamma = text_encoder_text_model_encoder_layers_8_layer_norm2_weight_to_fp16, x = input_139_cast)[name = tensor<string, []>("input_141_cast")];
…
_20_self_attn_k_proj_weight_to_fp16_palettized"), shape = tensor<uint32, [2]>([1024, 1024])];
            tensor<fp16, [1024]> text_encoder_text_model_encoder_layers_20_self_attn_k_proj_bias_to_fp16 = const()[name = tensor<string, []>("text_encoder_text_model_encoder_layers_20_self_attn_k_proj_bias_to_fp16"), val = tensor<fp16, [1024]>(BLOBFILE(path = tensor<string, []>("@model_path/weights/weight.bin"), offset = tensor<uint64, []>(292052672)))];
            tensor<fp16, [1, 77, 1024]> tensor_121_cast = linear(bias = text_encoder_text_model_encoder_layers_20_self_attn_k_proj_bias_to_fp16, weight = text_encoder_text_model_encoder_layers_20_self_attn_k_proj_weight_to_fp16_palettized, x = hidden_states_121_cast)[name = tensor<string, []>("tensor_121_cast")];
            tensor<int32, [4]> var_1855 = const()[name = tensor<string, []>("op_1855"), val = tensor<int32, [4]>([1, -1, 16, 64])];
            tensor<fp16, [1, 77, 16, 64]> var_1856_cast = reshape(shape = var_1855, x = tensor_121_cast)[name = tensor<string, []>("op_1856_cast")];
            tensor<int32, [4]> var_1857_perm_0 = const()[name = tensor<string, []>("op_1857_perm_0"), val = tensor<int32, [4]>([0, 2, 1, 3])];
            tensor<fp16, [1024, 1024]> text_encoder_text_model_encoder_layers_20_self_attn_v_proj_weight_to_fp16_palettized = constexpr_lut_to_dense()[indices = tensor<uint8, [786432]>(BLOBFILE(path = tensor<string, []>("@model_path/weights/weight.bin"), offset = tensor<uint64, []>(292054784))), lut = tensor<fp16, [64]>(BLOBFILE(path = tensor<string, []>("@model_path/weights/weight.bin"), offset = tensor<uint64, []>(292841280))), name = tensor<string, []>("text_encoder_text_model_encoder_layers_20_self_attn_v_proj_weight_to_fp16_palettized"), shape = tensor<uint32, [2]>([1024, 1024])];
            tensor<fp16, [1024]> text_encoder_text_model_encoder_layers_20_self_attn_v_proj_bias_to_fp16 = const()[name = tensor<string, []>("text_encoder_text_model_encoder_layers_20_self_attn_v_proj_bias_to_fp16"), val = tensor<fp16, [1024]>(BLOBFILE(path = tensor<string, []>("@model_path/weights/weight.bin"), offset = tensor<uint64, []>(292841472)))];
            tensor<fp16, [1, 77, 1024]> tensor_123_cast = linear(bias = text_encoder_text_model_encoder_layers_20_self_attn_v_proj_bias_to_fp16, weight = text_encoder_text_model_encoder_layers_20_self_attn_v_proj_weight_to_fp16_palettized, x = hidden_states_121_cast)[name = tensor<string, []>("tensor_123_cast")];
            tensor<int32, [4]> var_1862 = const()[name = tensor<string, []>("op_1862"), val = tensor<int32, [4]>([1, -1, 16, 64])];
            tensor<fp16, [1, 77, 16, 64]> var_1863_cast = reshape(shape = var_1862, x = tensor_123_cast)[name = tensor<string, []>("op_1863_cast")];
            tensor<int32, [4]> var_1864_perm_0 = const()[name = tensor<string, []>("op_1864_perm_0"), val = tensor<int32, [4]>([0, 2, 1, 3])];
            tensor<int32, [4]> var_1871 = const()[name = tensor<string, []>("op_1871"), val = tensor<int32, [4]>([1, 77, 16, 64])];
            tensor<fp16, [1, 77, 16, 64]> var_1872_cast = reshape(shape = var_1871, x = tensor_125_cast)[name = tensor<string, []>("op_1872_cast")];
            tensor<int32, [4]> var_1873_perm_0 = const()[name = tensor<string, []>("op_1873_perm_0"), val = tensor<int32, [4]>([0, 2, 1, 3])];
            tensor<int32, [3]> var_1875 = const()[name = tensor<string, []>("op_1875"), val = tensor<int32, [3]>([16, -1, 64])];
            tensor<fp16, [1, 16, 77, 64]> transpose_14 = transpose(perm = var_1873_perm_0, x = var_1872_cast)[name = tensor<string, []>("transpose_14")];
            tensor<fp16, [16, 77, 64]> query_states_41_cast = reshape(shape = var_1875, x = transpose_14)[name = tensor<string, []>("query_states_41_cast")];
            tensor<int32, [3]> var_1877 = const()[name = tensor<string, []>("op_1877"), val = tensor<int32, [3]>([16, -1, 64])];
            tensor<fp16, [1, 16, 77, 64]> transpose_13 = transpose(perm = var_1857_perm_0, x = var_1856_cast)[name = tensor<string, []>("transpose_13")];
            tensor<fp16, [16, 77, 64]> key_states_83_cast = reshape(shape = var_1877, x = transpose_13)[name = tensor<string, []>("key_states_83_cast")];
            tensor<int32, [3]> var_1879 = const()[name = tensor<string, []>("op_1879"), val = tensor<int32, [3]>([16, -1, 64])];
            tensor<fp16, [1, 16, 77, 64]> transpose_12 = transpose(perm = var_1864_perm_0, x = var_1863_cast)[name = tensor<string, []>("transpose_12")];
            tensor<fp16, [16, 77, 64]> value_states_83_cast = reshape(shape = var_1879, x = transpose_12)[name = tensor<string, []>("value_states_83_cast")];
            tensor<int32, [3]> var_1882_perm_0 = const()[name = tensor<string, []>("op_1882_perm_0"), val = tensor<int32, [3]>([0, 2, 1])];
            tensor<bool, []> attn_weights_121_transpose_x_0 = const()[name = tensor<string, []>("attn_weights_121_transpose_x_0"), val = tensor<bool, []>(false)];
            tensor<bool, []> attn_weights_121_transpose_y_0 = const()[name = tensor<string, []>("attn_weights_121_transpose_y_0"), val = tensor<bool, []>(false)];
            tensor<fp16, [16, 64, 77]> transpose_11 = transpose(perm = var_1882_perm_0, x = key_states_83_cast)[name = tensor<string, []>("transpose_11")];
            tensor<fp16, [16, 77, 77]> attn_weights_121_cast = matmul(transpose_x = attn_weights_121_transpose_x_0, transpose_y = attn_weights_121_transpose_y_0, x = query_states_41_cast, y = transpose_11)[name = tensor<string, []>("attn_weights_121_cast")];
            tensor<int32, [4]> var_1884 = const()[name = tensor<string, []>("op_1884"), val = tensor<int32, [4]>([1, 16, 77, 77])];
            tensor<fp16, [1, 16, 77, 77]> var_1885_cast = reshape(shape = var_1884, x = attn_weights_121_cast)[name = tensor<string, []>("op_1885_cast")];
            tensor<fp16, [1, 16, 77, 77]> attn_weights_123_cast = add(x = var_1885_cast, y = causal_attention_mask_to_fp16_palettized)[name = tensor<string, []>("attn_weights_123_cast")];
            tensor<int32, [3]> var_1890 = const()[name = tensor<string, []>("op_1890"), val = tensor<int32, [3]>([16, 77, 77])];
            tensor<fp16, [16, 77, 77]> input_325_cast = reshape(shape = var_1890, x = attn_weights_123_cast)[name = tensor<string, []>("input_325_cast")];
            tensor<fp16, [16, 77, 77]> input_327_cast = softmax(axis = var_5, x = input_325_cast)[name = tensor<string, []>("input_327_cast")];
            tensor<bool, []> attn_output_121_transpose_x_0 = const()[name = tensor<string, []>("attn_output_121_transpose_x_0"), val = tensor<bool, []>(false)];
            tensor<bool, []> attn_output_121_transpose_y_0 = const()[name = tensor<string, []>("attn_output_121_transpose_y_0"), val = tensor<bool, []>(false)];
            tensor<fp16, [16, 77, 64]> attn_output_121_cast = matmul(transpose_x = attn_output_121_transpose_x_0, transpose_y = attn_output_121_transpose_y_0, x = input_327_cast, y = value_states_83_cast)[name = tensor<string, []>("attn_output_121_cast")];
            tensor<int32, [4]> var_1895 = const()[name = tensor<string, []>("op_1895"), val = tensor<int32, [4]>([1, 16, 77, 64])];
            tensor<fp16, [1, 16, 77, 64]> attn_output_123_cast = reshape(shape = var_1895, x = attn_output_121_cast)[name = tensor<string, []>("attn_output_123_cast")];
            tensor<int32, [4]> attn_output_125_perm_0 = const()[name = tensor<string, []>("attn_output_125_perm_0"), val = tensor<int32, [4]>([0, 2, 1, 3])];
            tensor<int32, [3]> var_1898 = const()[name = tensor<string, []>("op_1898"), val = tensor<int32, [3]>([1, 77, 1024])];
            tensor<fp16, [1, 77, 16, 64]> transpose_10 = transpose(perm = attn_output_125_perm_0, x = attn_output_123_cast)[name = tensor<string, []>("transpose_10")];
            tensor<fp16, [1, 77, 1024]> input_329_cast = reshape(shape = var_1898, x = transpose_10)[name = tensor<string, []>("input_329_cast")];
            tensor<fp16, [1024, 1024]> text_encoder_text_model_encoder_layers_20_self_attn_out_proj_weight_to_fp16_palettized = constexpr_lut_to_dense()[indices = tensor<uint8, [786432]>(BLOBFILE(path = tensor<string, []>("@model_path/weights/weight.bin"), offset = tensor<uint64, []>(292843584))), lut = tensor<fp16, [64]>(BLOBFILE(path = tensor<string, []>("@model_path/weights/weight.bin"), offset = tensor<uint64, []>(293630080))), name = tensor<string, []>("text_encoder_text_model_encoder_layers_20_self_attn_out_proj_weight_to_fp16_palettized"), shape = tensor<uint32, [2]>([1024, 1024])];
            tensor<fp16, [1024]> text_encoder_text_model_encoder_layers_20_self_attn_out_proj_bias_to_fp16 = const()[name = tensor<string, []>("text_encoder_text_model_encoder_layers_20_self_attn_out_proj_bias_to_fp16"), val = tensor<fp16, [1024]>(BLOBFILE(path = tensor<string, []>("@model_path/weights/weight.bin"), offset = tensor<uint64, []>(293630272)))];
            tensor<fp16, [1, 77, 1024]> hidden_states_123_cast = linear(bias = text_encoder_text_model_encoder_layers_20_self_attn_out_proj_bias_to_fp16, weight = text_encoder_text_model_encoder_layers_20_self_attn_out_proj_weight_to_fp16_palettized, x = input_329_cast)[name = tensor<string, []>("hidden_states_123_cast")];
            tensor<fp16, [1, 77, 1024]> input_331_cast = add(x = input_323_cast, y = hidden_states_123_cast)[name = tensor<string, []>("input_331_cast")];
            tensor<int32, [1]> input_333_axes_0 = const()[name = tensor<string, []>("input_333_axes_0"), val = tensor<int32, [1]>([-1])];
            tensor<fp16, [1024]> text_encoder_text_model_encoder_layers_20_layer_norm2_weight_to_fp16 = const()[name = tensor<string, []>("text_encoder_text_model_encoder_layers_20_layer_norm2_weight_to_fp16"), val = tensor<fp16, [1024]>(BLOBFILE(path = tensor<string, []>("@model_path/weights/weight.bin"), offset = tensor<uint64, []>(293632384)))];
            tensor<fp16, [1024]> text_encoder_text_model_encoder_layers_20_layer_norm2_bias_to_fp16 = const()[name = tensor<string, []>("text_encoder_text_model_encoder_layers_20_layer_norm2_bias_to_fp16"), val = tensor<fp16, [1024]>(BLOBFILE(path = tensor<string, []>("@model_path/weights/weight.bin"), offset = tensor<uint64, []>(293634496)))];
            tensor<fp16, [1, 77, 1024]> input_333_cast = layer_norm(axes = input_333_axes_0, beta = text_encoder_text_model_encoder_layers_20_layer_norm2_bias_to_fp16, epsilon = var_12_to_fp16, gamma = text_encoder_text_model_encoder_layers_20_layer_norm2_weight_to_fp16, x = input_331_cast)[name = tensor<string, []>("input_333_cast")];
            tensor<fp16, [4096, 1024]> text_encoder_text_model_encoder_layers_20_mlp_fc1_weight_to_fp16_palettized = constexpr_lut_to_dense()[indices = tensor<uint8, [3145728]>(BLOBFILE(path = tensor<string, []>("@model_path/weights/weight.bin"), offset = tensor<uint64, []>(293636608))), lut = tensor<fp16, [64]>(BLOBFILE(path = tensor<string, []>("@model_path/weights/weight.bin"), offset = tensor<uint64, []>(296782400))), name = tensor<string, []>("text_encoder_text_model_encoder_layers_20_mlp_fc1_weight_to_fp16_palettized"), shape = tensor<uint32, [2]>([4096, 1024])];
            tensor<fp16, [4096]> text_encoder_text_model_encoder_layers_20_mlp_fc1_bias_to_fp16_palettized = constexpr_lut_to_dense()[indices = tensor<uint8, [3072]>(BLOBFILE(path = tensor<string, []>("@model_path/weights/weight.bin"), offset = tensor<uint64, []>(296782592))), lut = tensor<fp16, [64]>(BLOBFILE(path = tensor<string, []>("@model_path/weights/weight.bin"), offset = tensor<uint64, []>(296785728))), name = tensor<string, []>("text_encoder_text_model_encoder_layers_20_mlp_fc1_bias_to_fp16_palettized"), shape = tensor<uint32, [1]>([4096])];
            tensor<fp16, [1, 77, 4096]> input_335_cast = linear(bias = text_encoder_text_model_encoder_layers_20_mlp_fc1_bias_to_fp16_palettized, weight = text_encoder_text_model_encoder_layers_20_mlp_fc1_weight_to_fp16_palettized, x = input_333_cast)[name = tensor<string, []>("input_335_cast")];
            tensor<string, []> input_337_mode_0 = const()[name = tensor<string, []>("input_337_mode_0"), val = tensor<string, []>("EXACT")];
            tensor<fp16, [1, 77, 4096]> input_337_cast = gelu(mode = input_337_mode_0, x = input_335_cast)[name = tensor<string, []>("input_337_cast")];
            tensor<fp16, [1024, 4096]> text_encoder_text_model_encoder_layers_20_mlp_fc2_weight_to_fp16_palettized = constexpr_lut_to_dense()[indices = tensor<uint8, [3145728]>(BLOBFILE(path = tensor<string, []>("@model_path/weights/weight.bin"), offset = tensor<uint64, []>(296785920))), lut = tensor<fp16, [64]>(BLOBFILE(path = tensor<string, []>("@model_path/weights/weight.bin"), offset = tensor<uint64, []>(299931712))), name = tensor<string, []>("text_encoder_text_model_encoder_layers_20_mlp_fc2_weight_to_fp16_palettized"), shape = tensor<uint32, [2]>([1024, 4096])];
            tensor<fp16, [1024]> text_encoder_text_model_encoder_layers_20_mlp_fc2_bias_to_fp16 = const()[name = tensor<string, []>("text_encoder_text_model_encoder_layers_20_mlp_fc2_bias_to_fp16"), val = tensor<fp16, [1024]>(BLOBFILE(path = tensor<string, []>("@model_path/weights/weight.bin"), offset = tensor<uint64, []>(299931904)))];
            tensor<fp16, [1, 77, 1024]> hidden_states_125_cast = linear(bias = text_encoder_text_model_encoder_layers_20_mlp_fc2_bias_to_fp16, weight = text_encoder_text_model_encoder_layers_20_mlp_fc2_weight_to_fp16_palettized, x = input_337_cast)[name = tensor<string, []>("hidden_states_125_cast")];
            tensor<fp16, [1, 77, 1024]> input_339_cast = add(x = input_331_cast, y = hidden_states_125_cast)[name = tensor<string, []>("input_339_cast")];
            tensor<int32, [1]> hidden_states_127_axes_0 = const()[name = tensor<string, []>("hidden_states_127_axes_0"), val = tensor<int32, [1]>([-1])];
            tensor<fp16, [1024]> text_encoder_text_model_encoder_layers_21_layer_norm1_weight_to_fp16 = const()[name = tensor<string, []>("text_encoder_text_model_encoder_layers_21_layer_norm1_weight_to_fp16"), val = tensor<fp16, [1024]>(BLOBFILE(path = tensor<string, []>("@model_path/weights/weight.bin"), offset = tensor<uint64, []>(299934016)))];
            tensor<fp16, [1024]> text_encoder_text_model_encoder_layers_21_layer_norm1_bias_to_fp16 = const()[name = tensor<string, []>("text_encoder_text_model_encoder_layers_21_layer_norm1_bias_to_fp16"), val = tensor<fp16, [1024]>(BLOBFILE(path = tensor<string, []>("@model_path/weights/weight.bin"), offset = tensor<uint64, []>(299936128)))];
            tensor<fp16, [1, 77, 1024]> hidden_states_127_cast = layer_norm(axes = hidden_states_127_axes_0, beta = text_encoder_text_model_encoder_layers_21_layer_norm1_bias_to_fp16, epsilon = var_12_to_fp16, gamma = text_encoder_text_model_encoder_layers_21_layer_norm1_weight_to_fp16, x = input_339_cast)[name = tensor<string, []>("hidden_states_127_cast")];
            tensor<fp16, [1024, 1024]> text_encoder_text_model_encoder_layers_21_self_attn_q_proj_weight_to_fp16_palettized = constexpr_lut_to_dense()[indices = tensor<uint8, [786432]>(BLOBFILE(path = tensor<string, []>("@model_path/weights/weight.bin"), offset = tensor<uint64, []>(299938240))), lut = tensor<fp16, [64]>(BLOBFILE(path = tensor<string, []>("@model_path/weights/weight.bin"), offset = tensor<uint64, []>(300724736))), name = tensor<string, []>("text_encoder_text_model_encoder_layers_21_self_attn_q_proj_weight_to_fp16_palettized"), shape = tensor<uint32, [2]>([1024, 1024])];
            tensor<fp16, [1024]> text_encoder_text_model_encoder_layers_21_self_attn_q_proj_bias_to_fp16 = const()[name = tensor<string, []>("text_encoder_text_model_encoder_layers_21_self_attn_q_proj_bias_to_fp16"), val = tensor<fp16, [1024]>(BLOBFILE(path = tensor<string, []>("@model_path/weights/weight.bin"), offset = tensor<uint64, []>(300724928)))];
            tensor<fp16, [1, 77, 1024]> var_1936_cast = linear(bias = text_encoder_text_model_encoder_layers_21_self_attn_q_proj_bias_to_fp16, weight = text_encoder_text_model_encoder_layers_21_self_attn_q_proj_weight_to_fp16_palettized, x = hidden_states_127_cast)[name = tensor<string, []>("op_1936_cast")];
            tensor<fp16, []> var_1937_to_fp16 = const()[name = tensor<string, []>("op_1937_to_fp16"), val = tensor<fp16, []>(0x1p-3)];
            tensor<fp16, [1, 77, 1024]> tensor_131_cast = mul(x = var_1936_cast, y = var_1937_to_fp16)[name = tensor<string, []>("tensor_131_cast")];
            tensor<fp16, [1024, 1024]> text_encoder_text_model_encoder_layers_21_self_attn_k_proj_weight_to_fp16_palettized = constexpr_lut_to_dense()[indices = tensor<uint8, [786432]>(BLOBFILE(path = tensor<string, []>("@model_path/weights/weight.bin"), offset = tensor<uint64, []>(300727040))), lut = tensor<fp16, [64]>(BLOBFILE(path = tensor<string, []>("@model_path/weights/weight.bin"), offset = tensor<uint64, []>(301513536))), name = tensor<string, []>("text_encoder_text_model_encoder_layers_21_self_attn_k_proj_weight_to_fp16_palettized"), shape = tensor<uint32, [2]>([1024, 1024])];
            tensor<fp16, [1024]> text_encoder_text_model_encoder_layers_21_self_attn_k_proj_bias_to_fp16 = const()[name = tensor<string, []>("text_encoder_text_model_encoder_layers_21_self_attn_k_proj_bias_to_fp16"), val = tensor<fp16, [1024]>(BLOBFILE(path = tensor<string, []>("@model_path/weights/weight.bin"), offset = tensor<uint64, []>(301513728)))];
            tensor<fp16, [1, 77, 1024]> tensor_127_cast = linear(bias = text_encoder_text_model_encoder_layers_21_self_attn_k_proj_bias_to_fp16, weight = text_encoder_text_model_encoder_layers_21_self_attn_k_proj_weight_to_fp16_palettized, x = hidden_states_127_cast)[name = tensor<string, []>("tensor_127_cast")];
            tensor<int32, [4]> var_1942 = const()[name = tensor<string, []>("op_1942"), val = tensor<int32, [4]>([1, -1, 16, 64])];
            tensor<fp16, [1, 77, 16, 64]> var_1943_cast = reshape(shape = var_1942, x = tensor_127_cast)[name = tensor<string, []>("op_1943_cast")];
            tensor<int32, [4]> var_1944_perm_0 = const()[name = tensor<string, []>("op_1944_perm_0"), val = tensor<int32, [4]>([0, 2, 1, 3])];
            tensor<fp16, [1024, 1024]> text_encoder_text_model_encoder_layers_21_self_attn_v_proj_weight_to_fp16_palettized = constexpr_lut_to_dense()[indices = tensor<uint8, [786432]>(BLOBFILE(path = tensor<string, []>("@model_path/weights/weight.bin"), offset = tensor<uint64, []>(301515840))), lut = tensor<fp16, [64]>(BLOBFILE(path = tensor<string, []>("@model_path/weights/weight.bin"), offset = tensor<uint64, []>(302302336))), name = tensor<string, []>("text_encoder_text_model_encoder_layers_21_self_attn_v_proj_weight_to_fp16_palettized"), shape = tensor<uint32, [2]>([1024, 1024])];
            tensor<fp16, [1024]> text_encoder_text_model_encoder_layers_21_self_attn_v_proj_bias_to_fp16 = const()[name = tensor<string, []>("text_encoder_text_model_encoder_layers_21_self_attn_v_proj_bias_to_fp16"), val = tensor<fp16, [1024]>(BLOBFILE(path = tensor<string, []>("@model_path/weights/weight.bin"), offset = tensor<uint64, []>(302302528)))];
            tensor<fp16, [1, 77, 1024]> tensor_129_cast = linear(bias = text_encoder_text_model_encoder_layers_21_self_attn_v_proj_bias_to_fp16, weight = text_encoder_text_model_encoder_layers_21_self_attn_v_proj_weight_to_fp16_palettized, x = hidden_states_127_cast)[name = tensor<string, []>("tensor_129_cast")];
            tensor<int32, [4]> var_1949 = const()[name = tensor<string, []>("op_1949"), val = tensor<int32, [4]>([1, -1, 16, 64])];
            tensor<fp16, [1, 77, 16, 64]> var_1950_cast = reshape(shape = var_1949, x = tensor_129_cast)[name = tensor<string, []>("op_1950_cast")];
            tensor<int32, [4]> var_1951_perm_0 = const()[name = tensor<string, []>("op_1951_perm_0"), val = tensor<int32, [4]>([0, 2, 1, 3])];
            tensor<int32, [4]> var_1958 = const()[name = tensor<string, []>("op_1958"), val = tensor<int32, [4]>([1, 77, 16, 64])];
            tensor<fp16, [1, 77, 16, 64]> var_1959_cast = reshape(shape = var_1958, x = tensor_131_cast)[name = tensor<string, []>("op_1959_cast")];
            tensor<int32, [4]> var_1960_perm_0 = const()[name = tensor<string, []>("op_1960_perm_0"), val = tensor<int32, [4]>([0, 2, 1, 3])];
            tensor<int32, [3]> var_1962 = const()[name = tensor<string, []>("op_1962"), val = tensor<int32, [3]>([16, -1, 64])];
            tensor<fp16, [1, 16, 77, 64]> transpose_9 = transpose(perm = var_1960_perm_0, x = var_1959_cast)[name = tensor<string, []>("transpose_9")];
            tensor<fp16, [16, 77, 64]> query_states_43_cast = reshape(shape = var_1962, x = transpose_9)[name = tensor<string, []>("query_states_43_cast")];
            tensor<int32, [3]> var_1964 = const()[name = tensor<string, []>("op_1964"), val = tensor<int32, [3]>([16, -1, 64])];
            tensor<fp16, [1, 16, 77, 64]> transpose_8 = transpose(perm = var_1944_perm_0, x = var_1943_cast)[name = tensor<string, []>("transpose_8")];
            tensor<fp16, [16, 77, 64]> key_states_87_cast = reshape(shape = var_1964, x = transpose_8)[name = tensor<string, []>("key_states_87_cast")];
            tensor<int32, [3]> var_1966 = const()[name = tensor<string, []>("op_1966"), val = tensor<int32, [3]>([16, -1, 64])];
            tensor<fp16, [1, 16, 77, 64]> transpose_7 = transpose(perm = var_1951_perm_0, x = var_1950_cast)[name = tensor<string, []>("transpose_7")];
            tensor<fp16, [16, 77, 64]> value_states_87_cast = reshape(shape = var_1966, x = transpose_7)[name = tensor<string, []>("value_states_87_cast")];
            tensor<int32, [3]> var_1969_perm_0 = const()[name = tensor<string, []>("op_1969_perm_0"), val = tensor<int32, [3]>([0, 2, 1])];
            tensor<bool, []> attn_weights_127_transpose_x_0 = const()[name = tensor<string, []>("attn_weights_127_transpose_x_0"), val = tensor<bool, []>(false)];
            tensor<bool, []> attn_weights_127_transpose_y_0 = const()[name = tensor<string, []>("attn_weights_127_transpose_y_0"), val = tensor<bool, []>(false)];
            tensor<fp16, [16, 64, 77]> transpose_6 = transpose(perm = var_1969_perm_0, x = key_states_87_cast)[name = tensor<string, []>("transpose_6")];
            tensor<fp16, [16, 77, 77]> attn_weights_127_cast = matmul(transpose_x = attn_weights_127_transpose_x_0, transpose_y = attn_weights_127_transpose_y_0, x = query_states_43_cast, y = transpose_6)[name = tensor<string, []>("attn_weights_127_cast")];
            tensor<int32, [4]> var_1971 = const()[name = tensor<string, []>("op_1971"), val = tensor<int32, [4]>([1, 16, 77, 77])];
            tensor<fp16, [1, 16, 77, 77]> var_1972_cast = reshape(shape = var_1971, x = attn_weights_127_cast)[name = tensor<string, []>("op_1972_cast")];
            tensor<fp16, [1, 16, 77, 77]> attn_weights_129_cast = add(x = var_1972_cast, y = causal_attention_mask_to_fp16_palettized)[name = tensor<string, []>("attn_weights_129_cast")];
            tensor<int32, [3]> var_1977 = const()[name = tensor<string, []>("op_1977"), val = tensor<int32, [3]>([16, 77, 77])];
            tensor<fp16, [16, 77, 77]> input_341_cast = reshape(shape = var_1977, x = attn_weights_129_cast)[name = tensor<string, []>("input_341_cast")];
            tensor<fp16, [16, 77, 77]> input_343_cast = softmax(axis = var_5, x = input_341_cast)[name = tensor<string, []>("input_343_cast")];
            tensor<bool, []> attn_output_127_transpose_x_0 = const()[name = tensor<string, []>("attn_output_127_transpose_x_0"), val = tensor<bool, []>(false)];
            tensor<bool, []> attn_output_127_transpose_y_0 = const()[name = tensor<string, []>("attn_output_127_transpose_y_0"), val = tensor<bool, []>(false)];
            tensor<fp16, [16, 77, 64]> attn_output_127_cast = matmul(transpose_x = attn_output_127_transpose_x_0, transpose_y = attn_output_127_transpose_y_0, x = input_343_cast, y = value_states_87_cast)[name = tensor<string, []>("attn_output_127_cast")];
            tensor<int32, [4]> var_1982 = const()[name = tensor<string, []>("op_1982"), val = tensor<int32, [4]>([1, 16, 77, 64])];
            tensor<fp16, [1, 16, 77, 64]> attn_output_129_cast = reshape(shape = var_1982, x = attn_output_127_cast)[name = tensor<string, []>("attn_output_129_cast")];
            tensor<int32, [4]> attn_output_131_perm_0 = const()[name = tensor<string, []>("attn_output_131_perm_0"), val = tensor<int32, [4]>([0, 2, 1, 3])];
            tensor<int32, [3]> var_1985 = const()[name = tensor<string, []>("op_1985"), val = tensor<int32, [3]>([1, 77, 1024])];
            tensor<fp16, [1, 77, 16, 64]> transpose_5 = transpose(perm = attn_output_131_perm_0, x = attn_output_129_cast)[name = tensor<string, []>("transpose_5")];
            tensor<fp16, [1, 77, 1024]> input_345_cast = reshape(shape = var_1985, x = transpose_5)[name = tensor<string, []>("input_345_cast")];
            tensor<fp16, [1024, 1024]> text_encoder_text_model_encoder_layers_21_self_attn_out_proj_weight_to_fp16_palettized = constexpr_lut_to_dense()[indices = tensor<uint8, [786432]>(BLOBFILE(path = tensor<string, []>("@model_path/weights/weight.bin"), offset = tensor<uint64, []>(302304640))), lut = tensor<fp16, [64]>(BLOBFILE(path = tensor<string, []>("@model_path/weights/weight.bin"), offset = tensor<uint64, []>(303091136))), name = tensor<string, []>("text_encoder_text_model_encoder_layers_21_self_attn_out_proj_weight_to_fp16_palettized"), shape = tensor<uint32, [2]>([1024, 1024])];
            tensor<fp16, [1024]> text_encoder_text_model_encoder_layers_21_self_attn_out_proj_bias_to_fp16 = const()[name = tensor<string, []>("text_encoder_text_model_encoder_layers_21_self_attn_out_proj_bias_to_fp16"), val = tensor<fp16, [1024]>(BLOBFILE(path = tensor<string, []>("@model_path/weights/weight.bin"), offset = tensor<uint64, []>(303091328)))];
            tensor<fp16, [1, 77, 1024]> hidden_states_129_cast = linear(bias = text_encoder_text_model_encoder_layers_21_self_attn_out_proj_bias_to_fp16, weight = text_encoder_text_model_encoder_layers_21_self_attn_out_proj_weight_to_fp16_palettized, x = input_345_cast)[name = tensor<string, []>("hidden_states_129_cast")];
            tensor<fp16, [1, 77, 1024]> input_347_cast = add(x = input_339_cast, y = hidden_states_129_cast)[name = tensor<string, []>("input_347_cast")];
            tensor<int32, [1]> input_349_axes_0 = const()[name = tensor<string, []>("input_349_axes_0"), val = tensor<int32, [1]>([-1])];
            tensor<fp16, [1024]> text_encoder_text_model_encoder_layers_21_layer_norm2_weight_to_fp16 = const()[name = tensor<string, []>("text_encoder_text_model_encoder_layers_21_layer_norm2_weight_to_fp16"), val = tensor<fp16, [1024]>(BLOBFILE(path = tensor<string, []>("@model_path/weights/weight.bin"), offset = tensor<uint64, []>(303093440)))];
            tensor<fp16, [1024]> text_encoder_text_model_encoder_layers_21_layer_norm2_bias_to_fp16 = const()[name = tensor<string, []>("text_encoder_text_model_encoder_layers_21_layer_norm2_bias_to_fp16"), val = tensor<fp16, [1024]>(BLOBFILE(path = tensor<string, []>("@model_path/weights/weight.bin"), offset = tensor<uint64, []>(303095552)))];
            tensor<fp16, [1, 77, 1024]> input_349_cast = layer_norm(axes = input_349_axes_0, beta = text_encoder_text_model_encoder_layers_21_layer_norm2_bias_to_fp16, epsilon = var_12_to_fp16, gamma = text_encoder_text_model_encoder_layers_21_layer_norm2_weight_to_fp16, x = input_347_cast)[name = tensor<string, []>("input_349_cast")];
            tensor<fp16, [4096, 1024]> text_encoder_text_model_encoder_layers_21_mlp_fc1_weight_to_fp16_palettized = constexpr_lut_to_dense()[indices = tensor<uint8, [3145728]>(BLOBFILE(path = tensor<string, []>("@model_path/weights/weight.bin"), offset = tensor<uint64, []>(303097664))), lut = tensor<fp16, [64]>(BLOBFILE(path = tensor<string, []>("@model_path/weights/weight.bin"), offset = tensor<uint64, []>(306243456))), name = tensor<string, []>("text_encoder_text_model_encoder_layers_21_mlp_fc1_weight_to_fp16_palettized"), shape = tensor<uint32, [2]>([4096, 1024])];
            tensor<fp16, [4096]> text_encoder_text_model_encoder_layers_21_mlp_fc1_bias_to_fp16_palettized = constexpr_lut_to_dense()[indices = tensor<uint8, [3072]>(BLOBFILE(path = tensor<string, []>("@model_path/weights/weight.bin"), offset = tensor<uint64, []>(306243648))), lut = tensor<fp16, [64]>(BLOBFILE(path = tensor<string, []>("@model_path/weights/weight.bin"), offset = tensor<uint64, []>(306246784))), name = tensor<string, []>("text_encoder_text_model_encoder_layers_21_mlp_fc1_bias_to_fp16_palettized"), shape = tensor<uint32, [1]>([4096])];
            tensor<fp16, [1, 77, 4096]> input_351_cast = linear(bias = text_encoder_text_model_encoder_layers_21_mlp_fc1_bias_to_fp16_palettized, weight = text_encoder_text_model_encoder_layers_21_mlp_fc1_weight_to_fp16_palettized, x = input_349_cast)[name = tensor<string, []>("input_351_cast")];
            tensor<string, []> input_353_mode_0 = const()[name = tensor<string, []>("input_353_mode_0"), val = tensor<string, []>("EXACT")];
            tensor<fp16, [1, 77, 4096]> input_353_cast = gelu(mode = input_353_mode_0, x = input_351_cast)[name = tensor<string, []>("input_353_cast")];
            tensor<fp16, [1024, 4096]> text_encoder_text_model_encoder_layers_21_mlp_fc2_weight_to_fp16_palettized = constexpr_lut_to_dense()[indices = tensor<uint8, [3145728]>(BLOBFILE(path = tensor<string, []>("@model_path/weights/weight.bin"), offset = tensor<uint64, []>(306246976))), lut = tensor<fp16, [64]>(BLOBFILE(path = tensor<string, []>("@model_path/weights/weight.bin"), offset = tensor<uint64, []>(309392768))), name = tensor<string, []>("text_encoder_text_model_encoder_layers_21_mlp_fc2_weight_to_fp16_palettized"), shape = tensor<uint32, [2]>([1024, 4096])];
            tensor<fp16, [1024]> text_encoder_text_model_encoder_layers_21_mlp_fc2_bias_to_fp16 = const()[name = tensor<string, []>("text_encoder_text_model_encoder_layers_21_mlp_fc2_bias_to_fp16"), val = tensor<fp16, [1024]>(BLOBFILE(path = tensor<string, []>("@model_path/weights/weight.bin"), offset = tensor<uint64, []>(309392960)))];
            tensor<fp16, [1, 77, 1024]> hidden_states_131_cast = linear(bias = text_encoder_text_model_encoder_layers_21_mlp_fc2_bias_to_fp16, weight = text_encoder_text_model_encoder_layers_21_mlp_fc2_weight_to_fp16_palettized, x = input_353_cast)[name = tensor<string, []>("hidden_states_131_cast")];
            tensor<fp16, [1, 77, 1024]> input_355_cast = add(x = input_347_cast, y = hidden_states_131_cast)[name = tensor<string, []>("input_355_cast")];
            tensor<int32, [1]> hidden_states_133_axes_0 = const()[name = tensor<string, []>("hidden_states_133_axes_0"), val = tensor<int32, [1]>([-1])];
            tensor<fp16, [1024]> text_encoder_text_model_encoder_layers_22_layer_norm1_weight_to_fp16 = const()[name = tensor<string, []>("text_encoder_text_model_encoder_layers_22_layer_norm1_weight_to_fp16"), val = tensor<fp16, [1024]>(BLOBFILE(path = tensor<string, []>("@model_path/weights/weight.bin"), offset = tensor<uint64, []>(309395072)))];
            tensor<fp16, [1024]> text_encoder_text_model_encoder_layers_22_layer_norm1_bias_to_fp16 = const()[name = tensor<string, []>("text_encoder_text_model_encoder_layers_22_layer_norm1_bias_to_fp16"), val = tensor<fp16, [1024]>(BLOBFILE(path = tensor<string, []>("@model_path/weights/weight.bin"), offset = tensor<uint64, []>(309397184)))];
            tensor<fp16, [1, 77, 1024]> hidden_states_133_cast = layer_norm(axes = hidden_states_133_axes_0, beta = text_encoder_text_model_encoder_layers_22_layer_norm1_bias_to_fp16, epsilon = var_12_to_fp16, gamma = text_encoder_text_model_encoder_layers_22_layer_norm1_weight_to_fp16, x = input_355_cast)[name = tensor<string, []>("hidden_states_133_cast")];
            tensor<fp16, [1024, 1024]> text_encoder_text_model_encoder_layers_22_self_attn_q_proj_weight_to_fp16_palettized = constexpr_lut_to_dense()[indices = tensor<uint8, [786432]>(BLOBFILE(path = tensor<string, []>("@model_path/weights/weight.bin"), offset = tensor<uint64, []>(309399296))), lut = tensor<fp16, [64]>(BLOBFILE(path = tensor<string, []>("@model_path/weights/weight.bin"), offset = tensor<uint64, []>(310185792))), name = tensor<string, []>("text_encoder_text_model_encoder_layers_22_self_attn_q_proj_weight_to_fp16_palettized"), shape = tensor<uint32, [2]>([1024, 1024])];
            tensor<fp16, [1024]> text_encoder_text_model_encoder_layers_22_self_attn_q_proj_bias_to_fp16 = const()[name = tensor<string, []>("text_encoder_text_model_encoder_layers_22_self_attn_q_proj_bias_to_fp16"), val = tensor<fp16, [1024]>(BLOBFILE(path = tensor<string, []>("@model_path/weights/weight.bin"), offset = tensor<uint64, []>(310185984)))];
            tensor<fp16, [1, 77, 1024]> var_2023_cast = linear(bias = text_encoder_text_model_encoder_layers_22_self_attn_q_proj_bias_to_fp16, weight = text_encoder_text_model_encoder_layers_22_self_attn_q_proj_weight_to_fp16_palettized, x = hidden_states_133_cast)[name = tensor<string, []>("op_2023_cast")];
            tensor<fp16, []> var_2024_to_fp16 = const()[name = tensor<string, []>("op_2024_to_fp16"), val = tensor<fp16, []>(0x1p-3)];
            tensor<fp16, [1, 77, 1024]> tensor_cast = mul(x = var_2023_cast, y = var_2024_to_fp16)[name = tensor<string, []>("tensor_cast")];
            tensor<fp16, [1024, 1024]> text_encoder_text_model_encoder_layers_22_self_attn_k_proj_weight_to_fp16_palettized = constexpr_lut_to_dense()[indices = tensor<uint8, [786432]>(BLOBFILE(path = tensor<string, []>("@model_path/weights/weight.bin"), offset = tensor<uint64, []>(310188096))), lut = tensor<fp16, [64]>(BLOBFILE(path = tensor<string, []>("@model_path/weights/weight.bin"), offset = tensor<uint64, []>(310974592))), name = tensor<string, []>("text_encoder_text_model_encoder_layers_22_self_attn_k_proj_weight_to_fp16_palettized"), shape = tensor<uint32, [2]>([1024, 1024])];
            tensor<fp16, [1024]> text_encoder_text_model_encoder_layers_22_self_attn_k_proj_bias_to_fp16 = const()[name = tensor<string, []>("text_encoder_text_model_encoder_layers_22_self_attn_k_proj_bias_to_fp16"), val = tensor<fp16, [1024]>(BLOBFILE(path = tensor<string, []>("@model_path/weights/weight.bin"), offset = tensor<uint64, []>(310974784)))];
            tensor<fp16, [1, 77, 1024]> tensor_133_cast = linear(bias = text_encoder_text_model_encoder_layers_22_self_attn_k_proj_bias_to_fp16, weight = text_encoder_text_model_encoder_layers_22_self_attn_k_proj_weight_to_fp16_palettized, x = hidden_states_133_cast)[name = tensor<string, []>("tensor_133_cast")];
            tensor<int32, [4]> var_2029 = const()[name = tensor<string, []>("op_2029"), val = tensor<int32, [4]>([1, -1, 16, 64])];
            tensor<fp16, [1, 77, 16, 64]> var_2030_cast = reshape(shape = var_2029, x = tensor_133_cast)[name = tensor<string, []>("op_2030_cast")];
            tensor<int32, [4]> var_2031_perm_0 = const()[name = tensor<string, []>("op_2031_perm_0"), val = tensor<int32, [4]>([0, 2, 1, 3])];
            tensor<fp16, [1024, 1024]> text_encoder_text_model_encoder_layers_22_self_attn_v_proj_weight_to_fp16_palettized = constexpr_lut_to_dense()[indices = tensor<uint8, [786432]>(BLOBFILE(path = tensor<string, []>("@model_path/weights/weight.bin"), offset = tensor<uint64, []>(310976896))), lut = tensor<fp16, [64]>(BLOBFILE(path = tensor<string, []>("@model_path/weights/weight.bin"), offset = tensor<uint64, []>(311763392))), name = tensor<string, []>("text_encoder_text_model_encoder_layers_22_self_attn_v_proj_weight_to_fp16_palettized"), shape = tensor<uint32, [2]>([1024, 1024])];
            tensor<fp16, [1024]> text_encoder_text_model_encoder_layers_22_self_attn_v_proj_bias_to_fp16 = const()[name = tensor<string, []>("text_encoder_text_model_encoder_layers_22_self_attn_v_proj_bias_to_fp16"), val = tensor<fp16, [1024]>(BLOBFILE(path = tensor<string, []>("@model_path/weights/weight.bin"), offset = tensor<uint64, []>(311763584)))];
            tensor<fp16, [1, 77, 1024]> tensor_135_cast = linear(bias = text_encoder_text_model_encoder_layers_22_self_attn_v_proj_bias_to_fp16, weight = text_encoder_text_model_encoder_layers_22_self_attn_v_proj_weight_to_fp16_palettized, x = hidden_states_133_cast)[name = tensor<string, []>("tensor_135_cast")];
            tensor<int32, [4]> var_2036 = const()[name = tensor<string, []>("op_2036"), val = tensor<int32, [4]>([1, -1, 16, 64])];
            tensor<fp16, [1, 77, 16, 64]> var_2037_cast = reshape(shape = var_2036, x = tensor_135_cast)[name = tensor<string, []>("op_2037_cast")];
            tensor<int32, [4]> var_2038_perm_0 = const()[name = tensor<string, []>("op_2038_perm_0"), val = tensor<int32, [4]>([0, 2, 1, 3])];
            tensor<int32, [4]> var_2045 = const()[name = tensor<string, []>("op_2045"), val = tensor<int32, [4]>([1, 77, 16, 64])];
            tensor<fp16, [1, 77, 16, 64]> var_2046_cast = reshape(shape = var_2045, x = tensor_cast)[name = tensor<string, []>("op_2046_cast")];
            tensor<int32, [4]> var_2047_perm_0 = const()[name = tensor<string, []>("op_2047_perm_0"), val = tensor<int32, [4]>([0, 2, 1, 3])];
            tensor<int32, [3]> var_2049 = const()[name = tensor<string, []>("op_2049"), val = tensor<int32, [3]>([16, -1, 64])];
            tensor<fp16, [1, 16, 77, 64]> transpose_4 = transpose(perm = var_2047_perm_0, x = var_2046_cast)[name = tensor<string, []>("transpose_4")];
            tensor<fp16, [16, 77, 64]> query_states_cast = reshape(shape = var_2049, x = transpose_4)[name = tensor<string, []>("query_states_cast")];
            tensor<int32, [3]> var_2051 = const()[name = tensor<string, []>("op_2051"), val = tensor<int32, [3]>([16, -1, 64])];
            tensor<fp16, [1, 16, 77, 64]> transpose_3 = transpose(perm = var_2031_perm_0, x = var_2030_cast)[name = tensor<string, []>("transpose_3")];
            tensor<fp16, [16, 77, 64]> key_states_cast = reshape(shape = var_2051, x = transpose_3)[name = tensor<string, []>("key_states_cast")];
            tensor<int32, [3]> var_2053 = const()[name = tensor<string, []>("op_2053"), val = tensor<int32, [3]>([16, -1, 64])];
            tensor<fp16, [1, 16, 77, 64]> transpose_2 = transpose(perm = var_2038_perm_0, x = var_2037_cast)[name = tensor<string, []>("transpose_2")];
            tensor<fp16, [16, 77, 64]> value_states_cast = reshape(shape = var_2053, x = transpose_2)[name = tensor<string, []>("value_states_cast")];
            tensor<int32, [3]> var_2056_perm_0 = const()[name = tensor<string, []>("op_2056_perm_0"), val = tensor<int32, [3]>([0, 2, 1])];
            tensor<bool, []> attn_weights_133_transpose_x_0 = const()[name = tensor<string, []>("attn_weights_133_transpose_x_0"), val = tensor<bool, []>(false)];
            tensor<bool, []> attn_weights_133_transpose_y_0 = const()[name = tensor<string, []>("attn_weights_133_transpose_y_0"), val = tensor<bool, []>(false)];
            tensor<fp16, [16, 64, 77]> transpose_1 = transpose(perm = var_2056_perm_0, x = key_states_cast)[name = tensor<string, []>("transpose_1")];
            tensor<fp16, [16, 77, 77]> attn_weights_133_cast = matmul(transpose_x = attn_weights_133_transpose_x_0, transpose_y = attn_weights_133_transpose_y_0, x = query_states_cast, y = transpose_1)[name = tensor<string, []>("attn_weights_133_cast")];
            tensor<int32, [4]> var_2058 = const()[name = tensor<string, []>("op_2058"), val = tensor<int32, [4]>([1, 16, 77, 77])];
            tensor<fp16, [1, 16, 77, 77]> var_2059_cast = reshape(shape = var_2058, x = attn_weights_133_cast)[name = tensor<string, []>("op_2059_cast")];
            tensor<fp16, [1, 16, 77, 77]> attn_weights_135_cast = add(x = var_2059_cast, y = causal_attention_mask_to_fp16_palettized)[name = tensor<string, []>("attn_weights_135_cast")];
            tensor<int32, [3]> var_2064 = const()[name = tensor<string, []>("op_2064"), val = tensor<int32, [3]>([16, 77, 77])];
            tensor<fp16, [16, 77, 77]> input_357_cast = reshape(shape = var_2064, x = attn_weights_135_cast)[name = tensor<string, []>("input_357_cast")];
            tensor<fp16, [16, 77, 77]> input_359_cast = softmax(axis = var_5, x = input_357_cast)[name = tensor<string, []>("input_359_cast")];
            tensor<bool, []> attn_output_133_transpose_x_0 = const()[name = tensor<string, []>("attn_output_133_transpose_x_0"), val = tensor<bool, []>(false)];
            tensor<bool, []> attn_output_133_transpose_y_0 = const()[name = tensor<string, []>("attn_output_133_transpose_y_0"), val = tensor<bool, []>(false)];
            tensor<fp16, [16, 77, 64]> attn_output_133_cast = matmul(transpose_x = attn_output_133_transpose_x_0, transpose_y = attn_output_133_transpose_y_0, x = input_359_cast, y = value_states_cast)[name = tensor<string, []>("attn_output_133_cast")];
            tensor<int32, [4]> var_2069 = const()[name = tensor<string, []>("op_2069"), val = tensor<int32, [4]>([1, 16, 77, 64])];
            tensor<fp16, [1, 16, 77, 64]> attn_output_135_cast = reshape(shape = var_2069, x = attn_output_133_cast)[name = tensor<string, []>("attn_output_135_cast")];
            tensor<int32, [4]> attn_output_perm_0 = const()[name = tensor<string, []>("attn_output_perm_0"), val = tensor<int32, [4]>([0, 2, 1, 3])];
            tensor<int32, [3]> var_2072 = const()[name = tensor<string, []>("op_2072"), val = tensor<int32, [3]>([1, 77, 1024])];
            tensor<fp16, [1, 77, 16, 64]> transpose_0 = transpose(perm = attn_output_perm_0, x = attn_output_135_cast)[name = tensor<string, []>("transpose_0")];
            tensor<fp16, [1, 77, 1024]> input_361_cast = reshape(shape = var_2072, x = transpose_0)[name = tensor<string, []>("input_361_cast")];
            tensor<fp16, [1024, 1024]> text_encoder_text_model_encoder_layers_22_self_attn_out_proj_weight_to_fp16_palettized = constexpr_lut_to_dense()[indices = tensor<uint8, [786432]>(BLOBFILE(path = tensor<string, []>("@model_path/weights/weight.bin"), offset = tensor<uint64, []>(311765696))), lut = tensor<fp16, [64]>(BLOBFILE(path = tensor<string, []>("@model_path/weights/weight.bin"), offset = tensor<uint64, []>(312552192))), name = tensor<string, []>("text_encoder_text_model_encoder_layers_22_self_attn_out_proj_weight_to_fp16_palettized"), shape = tensor<uint32, [2]>([1024, 1024])];
            tensor<fp16, [1024]> text_encoder_text_model_encoder_layers_22_self_attn_out_proj_bias_to_fp16 = const()[name = tensor<string, []>("text_encoder_text_model_encoder_layers_22_self_attn_out_proj_bias_to_fp16"), val = tensor<fp16, [1024]>(BLOBFILE(path = tensor<string, []>("@model_path/weights/weight.bin"), offset = tensor<uint64, []>(312552384)))];
            tensor<fp16, [1, 77, 1024]> hidden_states_135_cast = linear(bias = text_encoder_text_model_encoder_layers_22_self_attn_out_proj_bias_to_fp16, weight = text_encoder_text_model_encoder_layers_22_self_attn_out_proj_weight_to_fp16_palettized, x = input_361_cast)[name = tensor<string, []>("hidden_states_135_cast")];
            tensor<fp16, [1, 77, 1024]> input_363_cast = add(x = input_355_cast, y = hidden_states_135_cast)[name = tensor<string, []>("input_363_cast")];
            tensor<int32, [1]> input_365_axes_0 = const()[name = tensor<string, []>("input_365_axes_0"), val = tensor<int32, [1]>([-1])];
            tensor<fp16, [1024]> text_encoder_text_model_encoder_layers_22_layer_norm2_weight_to_fp16 = const()[name = tensor<string, []>("text_encoder_text_model_encoder_layers_22_layer_norm2_weight_to_fp16"), val = tensor<fp16, [1024]>(BLOBFILE(path = tensor<string, []>("@model_path/weights/weight.bin"), offset = tensor<uint64, []>(312554496)))];
            tensor<fp16, [1024]> text_encoder_text_model_encoder_layers_22_layer_norm2_bias_to_fp16 = const()[name = tensor<string, []>("text_encoder_text_model_encoder_layers_22_layer_norm2_bias_to_fp16"), val = tensor<fp16, [1024]>(BLOBFILE(path = tensor<string, []>("@model_path/weights/weight.bin"), offset = tensor<uint64, []>(312556608)))];
            tensor<fp16, [1, 77, 1024]> input_365_cast = layer_norm(axes = input_365_axes_0, beta = text_encoder_text_model_encoder_layers_22_layer_norm2_bias_to_fp16, epsilon = var_12_to_fp16, gamma = text_encoder_text_model_encoder_layers_22_layer_norm2_weight_to_fp16, x = input_363_cast)[name = tensor<string, []>("input_365_cast")];
            tensor<fp16, [4096, 1024]> text_encoder_text_model_encoder_layers_22_mlp_fc1_weight_to_fp16_palettized = constexpr_lut_to_dense()[indices = tensor<uint8, [3145728]>(BLOBFILE(path = tensor<string, []>("@model_path/weights/weight.bin"), offset = tensor<uint64, []>(312558720))), lut = tensor<fp16, [64]>(BLOBFILE(path = tensor<string, []>("@model_path/weights/weight.bin"), offset = tensor<uint64, []>(315704512))), name = tensor<string, []>("text_encoder_text_model_encoder_layers_22_mlp_fc1_weight_to_fp16_palettized"), shape = tensor<uint32, [2]>([4096, 1024])];
            tensor<fp16, [4096]> text_encoder_text_model_encoder_layers_22_mlp_fc1_bias_to_fp16_palettized = constexpr_lut_to_dense()[indices = tensor<uint8, [3072]>(BLOBFILE(path = tensor<string, []>("@model_path/weights/weight.bin"), offset = tensor<uint64, []>(315704704))), lut = tensor<fp16, [64]>(BLOBFILE(path = tensor<string, []>("@model_path/weights/weight.bin"), offset = tensor<uint64, []>(315707840))), name = tensor<string, []>("text_encoder_text_model_encoder_layers_22_mlp_fc1_bias_to_fp16_palettized"), shape = tensor<uint32, [1]>([4096])];
            tensor<fp16, [1, 77, 4096]> input_367_cast = linear(bias = text_encoder_text_model_encoder_layers_22_mlp_fc1_bias_to_fp16_palettized, weight = text_encoder_text_model_encoder_layers_22_mlp_fc1_weight_to_fp16_palettized, x = input_365_cast)[name = tensor<string, []>("input_367_cast")];
            tensor<string, []> input_369_mode_0 = const()[name = tensor<string, []>("input_369_mode_0"), val = tensor<string, []>("EXACT")];
            tensor<fp16, [1, 77, 4096]> input_369_cast = gelu(mode = input_369_mode_0, x = input_367_cast)[name = tensor<string, []>("input_369_cast")];
            tensor<fp16, [1024, 4096]> text_encoder_text_model_encoder_layers_22_mlp_fc2_weight_to_fp16_palettized = constexpr_lut_to_dense()[indices = tensor<uint8, [3145728]>(BLOBFILE(path = tensor<string, []>("@model_path/weights/weight.bin"), offset = tensor<uint64, []>(315708032))), lut = tensor<fp16, [64]>(BLOBFILE(path = tensor<string, []>("@model_path/weights/weight.bin"), offset = tensor<uint64, []>(318853824))), name = tensor<string, []>("text_encoder_text_model_encoder_layers_22_mlp_fc2_weight_to_fp16_palettized"), shape = tensor<uint32, [2]>([1024, 4096])];
            tensor<fp16, [1024]> text_encoder_text_model_encoder_layers_22_mlp_fc2_bias_to_fp16 = const()[name = tensor<string, []>("text_encoder_text_model_encoder_layers_22_mlp_fc2_bias_to_fp16"), val = tensor<fp16, [1024]>(BLOBFILE(path = tensor<string, []>("@model_path/weights/weight.bin"), offset = tensor<uint64, []>(318854016)))];
            tensor<fp16, [1, 77, 1024]> hidden_states_cast = linear(bias = text_encoder_text_model_encoder_layers_22_mlp_fc2_bias_to_fp16, weight = text_encoder_text_model_encoder_layers_22_mlp_fc2_weight_to_fp16_palettized, x = input_369_cast)[name = tensor<string, []>("hidden_states_cast")];
            tensor<fp16, [1, 77, 1024]> input_cast = add(x = input_363_cast, y = hidden_states_cast)[name = tensor<string, []>("input_cast")];
            tensor<int32, [1]> last_hidden_state_axes_0 = const()[name = tensor<string, []>("last_hidden_state_axes_0"), val = tensor<int32, [1]>([-1])];
            tensor<fp16, [1024]> text_encoder_text_model_final_layer_norm_weight_to_fp16 = const()[name = tensor<string, []>("text_encoder_text_model_final_layer_norm_weight_to_fp16"), val = tensor<fp16, [1024]>(BLOBFILE(path = tensor<string, []>("@model_path/weights/weight.bin"), offset = tensor<uint64, []>(318856128)))];
            tensor<fp16, [1024]> text_encoder_text_model_final_layer_norm_bias_to_fp16 = const()[name = tensor<string, []>("text_encoder_text_model_final_layer_norm_bias_to_fp16"), val = tensor<fp16, [1024]>(BLOBFILE(path = tensor<string, []>("@model_path/weights/weight.bin"), offset = tensor<uint64, []>(318858240)))];
            tensor<fp16, [1, 77, 1024]> last_hidden_state_cast = layer_norm(axes = last_hidden_state_axes_0, beta = text_encoder_text_model_final_layer_norm_bias_to_fp16, epsilon = var_12_to_fp16, gamma = text_encoder_text_model_final_layer_norm_weight_to_fp16, x = input_cast)[name = tensor<string, []>("last_hidden_state_cast")];
            tensor<string, []> last_hidden_state_cast_to_fp32_dtype_0 = const()[name = tensor<string, []>("last_hidden_state_cast_to_fp32_dtype_0"), val = tensor<string, []>("fp32")];
            tensor<int32, [1]> var_2097 = const()[name = tensor<string, []>("op_2097"), val = tensor<int32, [1]>([0])];
            tensor<int32, [1]> var_2099 = reduce_argmax(axis = var_5, keep_dims = var_6, x = cast_2)[name = tensor<string, []>("op_2099")];
            tensor<int32, []> stack_0_axis_0 = const()[name = tensor<string, []>("stack_0_axis_0"), val = tensor<int32, []>(1)];
            tensor<int32, [1, 2]> stack_0 = stack(axis = stack_0_axis_0, values = (var_2097, var_2099))[name = tensor<string, []>("stack_0")];
            tensor<int32, []> var_2101_transpose_batch_dims_0 = const()[name = tensor<string, []>("op_2101_transpose_batch_dims_0"), val = tensor<int32, []>(0)];
            tensor<fp16, [1, 1024]> var_2101_transpose_cast = gather_nd(batch_dims = var_2101_transpose_batch_dims_0, indices = stack_0, x = last_hidden_state_cast)[name = tensor<string, []>("op_2101_transpose_cast")];
            tensor<string, []> var_2101_cast_to_fp32_dtype_0 = const()[name = tensor<string, []>("op_2101_cast_to_fp32_dtype_0"), val = tensor<string, []>("fp32")];
            tensor<fp32, [1, 77, 1024]> last_hidden_state = cast(dtype = last_hidden_state_cast_to_fp32_dtype_0, x = last_hidden_state_cast)[name = tensor<string, []>("cast_0")];
            tensor<fp32, [1, 1024]> pooled_outputs = cast(dtype = var_2101_cast_to_fp32_dtype_0, x = var_2101_transpose_cast)[name = tensor<string, []>("cast_1")];
        } -> (last_hidden_state, pooled_outputs);
}