program(1.0)
[buildInfo = dict<tensor<string, []>, tensor<string, []>>({{"coremlc-component-MIL", "5.30.0"}, {"coremlc-version", "1839.0.0"}})]
{
    func main<ios16>(tensor<fp16, [2, 1024, 1, 77]> encoder_hidden_states, tensor<fp16, [2, 4, 64, 64]> sample, tensor<fp16, [2]> timestep) {
            tensor<int32, []> var_25 = const()[name = tensor<string, []>("op_25"), val = tensor<int32, []>(-1)];
            tensor<int32, [1]> var_42_axes_0 = const()[name = tensor<string, []>("op_42_axes_0"), val = tensor<int32, [1]>([1])];
            tensor<fp16, [2, 1]> var_42_cast = expand_dims(axes = var_42_axes_0, x = timestep)[name = tensor<string, []>("op_42_cast")];
            tensor<fp16, [1, 160]> var_44_to_fp16 = const()[name = tensor<string, []>("op_44_to_fp16"), val = tensor<fp16, [1, 160]>(BLOBFILE(path = tensor<string, []>("@model_path/weights/weight.bin"), offset = tensor<uint64, []>(64)))];
            tensor<fp16, [2, 160]> emb_3_cast = mul(x = var_42_cast, y = var_44_to_fp16)[name = tensor<string, []>("emb_3_cast")];
            tensor<fp16, [2, 160]> var_49_cast = sin(x = emb_3_cast)[name = tensor<string, []>("op_49_cast")];
            tensor<fp16, [2, 160]> var_50_cast = cos(x = emb_3_cast)[name = tensor<string, []>("op_50_cast")];
            tensor<bool, []> emb_interleave_0 = const()[name = tensor<string, []>("emb_interleave_0"), val = tensor<bool, []>(false)];
            tensor<fp16, [2, 320]> emb_cast = concat(axis = var_25, interleave = emb_interleave_0, values = (var_49_cast, var_50_cast))[name = tensor<string, []>("emb_cast")];
            tensor<int32, [2]> var_54_begin_0 = const()[name = tensor<string, []>("op_54_begin_0"), val = tensor<int32, [2]>([0, 160])];
            tensor<int32, [2]> var_54_end_0 = const()[name = tensor<string, []>("op_54_end_0"), val = tensor<int32, [2]>([2, 320])];
            tensor<bool, [2]> var_54_end_mask_0 = const()[name = tensor<string, []>("op_54_end_mask_0"), val = tensor<bool, [2]>([true, true])];
            tensor<fp16, [2, 160]> var_54_cast = slice_by_index(begin = var_54_begin_0, end = var_54_end_0, end_mask = var_54_end_mask_0, x = emb_cast)[name = tensor<string, []>("op_54_cast")];
            tensor<int32, [2]> var_56_begin_0 = const()[name = tensor<string, []>("op_56_begin_0"), val = tensor<int32, [2]>([0, 0])];
            tensor<int32, [2]> var_56_end_0 = const()[name = tensor<string, []>("op_56_end_0"), val = tensor<int32, [2]>([2, 160])];
            tensor<bool, [2]> var_56_end_mask_0 = const()[name = tensor<string, []>("op_56_end_mask_0"), val = tensor<bool, [2]>([true, false])];
            tensor<fp16, [2, 160]> var_56_cast = slice_by_index(begin = var_56_begin_0, end = var_56_end_0, end_mask = var_56_end_mask_0, x = emb_cast)[name = tensor<string, []>("op_56_cast")];
            tensor<bool, []> sample_interleave_0 = const()[name = tensor<string, []>("sample_interleave_0"), val = tensor<bool, []>(false)];
            tensor<fp16, [2, 320]> sample_cast = concat(axis = var_25, interleave = sample_interleave_0, values = (var_54_cast, var_56_cast))[name = tensor<string, []>("sample_cast")];
            tensor<int32, []> var_59 = const()[name = tensor<string, []>("op_59"), val = tensor<int32, []>(1)];
            tensor<int32, [1]> var_66_axes_0 = const()[name = tensor<string, []>("op_66_axes_0"), val = tensor<int32, [1]>([-1])];
            tensor<fp16, [2, 320, 1]> var_66_cast = expand_dims(axes = var_66_axes_0, x = sample_cast)[name = tensor<string, []>("op_66_cast")];
            tensor<int32, [1]> input_1_axes_0 = const()[name = tensor<string, []>("input_1_axes_0"), val = tensor<int32, [1]>([-1])];
            tensor<fp16, [2, 320, 1, 1]> input_1_cast = expand_dims(axes = input_1_axes_0, x = var_66_cast)[name = tensor<string, []>("input_1_cast")];
            tensor<int32, [2]> var_70 = const()[name = tensor<string, []>("op_70"), val = tensor<int32, [2]>([1, 1])];
            tensor<int32, [2]> var_72 = const()[name = tensor<string, []>("op_72"), val = tensor<int32, [2]>([1, 1])];
            tensor<string, []> input_3_pad_type_0 = const()[name = tensor<string, []>("input_3_pad_type_0"), val = tensor<string, []>("custom")];
            tensor<int32, [4]> input_3_pad_0 = const()[name = tensor<string, []>("input_3_pad_0"), val = tensor<int32, [4]>([0, 0, 0, 0])];
            tensor<fp16, [1280, 320, 1, 1]> time_embedding_linear_1_weight_to_fp16_palettized = constexpr_lut_to_dense()[indices = tensor<uint8, [307200]>(BLOBFILE(path = tensor<string, []>("@model_path/weights/weight.bin"), offset = tensor<uint64, []>(448))), lut = tensor<fp16, [64]>(BLOBFILE(path = tensor<string, []>("@model_path/weights/weight.bin"), offset = tensor<uint64, []>(307712))), name = tensor<string, []>("time_embedding_linear_1_weight_to_fp16_palettized"), shape = tensor<uint32, [4]>([1280, 320, 1, 1])];
            tensor<fp16, [1280]> time_embedding_linear_1_bias_to_fp16 = const()[name = tensor<string, []>("time_embedding_linear_1_bias_to_fp16"), val = tensor<fp16, [1280]>(BLOBFILE(path = tensor<string, []>("@model_path/weights/weight.bin"), offset = tensor<uint64, []>(307904)))];
            tensor<fp16, [2, 1280, 1, 1]> input_3_cast = conv(bias = time_embedding_linear_1_bias_to_fp16, dilations = var_72, groups = var_59, pad = input_3_pad_0, pad_type = input_3_pad_type_0, strides = var_70, weight = time_embedding_linear_1_weight_to_fp16_palettized, x = input_1_cast)[name = tensor<string, []>("input_3_cast")];
            tensor<fp16, [2, 1280, 1, 1]> input_5_cast = silu(x = input_3_cast)[name = tensor<string, []>("input_5_cast")];
            tensor<int32, [2]> var_78 = const()[name = tensor<string, []>("op_78"), val = tensor<int32, [2]>([1, 1])];
            tensor<int32, [2]> var_80 = const()[name = tensor<string, []>("op_80"), val = tensor<int32, [2]>([1, 1])];
            tensor<string, []> input_13_pad_type_0 = const()[name = tensor<string, []>("input_13_pad_type_0"), val = tensor<string, []>("custom")];
            tensor<int32, [4]> input_13_pad_0 = const()[name = tensor<string, []>("input_13_pad_0"), val = tensor<int32, [4]>([0, 0, 0, 0])];
            tensor<fp16, [1280, 1280, 1, 1]> time_embedding_linear_2_weight_to_fp16_palettized = constexpr_lut_to_dense()[indices = tensor<uint8, [1228800]>(BLOBFILE(path = tensor<string, []>("@model_path/weights/weight.bin"), offset = tensor<uint64, []>(310528))), lut = tensor<fp16, [64]>(BLOBFILE(path = tensor<string, []>("@model_path/weights/weight.bin"), offset = tensor<uint64, []>(1539392))), name = tensor<string, []>("time_embedding_linear_2_weight_to_fp16_palettized"), shape = tensor<uint32, [4]>([1280, 1280, 1, 1])];
            tensor<fp16, [1280]> time_embedding_linear_2_bias_to_fp16 = const()[name = tensor<string, []>("time_embedding_linear_2_bias_to_fp16"), val = tensor<fp16, [1280]>(BLOBFILE(path = tensor<string, []>("@model_path/weights/weight.bin"), offset = tensor<uint64, []>(1539584)))];
            tensor<fp16, [2, 1280, 1, 1]> input_13_cast = conv(bias = time_embedding_linear_2_bias_to_fp16, dilations = var_80, groups = var_59, pad = input_13_pad_0, pad_type = input_13_pad_type_0, strides = var_78, weight = time_embedding_linear_2_weight_to_fp16_palettized, x = input_5_cast)[name = tensor<string, []>("input_13_cast")];
            tensor<int32, []> var_86 = const()[name = tensor<string, []>("op_86"), val = tensor<int32, []>(1)];
            tensor<int32, [2]> var_89 = const()[name = tensor<string, []>("op_89"), val = tensor<int32, [2]>([1, 1])];
            tensor<int32, [2]> var_91 = const()[name = tensor<string, []>("op_91"), val = tensor<int32, [2]>([1, 1])];
            tensor<string, []> input_7_pad_type_0 = const()[name = tensor<string, []>("input_7_pad_type_0"), val = tensor<string, []>("custom")];
            tensor<int32, [4]> input_7_pad_0 = const()[name = tensor<string, []>("input_7_pad_0"), val = tensor<int32, [4]>([1, 1, 1, 1])];
            tensor<fp16, [320, 4, 3, 3]> conv_in_weight_to_fp16_palettized = constexpr_lut_to_dense()[indices = tensor<uint8, [8640]>(BLOBFILE(path = tensor<string, []>("@model_path/weights/weight.bin"), offset = tensor<uint64, []>(1542208))), lut = tensor<fp16, [64]>(BLOBFILE(path = tensor<string, []>("@model_path/weights/weight.bin"), offset = tensor<uint64, []>(1550912))), name = tensor<string, []>("conv_in_weight_to_fp16_palettized"), shape = tensor<uint32, [4]>([320, 4, 3, 3])];
            tensor<fp16, [320]> conv_in_bias_to_fp16 = const()[name = tensor<string, []>("conv_in_bias_to_fp16"), val = tensor<fp16, [320]>(BLOBFILE(path = tensor<string, []>("@model_path/weights/weight.bin"), offset = tensor<uint64, []>(1551104)))];
            tensor<fp16, [2, 320, 64, 64]> input_7_cast = conv(bias = conv_in_bias_to_fp16, dilations = var_91, groups = var_86, pad = input_7_pad_0, pad_type = input_7_pad_type_0, strides = var_89, weight = conv_in_weight_to_fp16_palettized, x = sample)[name = tensor<string, []>("input_7_cast")];
            tensor<int32, []> var_95 = const()[name = tensor<string, []>("op_95"), val = tensor<int32, []>(3)];
            tensor<bool, []> var_106 = const()[name = tensor<string, []>("op_106"), val = tensor<bool, []>(true)];
            tensor<int32, []> var_111 = const()[name = tensor<string, []>("op_111"), val = tensor<int32, []>(1)];
            tensor<int32, [5]> reshape_0_shape_0 = const()[name = tensor<string, []>("reshape_0_shape_0"), val = tensor<int32, [5]>([2, 32, 10, 64, 64])];
            tensor<fp16, [2, 32, 10, 64, 64]> reshape_0_cast = reshape(shape = reshape_0_shape_0, x = input_7_cast)[name = tensor<string, []>("reshape_0_cast")];
            tensor<int32, [3]> reduce_mean_0_axes_0 = const()[name = tensor<string, []>("reduce_mean_0_axes_0"), val = tensor<int32, [3]>([2, 3, 4])];
            tensor<bool, []> reduce_mean_0_keep_dims_0 = const()[name = tensor<string, []>("reduce_mean_0_keep_dims_0"), val = tensor<bool, []>(true)];
            tensor<fp16, [2, 32, 1, 1, 1]> reduce_mean_0_cast = reduce_mean(axes = reduce_mean_0_axes_0, keep_dims = reduce_mean_0_keep_dims_0, x = reshape_0_cast)[name = tensor<string, []>("reduce_mean_0_cast")];
            tensor<fp16, [2, 32, 10, 64, 64]> sub_0_cast = sub(x = reshape_0_cast, y = reduce_mean_0_cast)[name = tensor<string, []>("sub_0_cast")];
            tensor<fp16, [2, 32, 10, 64, 64]> square_0_cast = square(x = sub_0_cast)[name = tensor<string, []>("square_0_cast")];
            tensor<int32, [3]> reduce_mean_2_axes_0 = const()[name = tensor<string, []>("reduce_mean_2_axes_0"), val = tensor<int32, [3]>([2, 3, 4])];
            tensor<bool, []> reduce_mean_2_keep_dims_0 = const()[name = tensor<string, []>("reduce_mean_2_keep_dims_0"), val = tensor<bool, []>(true)];
            tensor<fp16, [2, 32, 1, 1, 1]> reduce_mean_2_cast = reduce_mean(axes = reduce_mean_2_axes_0, keep_dims = reduce_mean_2_keep_dims_0, x = square_0_cast)[name = tensor<string, []>("reduce_mean_2_cast")];
            tensor<fp16, []> add_0_y_0_to_fp16 = const()[name = tensor<string, []>("add_0_y_0_to_fp16"), val = tensor<fp16, []>(0x1.5p-17)];
            tensor<fp16, [2, 32, 1, 1, 1]> add_0_cast = add(x = reduce_mean_2_cast, y = add_0_y_0_to_fp16)[name = tensor<string, []>("add_0_cast")];
            tensor<fp16, [2, 32, 1, 1, 1]> sqrt_0_cast = sqrt(x = add_0_cast)[name = tensor<string, []>("sqrt_0_cast")];
            tensor<fp16, [2, 32, 10, 64, 64]> real_div_0_cast = real_div(x = sub_0_cast, y = sqrt_0_cast)[name = tensor<string, []>("real_div_0_cast")];
            tensor<int32, [4]> reshape_1_shape_0 = const()[name = tensor<string, []>("reshape_1_shape_0"), val = tensor<int32, [4]>([2, 320, 64, 64])];
            tensor<fp16, [2, 320, 64, 64]> reshape_1_cast = reshape(shape = reshape_1_shape_0, x = real_div_0_cast)[name = tensor<string, []>("reshape_1_cast")];
            tensor<fp16, [320]> add_1_mean_0_to_fp16 = const()[name = tensor<string, []>("add_1_mean_0_to_fp16"), val = tensor<fp16, [320]>(BLOBFILE(path = tensor<string, []>("@model_path/weights/weight.bin"), offset = tensor<uint64, []>(1551808)))];
            tensor<fp16, [320]> add_1_variance_0_to_fp16 = const()[name = tensor<string, []>("add_1_variance_0_to_fp16"), val = tensor<fp16, [320]>(BLOBFILE(path = tensor<string, []>("@model_path/weights/weight.bin"), offset = tensor<uint64, []>(1552512)))];
            tensor<fp16, [320]> add_1_gamma_0_to_fp16 = const()[name = tensor<string, []>("add_1_gamma_0_to_fp16"), val = tensor<fp16, [320]>(BLOBFILE(path = tensor<string, []>("@model_path/weights/weight.bin"), offset = tensor<uint64, []>(1553216)))];
            tensor<fp16, [320]> add_1_beta_0_to_fp16 = const()[name = tensor<string, []>("add_1_beta_0_to_fp16"), val = tensor<fp16, [320]>(BLOBFILE(path = tensor<string, []>("@model_path/weights/weight.bin"), offset = tensor<uint64, []>(1553920)))];
            tensor<fp16, []> add_1_epsilon_0_to_fp16 = const()[name = tensor<string, []>("add_1_epsilon_0_to_fp16"), val = tensor<fp16, []>(0x1.5p-17)];
            tensor<fp16, [2, 320, 64, 64]> add_1_cast = batch_norm(beta = add_1_beta_0_to_fp16, epsilon = add_1_epsilon_0_to_fp16, gamma = add_1_gamma_0_to_fp16, mean = add_1_mean_0_to_fp16, variance = add_1_variance_0_to_fp16, x = reshape_1_cast)[name = tensor<string, []>("add_1_cast")];
            tensor<fp16, [2, 320, 64, 64]> input_11_cast = silu(x = add_1_cast)[name = tensor<string, []>("input_11_cast")];
            tensor<int32, [2]> var_133 = const()[name = tensor<string, []>("op_133"), val = tensor<int32, [2]>([1, 1])];
            tensor<int32, [2]> var_135 = const()[name = tensor<string, []>("op_135"), val = tensor<int32, [2]>([1, 1])];
            tensor<string, []> hidden_states_1_pad_type_0 = const()[name = tensor<string, []>("hidden_states_1_pad_type_0"), val = tensor<string, []>("custom")];
            tensor<int32, [4]> hidden_states_1_pad_0 = const()[name = tensor<string, []>("hidden_states_1_pad_0"), val = tensor<int32, [4]>([1, 1, 1, 1])];
            tensor<fp16, [320, 320, 3, 3]> down_blocks_0_resnets_0_conv1_weight_to_fp16_palettized = constexpr_lut_to_dense()[indices = tensor<uint8, [691200]>(BLOBFILE(path = tensor<string, []>("@model_path/weights/weight.bin"), offset = tensor<uint64, []>(1554624))), lut = tensor<fp16, [64]>(BLOBFILE(path = tensor<string, []>("@model_path/weights/weight.bin"), offset = tensor<uint64, []>(2245888))), name = tensor<string, []>("down_blocks_0_resnets_0_conv1_weight_to_fp16_palettized"), shape = tensor<uint32, [4]>([320, 320, 3, 3])];
            tensor<fp16, [320]> down_blocks_0_resnets_0_conv1_bias_to_fp16 = const()[name = tensor<string, []>("down_blocks_0_resnets_0_conv1_bias_to_fp16"), val = tensor<fp16, [320]>(BLOBFILE(path = tensor<string, []>("@model_path/weights/weight.bin"), offset = tensor<uint64, []>(2246080)))];
            tensor<fp16, [2, 320, 64, 64]> hidden_states_1_cast = conv(bias = down_blocks_0_resnets_0_conv1_bias_to_fp16, dilations = var_135, groups = var_111, pad = hidden_states_1_pad_0, pad_type = hidden_states_1_pad_type_0, strides = var_133, weight = down_blocks_0_resnets_0_conv1_weight_to_fp16_palettized, x = input_11_cast)[name = tensor<string, []>("hidden_states_1_cast")];
            tensor<fp16, [2, 1280, 1, 1]> input_15_cast = silu(x = input_13_cast)[name = tensor<string, []>("input_15_cast")];
            tensor<int32, [2]> var_141 = const()[name = tensor<string, []>("op_141"), val = tensor<int32, [2]>([1, 1])];
            tensor<int32, [2]> var_143 = const()[name = tensor<string, []>("op_143"), val = tensor<int32, [2]>([1, 1])];
            tensor<string, []> temb_1_pad_type_0 = const()[name = tensor<string, []>("temb_1_pad_type_0"), val = tensor<string, []>("custom")];
            tensor<int32, [4]> temb_1_pad_0 = const()[name = tensor<string, []>("temb_1_pad_0"), val = tensor<int32, [4]>([0, 0, 0, 0])];
            tensor<fp16, [320, 1280, 1, 1]> down_blocks_0_resnets_0_time_emb_proj_weight_to_fp16_palettized = constexpr_lut_to_dense()[indices = tensor<uint8, [307200]>(BLOBFILE(path = tensor<string, []>("@model_path/weights/weight.bin"), offset = tensor<uint64, []>(2246784))), lut = tensor<fp16, [64]>(BLOBFILE(path = tensor<string, []>("@model_path/weights/weight.bin"), offset = tensor<uint64, []>(2554048))), name = tensor<string, []>("down_blocks_0_resnets_0_time_emb_proj_weight_to_fp16_palettized"), shape = tensor<uint32, [4]>([320, 1280, 1, 1])];
            tensor<fp16, [320]> down_blocks_0_resnets_0_time_emb_proj_bias_to_fp16 = const()[name = tensor<string, []>("down_blocks_0_resnets_0_time_emb_proj_bias_to_fp16"), val = tensor<fp16, [320]>(BLOBFILE(path = tensor<string, []>("@model_path/weights/weight.bin"), offset = tensor<uint64, []>(2554240)))];
            tensor<fp16, [2, 320, 1, 1]> temb_1_cast = conv(bias = down_blocks_0_resnets_0_time_emb_proj_bias_to_fp16, dilations = var_143, groups = var_111, pad = temb_1_pad_0, pad_type = temb_1_pad_type_0, strides = var_141, weight = down_blocks_0_resnets_0_time_emb_proj_weight_to_fp16_palettized, x = input_15_cast)[name = tensor<string, []>("temb_1_cast")];
            tensor<fp16, [2, 320, 64, 64]> input_17_cast = add(x = hidden_states_1_cast, y = temb_1_cast)[name = tensor<string, []>("input_17_cast")];
            tensor<int32, [5]> reshape_4_shape_0 = const()[name = tensor<string, []>("reshape_4_shape_0"), val = tensor<int32, [5]>([2, 32, 10, 64, 64])];
            tensor<fp16, [2, 32, 10, 64, 64]> reshape_4_cast = reshape(shape = reshape_4_shape_0, x = input_17_cast)[name = tensor<string, []>("reshape_4_cast")];
            tensor<int32, [3]> reduce_mean_3_axes_0 = const()[name = tensor<string, []>("reduce_mean_3_axes_0"), val = tensor<int32, [3]>([2, 3, 4])];
            tensor<bool, []> reduce_mean_3_keep_dims_0 = const()[name = tensor<string, []>("reduce_mean_3_keep_dims_0"), val = tensor<bool, []>(true)];
            tensor<fp16, [2, 32, 1, 1, 1]> reduce_mean_3_cast = reduce_mean(axes = reduce_mean_3_axes_0, keep_dims = reduce_mean_3_keep_dims_0, x = reshape_4_cast)[name = tensor<string, []>("reduce_mean_3_cast")];
            tensor<fp16, [2, 32, 10, 64, 64]> sub_2_cast = sub(x = reshape_4_cast, y = reduce_mean_3_cast)[name = tensor<string, []>("sub_2_cast")];
            tensor<fp16, [2, 32, 10, 64, 64]> square_1_cast = square(x = sub_2_cast)[name = tensor<string, []>("square_1_cast")];
            tensor<int32, [3]> reduce_mean_5_axes_0 = const()[name = tensor<string, []>("reduce_mean_5_axes_0"), val = tensor<int32, [3]>([2, 3, 4])];
            tensor<bool, []> reduce_mean_5_keep_dims_0 = const()[name = tensor<string, []>("reduce_mean_5_keep_dims_0"), val = tensor<bool, []>(true)];
            tensor<fp16, [2, 32, 1, 1, 1]> reduce_mean_5_cast = reduce_mean(axes = reduce_mean_5_axes_0, keep_dims = reduce_mean_5_keep_dims_0, x = square_1_cast)[name = tensor<string, []>("reduce_mean_5_cast")];
            tensor<fp16, []> add_2_y_0_to_fp16 = const()[name = tensor<string, []>("add_2_y_0_to_fp16"), val = tensor<fp16, []>(0x1.5p-17)];
            tensor<fp16, [2, 32, 1, 1, 1]> add_2_cast = add(x = reduce_mean_5_cast, y = add_2_y_0_to_fp16)[name = tensor<string, []>("add_2_cast")];
            tensor<fp16, [2, 32, 1, 1, 1]> sqrt_1_cast = sqrt(x = add_2_cast)[name = tensor<string, []>("sqrt_1_cast")];
            tensor<fp16, [2, 32, 10, 64, 64]> real_div_1_cast = real_div(x = sub_2_cast, y = sqrt_1_cast)[name = tensor<string, []>("real_div_1_cast")];
            tensor<int32, [4]> reshape_5_shape_0 = const()[name = tensor<string, []>("reshape_5_shape_0"), val = tensor<int32, [4]>([2, 320, 64, 64])];
            tensor<fp16, [2, 320, 64, 64]> reshape_5_cast = reshape(shape = reshape_5_shape_0, x = real_div_1_cast)[name = tensor<string, []>("reshape_5_cast")];
            tensor<fp16, [320]> add_3_gamma_0_to_fp16 = const()[name = tensor<string, []>("add_3_gamma_0_to_fp16"), val = tensor<fp16, [320]>(BLOBFILE(path = tensor<string, []>("@model_path/weights/weight.bin"), offset = tensor<uint64, []>(2554944)))];
            tensor<fp16, [320]> add_3_beta_0_to_fp16 = const()[name = tensor<string, []>("add_3_beta_0_to_fp16"), val = tensor<fp16, [320]>(BLOBFILE(path = tensor<string, []>("@model_path/weights/weight.bin"), offset = tensor<uint64, []>(2555648)))];
            tensor<fp16, []> add_3_epsilon_0_to_fp16 = const()[name = tensor<string, []>("add_3_epsilon_0_to_fp16"), val = tensor<fp16, []>(0x1.5p-17)];
            tensor<fp16, [2, 320, 64, 64]> add_3_cast = batch_norm(beta = add_3_beta_0_to_fp16, epsilon = add_3_epsilon_0_to_fp16, gamma = add_3_gamma_0_to_fp16, mean = add_1_mean_0_to_fp16, variance = add_1_variance_0_to_fp16, x = reshape_5_cast)[name = tensor<string, []>("add_3_cast")];
            tensor<fp16, [2, 320, 64, 64]> input_21_cast = silu(x = add_3_cast)[name = tensor<string, []>("input_21_cast")];
            tensor<int32, [2]> var_153 = const()[name = tensor<string, []>("op_153"), val = tensor<int32, [2]>([1, 1])];
            tensor<int32, [2]> var_155 = const()[name = tensor<string, []>("op_155"), val = tensor<int32, [2]>([1, 1])];
            tensor<string, []> hidden_states_3_pad_type_0 = const()[name = tensor<string, []>("hidden_states_3_pad_type_0"), val = tensor<string, []>("custom")];
            tensor<int32, [4]> hidden_states_3_pad_0 = const()[name = tensor<string, []>("hidden_states_3_pad_0"), val = tensor<int32, [4]>([1, 1, 1, 1])];
            tensor<fp16, [320, 320, 3, 3]> down_blocks_0_resnets_0_conv2_weight_to_fp16_palettized = constexpr_lut_to_dense()[indices = tensor<uint8, [691200]>(BLOBFILE(path = tensor<string, []>("@model_path/weights/weight.bin"), offset = tensor<uint64, []>(2556352))), lut = tensor<fp16, [64]>(BLOBFILE(path = tensor<string, []>("@model_path/weights/weight.bin"), offset = tensor<uint64, []>(3247616))), name = tensor<string, []>("down_blocks_0_resnets_0_conv2_weight_to_fp16_palettized"), shape = tensor<uint32, [4]>([320, 320, 3, 3])];
            tensor<fp16, [320]> down_blocks_0_resnets_0_conv2_bias_to_fp16 = const()[name = tensor<string, []>("down_blocks_0_resnets_0_conv2_bias_to_fp16"), val = tensor<fp16, [320]>(BLOBFILE(path = tensor<string, []>("@model_path/weights/weight.bin"), offset = tensor<uint64, []>(3247808)))];
            tensor<fp16, [2, 320, 64, 64]> hidden_states_3_cast = conv(bias = down_blocks_0_resnets_0_conv2_bias_to_fp16, dilations = var_155, groups = var_111, pad = hidden_states_3_pad_0, pad_type = hidden_states_3_pad_type_0, strides = var_153, weight = down_blocks_0_resnets_0_conv2_weight_to_fp16_palettized, x = input_21_cast)[name = tensor<string, []>("hidden_states_3_cast")];
            tensor<fp16, [2, 320, 64, 64]> hidden_states_5_cast = add(x = input_7_cast, y = hidden_states_3_cast)[name = tensor<string, []>("hidden_states_5_cast")];
            tensor<int32, [5]> reshape_8_shape_0 = const()[name = tensor<string, []>("reshape_8_shape_0"), val = tensor<int32, [5]>([2, 32, 10, 64, 64])];
            tensor<fp16, [2, 32, 10, 64, 64]> reshape_8_cast = reshape(shape = reshape_8_shape_0, x = hidden_states_5_cast)[name = tensor<string, []>("reshape_8_cast")];
            tensor<int32, [3]> reduce_mean_6_axes_0 = const()[name = tensor<string, []>("reduce_mean_6_axes_0"), val = tensor<int32, [3]>([2, 3, 4])];
            tensor<bool, []> reduce_mean_6_keep_dims_0 = const()[name = tensor<string, []>("reduce_mean_6_keep_dims_0"), val = tensor<bool, []>(true)];
            tensor<fp16, [2, 32, 1, 1, 1]> reduce_mean_6_cast = reduce_mean(axes = reduce_mean_6_axes_0, keep_dims = reduce_mean_6_keep_dims_0, x = reshape_8_cast)[name = tensor<string, []>("reduce_mean_6_cast")];
            tensor<fp16, [2, 32, 10, 64, 64]> sub_4_cast = sub(x = reshape_8_cast, y = reduce_mean_6_cast)[name = tensor<string, []>("sub_4_cast")];
            tensor<fp16, [2, 32, 10, 64, 64]> square_2_cast = square(x = sub_4_cast)[name = tensor<string, []>("square_2_cast")];
            tensor<int32, [3]> reduce_mean_8_axes_0 = const()[name = tensor<string, []>("reduce_mean_8_axes_0"), val = tensor<int32, [3]>([2, 3, 4])];
            tensor<bool, []> reduce_mean_8_keep_dims_0 = const()[name = tensor<string, []>("reduce_mean_8_keep_dims_0"), val = tensor<bool, []>(true)];
            tensor<fp16, [2, 32, 1, 1, 1]> reduce_mean_8_cast = reduce_mean(axes = reduce_mean_8_axes_0, keep_dims = reduce_mean_8_keep_dims_0, x = square_2_cast)[name = tensor<string, []>("reduce_mean_8_cast")];
            tensor<fp16, []> add_4_y_0_to_fp16 = const()[name = tensor<string, []>("add_4_y_0_to_fp16"), val = tensor<fp16, []>(0x1.1p-20)];
            tensor<fp16, [2, 32, 1, 1, 1]> add_4_cast = add(x = reduce_mean_8_cast, y = add_4_y_0_to_fp16)[name = tensor<string, []>("add_4_cast")];
            tensor<fp16, [2, 32, 1, 1, 1]> sqrt_2_cast = sqrt(x = add_4_cast)[name = tensor<string, []>("sqrt_2_cast")];
            tensor<fp16, [2, 32, 10, 64, 64]> real_div_2_cast = real_div(x = sub_4_cast, y = sqrt_2_cast)[name = tensor<string, []>("real_div_2_cast")];
            tensor<int32, [4]> reshape_9_shape_0 = const()[name = tensor<string, []>("reshape_9_shape_0"), val = tensor<int32, [4]>([2, 320, 64, 64])];
            tensor<fp16, [2, 320, 64, 64]> reshape_9_cast = reshape(shape = reshape_9_shape_0, x = real_div_2_cast)[name = tensor<string, []>("reshape_9_cast")];
            tensor<fp16, [320]> add_5_gamma_0_to_fp16 = const()[name = tensor<string, []>("add_5_gamma_0_to_fp16"), val = tensor<fp16, [320]>(BLOBFILE(path = tensor<string, []>("@model_path/weights/weight.bin"), offset = tensor<uint64, []>(3248512)))];
            tensor<fp16, [320]> add_5_beta_0_to_fp16 = const()[name = tensor<string, []>("add_5_beta_0_to_fp16"), val = tensor<fp16, [320]>(BLOBFILE(path = tensor<string, []>("@model_path/weights/weight.bin"), offset = tensor<uint64, []>(3249216)))];
            tensor<fp16, []> add_5_epsilon_0_to_fp16 = const()[name = tensor<string, []>("add_5_epsilon_0_to_fp16"), val = tensor<fp16, []>(0x1.5p-17)];
            tensor<fp16, [2, 320, 64, 64]> add_5_cast = batch_norm(beta = add_5_beta_0_to_fp16, epsilon = add_5_epsilon_0_to_fp16, gamma = add_5_gamma_0_to_fp16, mean = add_1_mean_0_to_fp16, variance = add_1_variance_0_to_fp16, x = reshape_9_cast)[name = tensor<string, []>("add_5_cast")];
            tensor<int32, [2]> var_175 = const()[name = tensor<string, []>("op_175"), val = tensor<int32, [2]>([1, 1])];
            tensor<int32, [2]> var_177 = const()[name = tensor<string, []>("op_177"), val = tensor<int32, [2]>([1, 1])];
            tensor<string, []> hidden_states_7_pad_type_0 = const()[name = tensor<string, []>("hidden_states_7_pad_type_0"), val = tensor<string, []>("custom")];
            tensor<int32, [4]> hidden_states_7_pad_0 = const()[name = tensor<string, []>("hidden_states_7_pad_0"), val = tensor<int32, [4]>([0, 0, 0, 0])];
            tensor<fp16, [320, 320, 1, 1]> down_blocks_0_attentions_0_proj_in_weight_to_fp16_palettized = constexpr_lut_to_dense()[indices = tensor<uint8, [76800]>(BLOBFILE(path = tensor<string, []>("@model_path/weights/weight.bin"), offset = tensor<uint64, []>(3249920))), lut = tensor<fp16, [64]>(BLOBFILE(path = tensor<string, []>("@model_path/weights/weight.bin"), offset = tensor<uint64, []>(3326784))), name = tensor<string, []>("down_blocks_0_attentions_0_proj_in_weight_to_fp16_palettized"), shape = tensor<uint32, [4]>([320, 320, 1, 1])];
            tensor<fp16, [320]> down_blocks_0_attentions_0_proj_in_bias_to_fp16 = const()[name = tensor<string, []>("down_blocks_0_attentions_0_proj_in_bias_to_fp16"), val = tensor<fp16, [320]>(BLOBFILE(path = tensor<string, []>("@model_path/weights/weight.bin"), offset = tensor<uint64, []>(3326976)))];
            tensor<fp16, [2, 320, 64, 64]> hidden_states_7_cast = conv(bias = down_blocks_0_attentions_0_proj_in_bias_to_fp16, dilations = var_177, groups = var_111, pad = hidden_states_7_pad_0, pad_type = hidden_states_7_pad_type_0, strides = var_175, weight = down_blocks_0_attentions_0_proj_in_weight_to_fp16_palettized, x = add_5_cast)[name = tensor<string, []>("hidden_states_7_cast")];
            tensor<int32, [4]> var_182 = const()[name = tensor<string, []>("op_182"), val = tensor<int32, [4]>([2, 320, 1, 4096])];
            tensor<fp16, [2, 320, 1, 4096]> inputs_1_cast = reshape(shape = var_182, x = hidden_states_7_cast)[name = tensor<string, []>("inputs_1_cast")];
            tensor<int32, [1]> var_192 = const()[name = tensor<string, []>("op_192"), val = tensor<int32, [1]>([1])];
            tensor<fp16, [2, 1, 1, 4096]> channels_mean_1_cast = reduce_mean(axes = var_192, keep_dims = var_106, x = inputs_1_cast)[name = tensor<string, []>("channels_mean_1_cast")];
            tensor<fp16, [2, 320, 1, 4096]> zero_mean_1_cast = sub(x = inputs_1_cast, y = channels_mean_1_cast)[name = tensor<string, []>("zero_mean_1_cast")];
            tensor<fp16, [2, 320, 1, 4096]> zero_mean_sq_1_cast = mul(x = zero_mean_1_cast, y = zero_mean_1_cast)[name = tensor<string, []>("zero_mean_sq_1_cast")];
            tensor<int32, [1]> var_196 = const()[name = tensor<string, []>("op_196"), val = tensor<int32, [1]>([1])];
            tensor<fp16, [2, 1, 1, 4096]> var_197_cast = reduce_mean(axes = var_196, keep_dims = var_106, x = zero_mean_sq_1_cast)[name = tensor<string, []>("op_197_cast")];
            tensor<fp16, []> var_198_to_fp16 = const()[name = tensor<string, []>("op_198_to_fp16"), val = tensor<fp16, []>(0x1.5p-17)];
            tensor<fp16, [2, 1, 1, 4096]> var_199_cast = add(x = var_197_cast, y = var_198_to_fp16)[name = tensor<string, []>("op_199_cast")];
            tensor<fp16, []> denom_1_epsilon_0_to_fp16 = const()[name = tensor<string, []>("denom_1_epsilon_0_to_fp16"), val = tensor<fp16, []>(0x1p-24)];
            tensor<fp16, [2, 1, 1, 4096]> denom_1_cast = rsqrt(epsilon = denom_1_epsilon_0_to_fp16, x = var_199_cast)[name = tensor<string, []>("denom_1_cast")];
            tensor<fp16, [2, 320, 1, 4096]> out_1_cast = mul(x = zero_mean_1_cast, y = denom_1_cast)[name = tensor<string, []>("out_1_cast")];
            tensor<fp16, [1, 320, 1, 1]> var_203_to_fp16 = const()[name = tensor<string, []>("op_203_to_fp16"), val = tensor<fp16, [1, 320, 1, 1]>(BLOBFILE(path = tensor<string, []>("@model_path/weights/weight.bin"), offset = tensor<uint64, []>(3327680)))];
            tensor<fp16, [2, 320, 1, 4096]> var_204_cast = add(x = out_1_cast, y = var_203_to_fp16)[name = tensor<string, []>("op_204_cast")];
            tensor<fp16, [1, 320, 1, 1]> var_206_to_fp16 = const()[name = tensor<string, []>("op_206_to_fp16"), val = tensor<fp16, [1, 320, 1, 1]>(BLOBFILE(path = tensor<string, []>("@model_path/weights/weight.bin"), offset = tensor<uint64, []>(3328384)))];
            tensor<fp16, [2, 320, 1, 4096]> hidden_states_9_cast = mul(x = var_204_cast, y = var_206_to_fp16)[name = tensor<string, []>("hidden_states_9_cast")];
            tensor<int32, [2]> var_213 = const()[name = tensor<string, []>("op_213"), val = tensor<int32, [2]>([1, 1])];
            tensor<int32, [2]> var_215 = const()[name = tensor<string, []>("op_215"), val = tensor<int32, [2]>([1, 1])];
            tensor<string, []> q_1_pad_type_0 = const()[name = tensor<string, []>("q_1_pad_type_0"), val = tensor<string, []>("custom")];
            tensor<int32, [4]> q_1_pad_0 = const()[name = tensor<string, []>("q_1_pad_0"), val = tensor<int32, [4]>([0, 0, 0, 0])];
            tensor<fp16, [320, 320, 1, 1]> down_blocks_0_attentions_0_transformer_blocks_0_attn1_to_q_weight_to_fp16_palettized = constexpr_lut_to_dense()[indices = tensor<uint8, [76800]>(BLOBFILE(path = tensor<string, []>("@model_path/weights/weight.bin"), offset = tensor<uint64, []>(3329088))), lut = tensor<fp16, [64]>(BLOBFILE(path = tensor<string, []>("@model_path/weights/weight.bin"), offset = tensor<uint64, []>(3405952))), name = tensor<string, []>("down_blocks_0_attentions_0_transformer_blocks_0_attn1_to_q_weight_to_fp16_palettized"), shape = tensor<uint32, [4]>([320, 320, 1, 1])];
            tensor<fp16, [2, 320, 1, 4096]> q_1_cast = conv(dilations = var_215, groups = var_111, pad = q_1_pad_0, pad_type = q_1_pad_type_0, strides = var_213, weight = down_blocks_0_attentions_0_transformer_blocks_0_attn1_to_q_weight_to_fp16_palettized, x = hidden_states_9_cast)[name = tensor<string, []>("q_1_cast")];
            tensor<int32, [2]> var_219 = const()[name = tensor<string, []>("op_219"), val = tensor<int32, [2]>([1, 1])];
            tensor<int32, [2]> var_221 = const()[name = tensor<string, []>("op_221"), val = tensor<int32, [2]>([1, 1])];
            tensor<string, []> k_1_pad_type_0 = const()[name = tensor<string, []>("k_1_pad_type_0"), val = tensor<string, []>("custom")];
            tensor<int32, [4]> k_1_pad_0 = const()[name = tensor<string, []>("k_1_pad_0"), val = tensor<int32, [4]>([0, 0, 0, 0])];
            tensor<fp16, [320, 320, 1, 1]> down_blocks_0_attentions_0_transformer_blocks_0_attn1_to_k_weight_to_fp16_palettized = constexpr_lut_to_dense()[indices = tensor<uint8, [76800]>(BLOBFILE(path = tensor<string, []>("@model_path/weights/weight.bin"), offset = tensor<uint64, []>(3406144))), lut = tensor<fp16, [64]>(BLOBFILE(path = tensor<string, []>("@model_path/weights/weight.bin"), offset = tensor<uint64, []>(3483008))), name = tensor<string, []>("down_blocks_0_attentions_0_transformer_blocks_0_attn1_to_k_weight_to_fp16_palettized"), shape = tensor<uint32, [4]>([320, 320, 1, 1])];
            tensor<fp16, [2, 320, 1, 4096]> k_1_cast = conv(dilations = var_221, groups = var_111, pad = k_1_pad_0, pad_type = k_1_pad_type_0, strides = var_219, weight = down_blocks_0_attentions_0_transformer_blocks_0_attn1_to_k_weight_to_fp16_palettized, x = hidden_states_9_cast)[name = tensor<string, []>("k_1_cast")];
            tensor<int32, [2]> var_225 = const()[name = tensor<string, []>("op_225"), val = tensor<int32, [2]>([1, 1])];
            tensor<int32, [2]> var_227 = const()[name = tensor<string, []>("op_227"), val = tensor<int32, [2]>([1, 1])];
            tensor<string, []> v_1_pad_type_0 = const()[name = tensor<string, []>("v_1_pad_type_0"), val = tensor<string, []>("custom")];
            tensor<int32, [4]> v_1_pad_0 = const()[name = tensor<string, []>("v_1_pad_0"), val = tensor<int32, [4]>([0, 0, 0, 0])];
            tensor<fp16, [320, 320, 1, 1]> down_blocks_0_attentions_0_transformer_blocks_0_attn1_to_v_weight_to_fp16_palettized = constexpr_lut_to_dense()[indices = tensor<uint8, [76800]>(BLOBFILE(path = tensor<string, []>("@model_path/weights/weight.bin"), offset = tensor<uint64, []>(3483200))), lut = tensor<fp16, [64]>(BLOBFILE(path = tensor<string, []>("@model_path/weights/weight.bin"), offset = tensor<uint64, []>(3560064))), name = tensor<string, []>("down_blocks_0_attentions_0_transformer_blocks_0_attn1_to_v_weight_to_fp16_palettized"), shape = tensor<uint32, [4]>([320, 320, 1, 1])];
            tensor<fp16, [2, 320, 1, 4096]> v_1_cast = conv(dilations = var_227, groups = var_111, pad = v_1_pad_0, pad_type = v_1_pad_type_0, strides = var_225, weight = down_blocks_0_attentions_0_transformer_blocks_0_attn1_to_v_weight_to_fp16_palettized, x = hidden_states_9_cast)[name = tensor<string, []>("v_1_cast")];
            tensor<int32, [4]> var_231 = const()[name = tensor<string, []>("op_231"), val = tensor<int32, [4]>([2, 5, 64, -1])];
            tensor<fp16, [2, 5, 64, 4096]> var_232_cast = reshape(shape = var_231, x = q_1_cast)[name = tensor<string, []>("op_232_cast")];
            tensor<int32, [4]> var_233 = const()[name = tensor<string, []>("op_233"), val = tensor<int32, [4]>([2, 5, 64, -1])];
            tensor<fp16, [2, 5, 64, 4096]> var_234_cast = reshape(shape = var_233, x = k_1_cast)[name = tensor<string, []>("op_234_cast")];
            tensor<int32, [4]> var_235 = const()[name = tensor<string, []>("op_235"), val = tensor<int32, [4]>([2, 5, 64, -1])];
            tensor<fp16, [2, 5, 64, 4096]> var_236_cast = reshape(shape = var_235, x = v_1_cast)[name = tensor<string, []>("op_236_cast")];
            tensor<bool, []> attn_weights_1_transpose_x_0 = const()[name = tensor<string, []>("attn_weights_1_transpose_x_0"), val = tensor<bool, []>(true)];
            tensor<bool, []> attn_weights_1_transpose_y_0 = const()[name = tensor<string, []>("attn_weights_1_transpose_y_0"), val = tensor<bool, []>(false)];
            tensor<fp16, [2, 5, 4096, 4096]> attn_weights_1_cast = matmul(transpose_x = attn_weights_1_transpose_x_0, transpose_y = attn_weights_1_transpose_y_0, x = var_232_cast, y = var_234_cast)[name = tensor<string, []>("attn_weights_1_cast")];
            tensor<fp16, []> var_102_to_fp16 = const()[name = tensor<string, []>("op_102_to_fp16"), val = tensor<fp16, []>(0x1p-3)];
            tensor<fp16, [2, 5, 4096, 4096]> attn_weights_3_cast = mul(x = attn_weights_1_cast, y = var_102_to_fp16)[name = tensor<string, []>("attn_weights_3_cast")];
            tensor<fp16, [2, 5, 4096, 4096]> var_240_cast = softmax(axis = var_95, x = attn_weights_3_cast)[name = tensor<string, []>("op_240_cast")];
            tensor<bool, []> attn_1_transpose_x_0 = const()[name = tensor<string, []>("attn_1_transpose_x_0"), val = tensor<bool, []>(false)];
            tensor<bool, []> attn_1_transpose_y_0 = const()[name = tensor<string, []>("attn_1_transpose_y_0"), val = tensor<bool, []>(true)];
            tensor<fp16, [2, 5, 64, 4096]> attn_1_cast = matmul(transpose_x = attn_1_transpose_x_0, transpose_y = attn_1_transpose_y_0, x = var_236_cast, y = var_240_cast)[name = tensor<string, []>("attn_1_cast")];
            tensor<int32, [4]> var_244 = const()[name = tensor<string, []>("op_244"), val = tensor<int32, [4]>([2, 320, 1, -1])];
            tensor<fp16, [2, 320, 1, 4096]> input_25_cast = reshape(shape = var_244, x = attn_1_cast)[name = tensor<string, []>("input_25_cast")];
            tensor<int32, [2]> var_249 = const()[name = tensor<string, []>("op_249"), val = tensor<int32, [2]>([1, 1])];
            tensor<int32, [2]> var_251 = const()[name = tensor<string, []>("op_251"), val = tensor<int32, [2]>([1, 1])];
            tensor<string, []> var_253_pad_type_0 = const()[name = tensor<string, []>("op_253_pad_type_0"), val = tensor<string, []>("custom")];
            tensor<int32, [4]> var_253_pad_0 = const()[name = tensor<string, []>("op_253_pad_0"), val = tensor<int32, [4]>([0, 0, 0, 0])];
            tensor<fp16, [320, 320, 1, 1]> down_blocks_0_attentions_0_transformer_blocks_0_attn1_to_out_0_weight_to_fp16_palettized = constexpr_lut_to_dense()[indices = tensor<uint8, [76800]>(BLOBFILE(path = tensor<string, []>("@model_path/weights/weight.bin"), offset = tensor<uint64, []>(3560256))), lut = tensor<fp16, [64]>(BLOBFILE(path = tensor<string, []>("@model_path/weights/weight.bin"), offset = tensor<uint64, []>(3637120))), name = tensor<string, []>("down_blocks_0_attentions_0_transformer_blocks_0_attn1_to_out_0_weight_to_fp16_palettized"), shape = tensor<uint32, [4]>([320, 320, 1, 1])];
            tensor<fp16, [320]> down_blocks_0_attentions_0_transformer_blocks_0_attn1_to_out_0_bias_to_fp16 = const()[name = tensor<string, []>("down_blocks_0_attentions_0_transformer_blocks_0_attn1_to_out_0_bias_to_fp16"), val = tensor<fp16, [320]>(BLOBFILE(path = tensor<string, []>("@model_path/weights/weight.bin"), offset = tensor<uint64, []>(3637312)))];
            tensor<fp16, [2, 320, 1, 4096]> var_253_cast = conv(bias = down_blocks_0_attentions_0_transformer_blocks_0_attn1_to_out_0_bias_to_fp16, dilations = var_251, groups = var_111, pad = var_253_pad_0, pad_type = var_253_pad_type_0, strides = var_249, weight = down_blocks_0_attentions_0_transformer_blocks_0_attn1_to_out_0_weight_to_fp16_palettized, x = input_25_cast)[name = tensor<string, []>("op_253_cast")];
            tensor<fp16, [2, 320, 1, 4096]> inputs_3_cast = add(x = var_253_cast, y = inputs_1_cast)[name = tensor<string, []>("inputs_3_cast")];
            tensor<int32, [1]> var_257 = const()[name = tensor<string, []>("op_257"), val = tensor<int32, [1]>([1])];
            tensor<fp16, [2, 1, 1, 4096]> channels_mean_3_cast = reduce_mean(axes = var_257, keep_dims = var_106, x = inputs_3_cast)[name = tensor<string, []>("channels_mean_3_cast")];
            tensor<fp16, [2, 320, 1, 4096]> zero_mean_3_cast = sub(x = inputs_3_cast, y = channels_mean_3_cast)[name = tensor<string, []>("zero_mean_3_cast")];
            tensor<fp16, [2, 320, 1, 4096]> zero_mean_sq_3_cast = mul(x = zero_mean_3_cast, y = zero_mean_3_cast)[name = tensor<string, []>("zero_mean_sq_3_cast")];
            tensor<int32, [1]> var_261 = const()[name = tensor<string, []>("op_261"), val = tensor<int32, [1]>([1])];
            tensor<fp16, [2, 1, 1, 4096]> var_262_cast = reduce_mean(axes = var_261, keep_dims = var_106, x = zero_mean_sq_3_cast)[name = tensor<string, []>("op_262_cast")];
            tensor<fp16, []> var_263_to_fp16 = const()[name = tensor<string, []>("op_263_to_fp16"), val = tensor<fp16, []>(0x1.5p-17)];
            tensor<fp16, [2, 1, 1, 4096]> var_264_cast = add(x = var_262_cast, y = var_263_to_fp16)[name = tensor<string, []>("op_264_cast")];
            tensor<fp16, []> denom_3_epsilon_0_to_fp16 = const()[name = tensor<string, []>("denom_3_epsilon_0_to_fp16"), val = tensor<fp16, []>(0x1p-24)];
            tensor<fp16, [2, 1, 1, 4096]> denom_3_cast = rsqrt(epsilon = denom_3_epsilon_0_to_fp16, x = var_264_cast)[name = tensor<string, []>("denom_3_cast")];
            tensor<fp16, [2, 320, 1, 4096]> out_3_cast = mul(x = zero_mean_3_cast, y = denom_3_cast)[name = tensor<string, []>("out_3_cast")];
            tensor<fp16, [1, 320, 1, 1]> var_268_to_fp16 = const()[name = tensor<string, []>("op_268_to_fp16"), val = tensor<fp16, [1, 320, 1, 1]>(BLOBFILE(path = tensor<string, []>("@model_path/weights/weight.bin"), offset = tensor<uint64, []>(3638016)))];
            tensor<fp16, [2, 320, 1, 4096]> var_269_cast = add(x = out_3_cast, y = var_268_to_fp16)[name = tensor<string, []>("op_269_cast")];
            tensor<fp16, [1, 320, 1, 1]> var_271_to_fp16 = const()[name = tensor<string, []>("op_271_to_fp16"), val = tensor<fp16, [1, 320, 1, 1]>(BLOBFILE(path = tensor<string, []>("@model_path/weights/weight.bin"), offset = tensor<uint64, []>(3638720)))];
            tensor<fp16, [2, 320, 1, 4096]> hidden_states_11_cast = mul(x = var_269_cast, y = var_271_to_fp16)[name = tensor<string, []>("hidden_states_11_cast")];
            tensor<int32, [2]> var_278 = const()[name = tensor<string, []>("op_278"), val = tensor<int32, [2]>([1, 1])];
            tensor<int32, [2]> var_280 = const()[name = tensor<string, []>("op_280"), val = tensor<int32, [2]>([1, 1])];
            tensor<string, []> q_3_pad_type_0 = const()[name = tensor<string, []>("q_3_pad_type_0"), val = tensor<string, []>("custom")];
            tensor<int32, [4]> q_3_pad_0 = const()[name = tensor<string, []>("q_3_pad_0"), val = tensor<int32, [4]>([0, 0, 0, 0])];
            tensor<fp16, [320, 320, 1, 1]> down_blocks_0_attentions_0_transformer_blocks_0_attn2_to_q_weight_to_fp16_palettized = constexpr_lut_to_dense()[indices = tensor<uint8, [76800]>(BLOBFILE(path = tensor<string, []>("@model_path/weights/weight.bin"), offset = tensor<uint64, []>(3639424))), lut = tensor<fp16, [64]>(BLOBFILE(path = tensor<string, []>("@model_path/weights/weight.bin"), offset = tensor<uint64, []>(3716288))), name = tensor<string, []>("down_blocks_0_attentions_0_transformer_blocks_0_attn2_to_q_weight_to_fp16_palettized"), shape = tensor<uint32, [4]>([320, 320, 1, 1])];
            tensor<fp16, [2, 320, 1, 4096]> q_3_cast = conv(dilations = var_280, groups = var_111, pad = q_3_pad_0, pad_type = q_3_pad_type_0, strides = var_278, weight = down_blocks_0_attentions_0_transformer_blocks_0_attn2_to_q_weight_to_fp16_palettized, x = hidden_states_11_cast)[name = tensor<string, []>("q_3_cast")];
            tensor<int32, [2]> var_284 = const()[name = tensor<string, []>("op_284"), val = tensor<int32, [2]>([1, 1])];
            tensor<int32, [2]> var_286 = const()[name = tensor<string, []>("op_286"), val = tensor<int32, [2]>([1, 1])];
            tensor<string, []> k_3_pad_type_0 = const()[name = tensor<string, []>("k_3_pad_type_0"), val = tensor<string, []>("custom")];
            tensor<int32, [4]> k_3_pad_0 = const()[name = tensor<string, []>("k_3_pad_0"), val = tensor<int32, [4]>([0, 0, 0, 0])];
            tensor<fp16, [320, 1024, 1, 1]> down_blocks_0_attentions_0_transformer_blocks_0_attn2_to_k_weight_to_fp16_palettized = constexpr_lut_to_dense()[indices = tensor<uint8, [245760]>(BLOBFILE(path = tensor<string, []>("@model_path/weights/weight.bin"), offset = tensor<uint64, []>(3716480))), lut = tensor<fp16, [64]>(BLOBFILE(path = tensor<string, []>("@model_path/weights/weight.bin"), offset = tensor<uint64, []>(3962304))), name = tensor<string, []>("down_blocks_0_attentions_0_transformer_blocks_0_attn2_to_k_weight_to_fp16_palettized"), shape = tensor<uint32, [4]>([320, 1024, 1, 1])];
            tensor<fp16, [2, 320, 1, 77]> k_3_cast = conv(dilations = var_286, groups = var_111, pad = k_3_pad_0, pad_type = k_3_pad_type_0, strides = var_284, weight = down_blocks_0_attentions_0_transformer_blocks_0_attn2_to_k_weight_to_fp16_palettized, x = encoder_hidden_states)[name = tensor<string, []>("k_3_cast")];
            tensor<int32, [2]> var_290 = const()[name = tensor<string, []>("op_290"), val = tensor<int32, [2]>([1, 1])];
            tensor<int32, [2]> var_292 = const()[name = tensor<string, []>("op_292"), val = tensor<int32, [2]>([1, 1])];
            tensor<string, []> v_3_pad_type_0 = const()[name = tensor<string, []>("v_3_pad_type_0"), val = tensor<string, []>("custom")];
            tensor<int32, [4]> v_3_pad_0 = const()[name = tensor<string, []>("v_3_pad_0"), val = tensor<int32, [4]>([0, 0, 0, 0])];
            tensor<fp16, [320, 1024, 1, 1]> down_blocks_0_attentions_0_transformer_blocks_0_attn2_to_v_weight_to_fp16_palettized = constexpr_lut_to_dense()[indices = tensor<uint8, [245760]>(BLOBFILE(path = tensor<string, []>("@model_path/weights/weight.bin"), offset = tensor<uint64, []>(3962496))), lut = tensor<fp16, [64]>(BLOBFILE(path = tensor<string, []>("@model_path/weights/weight.bin"), offset = tensor<uint64, []>(4208320))), name = tensor<string, []>("down_blocks_0_attentions_0_transformer_blocks_0_attn2_to_v_weight_to_fp16_palettized"), shape = tensor<uint32, [4]>([320, 1024, 1, 1])];
            tensor<fp16, [2, 320, 1, 77]> v_3_cast = conv(dilations = var_292, groups = var_111, pad = v_3_pad_0, pad_type = v_3_pad_type_0, strides = var_290, weight = down_blocks_0_attentions_0_transformer_blocks_0_attn2_to_v_weight_to_fp16_palettized, x = encoder_hidden_states)[name = tensor<string, []>("v_3_cast")];
            tensor<int32, [4]> var_296 = const()[name = tensor<string, []>("op_296"), val = tensor<int32, [4]>([2, 5, 64, -1])];
            tensor<fp16, [2, 5, 64, 4096]> var_297_cast = reshape(shape = var_296, x = q_3_cast)[name = tensor<string, []>("op_297_cast")];
            tensor<int32, [4]> var_298 = const()[name = tensor<string, []>("op_298"), val = tensor<int32, [4]>([2, 5, 64, -1])];
            tensor<fp16, [2, 5, 64, 77]> var_299_cast = reshape(shape = var_298, x = k_3_cast)[name = tensor<string, []>("op_299_cast")];
            tensor<int32, [4]> var_300 = const()[name = tensor<string, []>("op_300"), val = tensor<int32, [4]>([2, 5, 64, -1])];
            tensor<fp16, [2, 5, 64, 77]> var_301_cast = reshape(shape = var_300, x = v_3_cast)[name = tensor<string, []>("op_301_cast")];
            tensor<bool, []> attn_weights_5_transpose_x_0 = const()[name = tensor<string, []>("attn_weights_5_transpose_x_0"), val = tensor<bool, []>(true)];
            tensor<bool, []> attn_weights_5_transpose_y_0 = const()[name = tensor<string, []>("attn_weights_5_transpose_y_0"), val = tensor<bool, []>(false)];
            tensor<fp16, [2, 5, 4096, 77]> attn_weights_5_cast = matmul(transpose_x = attn_weights_5_transpose_x_0, transpose_y = attn_weights_5_transpose_y_0, x = var_297_cast, y = var_299_cast)[name = tensor<string, []>("attn_weights_5_cast")];
            tensor<fp16, [2, 5, 4096, 77]> attn_weights_7_cast = mul(x = attn_weights_5_cast, y = var_102_to_fp16)[name = tensor<string, []>("attn_weights_7_cast")];
            tensor<fp16, [2, 5, 4096, 77]> var_305_cast = softmax(axis = var_95, x = attn_weights_7_cast)[name = tensor<string, []>("op_305_cast")];
            tensor<bool, []> attn_3_transpose_x_0 = const()[name = tensor<string, []>("attn_3_transpose_x_0"), val = tensor<bool, []>(false)];
            tensor<bool, []> attn_3_transpose_y_0 = const()[name = tensor<string, []>("attn_3_transpose_y_0"), val = tensor<bool, []>(true)];
            tensor<fp16, [2, 5, 64, 4096]> attn_3_cast = matmul(transpose_x = attn_3_transpose_x_0, transpose_y = attn_3_transpose_y_0, x = var_301_cast, y = var_305_cast)[name = tensor<string, []>("attn_3_cast")];
            tensor<int32, [4]> var_309 = const()[name = tensor<string, []>("op_309"), val = tensor<int32, [4]>([2, 320, 1, -1])];
            tensor<fp16, [2, 320, 1, 4096]> input_27_cast = reshape(shape = var_309, x = attn_3_cast)[name = tensor<string, []>("input_27_cast")];
            tensor<int32, [2]> var_314 = const()[name = tensor<string, []>("op_314"), val = tensor<int32, [2]>([1, 1])];
            tensor<int32, [2]> var_316 = const()[name = tensor<string, []>("op_316"), val = tensor<int32, [2]>([1, 1])];
            tensor<string, []> var_318_pad_type_0 = const()[name = tensor<string, []>("op_318_pad_type_0"), val = tensor<string, []>("custom")];
            tensor<int32, [4]> var_318_pad_0 = const()[name = tensor<string, []>("op_318_pad_0"), val = tensor<int32, [4]>([0, 0, 0, 0])];
            tensor<fp16, [320, 320, 1, 1]> down_blocks_0_attentions_0_transformer_blocks_0_attn2_to_out_0_weight_to_fp16_palettized = constexpr_lut_to_dense()[indices = tensor<uint8, [76800]>(BLOBFILE(path = tensor<string, []>("@model_path/weights/weight.bin"), offset = tensor<uint64, []>(4208512))), lut = tensor<fp16, [64]>(BLOBFILE(path = tensor<string, []>("@model_path/weights/weight.bin"), offset = tensor<uint64, []>(4285376))), name = tensor<string, []>("down_blocks_0_attentions_0_transformer_blocks_0_attn2_to_out_0_weight_to_fp16_palettized"), shape = tensor<uint32, [4]>([320, 320, 1, 1])];
            tensor<fp16, [320]> down_blocks_0_attentions_0_transformer_blocks_0_attn2_to_out_0_bias_to_fp16 = const()[name = tensor<string, []>("down_blocks_0_attentions_0_transformer_blocks_0_attn2_to_out_0_bias_to_fp16"), val = tensor<fp16, [320]>(BLOBFILE(path = tensor<string, []>("@model_path/weights/weight.bin"), offset = tensor<uint64, []>(4285568)))];
            tensor<fp16, [2, 320, 1, 4096]> var_318_cast = conv(bias = down_blocks_0_attentions_0_transformer_blocks_0_attn2_to_out_0_bias_to_fp16, dilations = var_316, groups = var_111, pad = var_318_pad_0, pad_type = var_318_pad_type_0, strides = var_314, weight = down_blocks_0_attentions_0_transformer_blocks_0_attn2_to_out_0_weight_to_fp16_palettized, x = input_27_cast)[name = tensor<string, []>("op_318_cast")];
            tensor<fp16, [2, 320, 1, 4096]> inputs_5_cast = add(x = var_318_cast, y = inputs_3_cast)[name = tensor<string, []>("inputs_5_cast")];
            tensor<int32, [1]> var_322 = const()[name = tensor<string, []>("op_322"), val = tensor<int32, [1]>([1])];
            tensor<fp16, [2, 1, 1, 4096]> channels_mean_5_cast = reduce_mean(axes = var_322, keep_dims = var_106, x = inputs_5_cast)[name = tensor<string, []>("channels_mean_5_cast")];
            tensor<fp16, [2, 320, 1, 4096]> zero_mean_5_cast = sub(x = inputs_5_cast, y = channels_mean_5_cast)[name = tensor<string, []>("zero_mean_5_cast")];
            tensor<fp16, [2, 320, 1, 4096]> zero_mean_sq_5_cast = mul(x = zero_mean_5_cast, y = zero_mean_5_cast)[name = tensor<string, []>("zero_mean_sq_5_cast")];
            tensor<int32, [1]> var_326 = const()[name = tensor<string, []>("op_326"), val = tensor<int32, [1]>([1])];
            tensor<fp16, [2, 1, 1, 4096]> var_327_cast = reduce_mean(axes = var_326, keep_dims = var_106, x = zero_mean_sq_5_cast)[name = tensor<string, []>("op_327_cast")];
            tensor<fp16, []> var_328_to_fp16 = const()[name = tensor<string, []>("op_328_to_fp16"), val = tensor<fp16, []>(0x1.5p-17)];
            tensor<fp16, [2, 1, 1, 4096]> var_329_cast = add(x = var_327_cast, y = var_328_to_fp16)[name = tensor<string, []>("op_329_cast")];
            tensor<fp16, []> denom_5_epsilon_0_to_fp16 = const()[name = tensor<string, []>("denom_5_epsilon_0_to_fp16"), val = tensor<fp16, []>(0x1p-24)];
            tensor<fp16, [2, 1, 1, 4096]> denom_5_cast = rsqrt(epsilon = denom_5_epsilon_0_to_fp16, x = var_329_cast)[name = tensor<string, []>("denom_5_cast")];
            tensor<fp16, [2, 320, 1, 4096]> out_5_cast = mul(x = zero_mean_5_cast, y = denom_5_cast)[name = tensor<string, []>("out_5_cast")];
            tensor<fp16, [1, 320, 1, 1]> var_333_to_fp16 = const()[name = tensor<string, []>("op_333_to_fp16"), val = tensor<fp16, [1, 320, 1, 1]>(BLOBFILE(path = tensor<string, []>("@model_path/weights/weight.bin"), offset = tensor<uint64, []>(4286272)))];
            tensor<fp16, [2, 320, 1, 4096]> var_334_cast = add(x = out_5_cast, y = var_333_to_fp16)[name = tensor<string, []>("op_334_cast")];
            tensor<fp16, [1, 320, 1, 1]> var_336_to_fp16 = const()[name = tensor<string, []>("op_336_to_fp16"), val = tensor<fp16, [1, 320, 1, 1]>(BLOBFILE(path = tensor<string, []>("@model_path/weights/weight.bin"), offset = tensor<uint64, []>(4286976)))];
            tensor<fp16, [2, 320, 1, 4096]> input_29_cast = mul(x = var_334_cast, y = var_336_to_fp16)[name = tensor<string, []>("input_29_cast")];
            tensor<int32, [2]> var_344 = const()[name = tensor<string, []>("op_344"), val = tensor<int32, [2]>([1, 1])];
            tensor<int32, [2]> var_346 = const()[name = tensor<string, []>("op_346"), val = tensor<int32, [2]>([1, 1])];
            tensor<string, []> var_348_pad_type_0 = const()[name = tensor<string, []>("op_348_pad_type_0"), val = tensor<string, []>("custom")];
            tensor<int32, [4]> var_348_pad_0 = const()[name = tensor<string, []>("op_348_pad_0"), val = tensor<int32, [4]>([0, 0, 0, 0])];
            tensor<fp16, [2560, 320, 1, 1]> down_blocks_0_attentions_0_transformer_blocks_0_ff_net_0_proj_weight_to_fp16_palettized = constexpr_lut_to_dense()[indices = tensor<uint8, [614400]>(BLOBFILE(path = tensor<string, []>("@model_path/weights/weight.bin"), offset = tensor<uint64, []>(4287680))), lut = tensor<fp16, [64]>(BLOBFILE(path = tensor<string, []>("@model_path/weights/weight.bin"), offset = tensor<uint64, []>(4902144))), name = tensor<string, []>("down_blocks_0_attentions_0_transformer_blocks_0_ff_net_0_proj_weight_to_fp16_palettized"), shape = tensor<uint32, [4]>([2560, 320, 1, 1])];
            tensor<fp16, [2560]> down_blocks_0_attentions_0_transformer_blocks_0_ff_net_0_proj_bias_to_fp16_palettized = constexpr_lut_to_dense()[indices = tensor<uint8, [1920]>(BLOBFILE(path = tensor<string, []>("@model_path/weights/weight.bin"), offset = tensor<uint64, []>(4902336))), lut = tensor<fp16, [64]>(BLOBFILE(path = tensor<string, []>("@model_path/weights/weight.bin"), offset = tensor<uint64, []>(4904320))), name = tensor<string, []>("down_blocks_0_attentions_0_transformer_blocks_0_ff_net_0_proj_bias_to_fp16_palettized"), shape = tensor<uint32, [1]>([2560])];
            tensor<fp16, [2, 2560, 1, 4096]> var_348_cast = conv(bias = down_blocks_0_attentions_0_transformer_blocks_0_ff_net_0_proj_bias_to_fp16_palettized, dilations = var_346, groups = var_111, pad = var_348_pad_0, pad_type = var_348_pad_type_0, strides = var_344, weight = down_blocks_0_attentions_0_transformer_blocks_0_ff_net_0_proj_weight_to_fp16_palettized, x = input_29_cast)[name = tensor<string, []>("op_348_cast")];
            tensor<int32, [2]> var_349_split_sizes_0 = const()[name = tensor<string, []>("op_349_split_sizes_0"), val = tensor<int32, [2]>([1280, 1280])];
            tensor<int32, []> var_349_axis_0 = const()[name = tensor<string, []>("op_349_axis_0"), val = tensor<int32, []>(1)];
            tensor<fp16, [2, 1280, 1, 4096]> var_349_cast_0, tensor<fp16, [2, 1280, 1, 4096]> var_349_cast_1 = split(axis = var_349_axis_0, split_sizes = var_349_split_sizes_0, x = var_348_cast)[name = tensor<string, []>("op_349_cast")];
            tensor<string, []> var_351_mode_0 = const()[name = tensor<string, []>("op_351_mode_0"), val = tensor<string, []>("EXACT")];
            tensor<fp16, [2, 1280, 1, 4096]> var_351_cast = gelu(mode = var_351_mode_0, x = var_349_cast_1)[name = tensor<string, []>("op_351_cast")];
            tensor<fp16, [2, 1280, 1, 4096]> input_31_cast = mul(x = var_349_cast_0, y = var_351_cast)[name = tensor<string, []>("input_31_cast")];
            tensor<int32, [2]> var_355 = const()[name = tensor<string, []>("op_355"), val = tensor<int32, [2]>([1, 1])];
            tensor<int32, [2]> var_357 = const()[name = tensor<string, []>("op_357"), val = tensor<int32, [2]>([1, 1])];
            tensor<string, []> var_359_pad_type_0 = const()[name = tensor<string, []>("op_359_pad_type_0"), val = tensor<string, []>("custom")];
            tensor<int32, [4]> var_359_pad_0 = const()[name = tensor<string, []>("op_359_pad_0"), val = tensor<int32, [4]>([0, 0, 0, 0])];
            tensor<fp16, [320, 1280, 1, 1]> down_blocks_0_attentions_0_transformer_blocks_0_ff_net_2_weight_to_fp16_palettized = constexpr_lut_to_dense()[indices = tensor<uint8, [307200]>(BLOBFILE(path = tensor<string, []>("@model_path/weights/weight.bin"), offset = tensor<uint64, []>(4904512))), lut = tensor<fp16, [64]>(BLOBFILE(path = tensor<string, []>("@model_path/weights/weight.bin"), offset = tensor<uint64, []>(5211776))), name = tensor<string, []>("down_blocks_0_attentions_0_transformer_blocks_0_ff_net_2_weight_to_fp16_palettized"), shape = tensor<uint32, [4]>([320, 1280, 1, 1])];
            tensor<fp16, [320]> down_blocks_0_attentions_0_transformer_blocks_0_ff_net_2_bias_to_fp16 = const()[name = tensor<string, []>("down_blocks_0_attentions_0_transformer_blocks_0_ff_net_2_bias_to_fp16"), val = tensor<fp16, [320]>(BLOBFILE(path = tensor<string, []>("@model_path/weights/weight.bin"), offset = tensor<uint64, []>(5211968)))];
            tensor<fp16, [2, 320, 1, 4096]> var_359_cast = conv(bias = down_blocks_0_attentions_0_transformer_blocks_0_ff_net_2_bias_to_fp16, dilations = var_357, groups = var_111, pad = var_359_pad_0, pad_type = var_359_pad_type_0, strides = var_355, weight = down_blocks_0_attentions_0_transformer_blocks_0_ff_net_2_weight_to_fp16_palettized, x = input_31_cast)[name = tensor<string, []>("op_359_cast")];
            tensor<fp16, [2, 320, 1, 4096]> hidden_states_15_cast = add(x = var_359_cast, y = inputs_5_cast)[name = tensor<string, []>("hidden_states_15_cast")];
            tensor<int32, [4]> var_361 = const()[name = tensor<string, []>("op_361"), val = tensor<int32, [4]>([2, 320, 64, 64])];
            tensor<fp16, [2, 320, 64, 64]> input_33_cast = reshape(shape = var_361, x = hidden_states_15_cast)[name = tensor<string, []>("input_33_cast")];
            tensor<int32, [2]> var_365 = const()[name = tensor<string, []>("op_365"), val = tensor<int32, [2]>([1, 1])];
            tensor<int32, [2]> var_367 = const()[name = tensor<string, []>("op_367"), val = tensor<int32, [2]>([1, 1])];
            tensor<string, []> hidden_states_17_pad_type_0 = const()[name = tensor<string, []>("hidden_states_17_pad_type_0"), val = tensor<string, []>("custom")];
            tensor<int32, [4]> hidden_states_17_pad_0 = const()[name = tensor<string, []>("hidden_states_17_pad_0"), val = tensor<int32, [4]>([0, 0, 0, 0])];
            tensor<fp16, [320, 320, 1, 1]> down_blocks_0_attentions_0_proj_out_weight_to_fp16_palettized = constexpr_lut_to_dense()[indices = tensor<uint8, [76800]>(BLOBFILE(path = tensor<string, []>("@model_path/weights/weight.bin"), offset = tensor<uint64, []>(5212672))), lut = tensor<fp16, [64]>(BLOBFILE(path = tensor<string, []>("@model_path/weights/weight.bin"), offset = tensor<uint64, []>(5289536))), name = tensor<string, []>("down_blocks_0_attentions_0_proj_out_weight_to_fp16_palettized"), shape = tensor<uint32, [4]>([320, 320, 1, 1])];
            tensor<fp16, [320]> down_blocks_0_attentions_0_proj_out_bias_to_fp16 = const()[name = tensor<string, []>("down_blocks_0_attentions_0_proj_out_bias_to_fp16"), val = tensor<fp16, [320]>(BLOBFILE(path = tensor<string, []>("@model_path/weights/weight.bin"), offset = tensor<uint64, []>(5289728)))];
            tensor<fp16, [2, 320, 64, 64]> hidden_states_17_cast = conv(bias = down_blocks_0_attentions_0_proj_out_bias_to_fp16, dilations = var_367, groups = var_111, pad = hidden_states_17_pad_0, pad_type = hidden_states_17_pad_type_0, strides = var_365, weight = down_blocks_0_attentions_0_proj_out_weight_to_fp16_palettized, x = input_33_cast)[name = tensor<string, []>("hidden_states_17_cast")];
            tensor<fp16, [2, 320, 64, 64]> input_35_cast = add(x = hidden_states_17_cast, y = hidden_states_5_cast)[name = tensor<string, []>("input_35_cast")];
            tensor<int32, [5]> reshape_12_shape_0 = const()[name = tensor<string, []>("reshape_12_shape_0"), val = tensor<int32, [5]>([2, 32, 10, 64, 64])];
            tensor<fp16, [2, 32, 10, 64, 64]> reshape_12_cast = reshape(shape = reshape_12_shape_0, x = input_35_cast)[name = tensor<string, []>("reshape_12_cast")];
            tensor<int32, [3]> reduce_mean_9_axes_0 = const()[name = tensor<string, []>("reduce_mean_9_axes_0"), val = tensor<int32, [3]>([2, 3, 4])];
            tensor<bool, []> reduce_mean_9_keep_dims_0 = const()[name = tensor<string, []>("reduce_mean_9_keep_dims_0"), val = tensor<bool, []>(true)];
            tensor<fp16, [2, 32, 1, 1, 1]> reduce_mean_9_cast = reduce_mean(axes = reduce_mean_9_axes_0, keep_dims = reduce_mean_9_keep_dims_0, x = reshape_12_cast)[name = tensor<string, []>("reduce_mean_9_cast")];
            tensor<fp16, [2, 32, 10, 64, 64]> sub_6_cast = sub(x = reshape_12_cast, y = reduce_mean_9_cast)[name = tensor<string, []>("sub_6_cast")];
            tensor<fp16, [2, 32, 10, 64, 64]> square_3_cast = square(x = sub_6_cast)[name = tensor<string, []>("square_3_cast")];
            tensor<int32, [3]> reduce_mean_11_axes_0 = const()[name = tensor<string, []>("reduce_mean_11_axes_0"), val = tensor<int32, [3]>([2, 3, 4])];
            tensor<bool, []> reduce_mean_11_keep_dims_0 = const()[name = tensor<string, []>("reduce_mean_11_keep_dims_0"), val = tensor<bool, []>(true)];
            tensor<fp16, [2, 32, 1, 1, 1]> reduce_mean_11_cast = reduce_mean(axes = reduce_mean_11_axes_0, keep_dims = reduce_mean_11_keep_dims_0, x = square_3_cast)[name = tensor<string, []>("reduce_mean_11_cast")];
            tensor<fp16, []> add_6_y_0_to_fp16 = const()[name = tensor<string, []>("add_6_y_0_to_fp16"), val = tensor<fp16, []>(0x1.5p-17)];
            tensor<fp16, [2, 32, 1, 1, 1]> add_6_cast = add(x = reduce_mean_11_cast, y = add_6_y_0_to_fp16)[name = tensor<string, []>("add_6_cast")];
            tensor<fp16, [2, 32, 1, 1, 1]> sqrt_3_cast = sqrt(x = add_6_cast)[name = tensor<string, []>("sqrt_3_cast")];
            tensor<fp16, [2, 32, 10, 64, 64]> real_div_3_cast = real_div(x = sub_6_cast, y = sqrt_3_cast)[name = tensor<string, []>("real_div_3_cast")];
            tensor<int32, [4]> reshape_13_shape_0 = const()[name = tensor<string, []>("reshape_13_shape_0"), val = tensor<int32, [4]>([2, 320, 64, 64])];
            tensor<fp16, [2, 320, 64, 64]> reshape_13_cast = reshape(shape = reshape_13_shape_0, x = real_div_3_cast)[name = tensor<string, []>("reshape_13_cast")];
            tensor<fp16, [320]> add_7_gamma_0_to_fp16 = const()[name = tensor<string, []>("add_7_gamma_0_to_fp16"), val = tensor<fp16, [320]>(BLOBFILE(path = tensor<string, []>("@model_path/weights/weight.bin"), offset = tensor<uint64, []>(5290432)))];
            tensor<fp16, [320]> add_7_beta_0_to_fp16 = const()[name = tensor<string, []>("add_7_beta_0_to_fp16"), val = tensor<fp16, [320]>(BLOBFILE(path = tensor<string, []>("@model_path/weights/weight.bin"), offset = tensor<uint64, []>(5291136)))];
            tensor<fp16, []> add_7_epsilon_0_to_fp16 = const()[name = tensor<string, []>("add_7_epsilon_0_to_fp16"), val = tensor<fp16, []>(0x1.5p-17)];
            tensor<fp16, [2, 320, 64, 64]> add_7_cast = batch_norm(beta = add_7_beta_0_to_fp16, epsilon = add_7_epsilon_0_to_fp16, gamma = add_7_gamma_0_to_fp16, mean = add_1_mean_0_to_fp16, variance = add_1_variance_0_to_fp16, x = reshape_13_cast)[name = tensor<string, []>("add_7_cast")];
            tensor<fp16, [2, 320, 64, 64]> input_39_cast = silu(x = add_7_cast)[name = tensor<string, []>("input_39_cast")];
            tensor<int32, [2]> var_382 = const()[name = tensor<string, []>("op_382"), val = tensor<int32, [2]>([1, 1])];
            tensor<int32, [2]> var_384 = const()[name = tensor<string, []>("op_384"), val = tensor<int32, [2]>([1, 1])];
            tensor<string, []> hidden_states_19_pad_type_0 = const()[name = tensor<string, []>("hidden_states_19_pad_type_0"), val = tensor<string, []>("custom")];
            tensor<int32, [4]> hidden_states_19_pad_0 = const()[name = tensor<string, []>("hidden_states_19_pad_0"), val = tensor<int32, [4]>([1, 1, 1, 1])];
            tensor<fp16, [320, 320, 3, 3]> down_blocks_0_resnets_1_conv1_weight_to_fp16_palettized = constexpr_lut_to_dense()[indices = tensor<uint8, [691200]>(BLOBFILE(path = tensor<string, []>("@model_path/weights/weight.bin"), offset = tensor<uint64, []>(5291840))), lut = tensor<fp16, [64]>(BLOBFILE(path = tensor<string, []>("@model_path/weights/weight.bin"), offset = tensor<uint64, []>(5983104))), name = tensor<string, []>("down_blocks_0_resnets_1_conv1_weight_to_fp16_palettized"), shape = tensor<uint32, [4]>([320, 320, 3, 3])];
            tensor<fp16, [320]> down_blocks_0_resnets_1_conv1_bias_to_fp16 = const()[name = tensor<string, []>("down_blocks_0_resnets_1_conv1_bias_to_fp16"), val = tensor<fp16, [320]>(BLOBFILE(path = tensor<string, []>("@model_path/weights/weight.bin"), offset = tensor<uint64, []>(5983296)))];
            tensor<fp16, [2, 320, 64, 64]> hidden_states_19_cast = conv(bias = down_blocks_0_resnets_1_conv1_bias_to_fp16, dilations = var_384, groups = var_111, pad = hidden_states_19_pad_0, pad_type = hidden_states_19_pad_type_0, strides = var_382, weight = down_blocks_0_resnets_1_conv1_weight_to_fp16_palettized, x = input_39_cast)[name = tensor<string, []>("hidden_states_19_cast")];
            tensor<int32, [2]> var_390 = const()[name = tensor<string, []>("op_390"), val = tensor<int32, [2]>([1, 1])];
            tensor<int32, [2]> var_392 = const()[name = tensor<string, []>("op_392"), val = tensor<int32, [2]>([1, 1])];
            tensor<string, []> temb_3_pad_type_0 = const()[name = tensor<string, []>("temb_3_pad_type_0"), val = tensor<string, []>("custom")];
            tensor<int32, [4]> temb_3_pad_0 = const()[name = tensor<string, []>("temb_3_pad_0"), val = tensor<int32, [4]>([0, 0, 0, 0])];
            tensor<fp16, [320, 1280, 1, 1]> down_blocks_0_resnets_1_time_emb_proj_weight_to_fp16_palettized = constexpr_lut_to_dense()[indices = tensor<uint8, [307200]>(BLOBFILE(path = tensor<string, []>("@model_path/weights/weight.bin"), offset = tensor<uint64, []>(5984000))), lut = tensor<fp16, [64]>(BLOBFILE(path = tensor<string, []>("@model_path/weights/weight.bin"), offset = tensor<uint64, []>(6291264))), name = tensor<string, []>("down_blocks_0_resnets_1_time_emb_proj_weight_to_fp16_palettized"), shape = tensor<uint32, [4]>([320, 1280, 1, 1])];
            tensor<fp16, [320]> down_blocks_0_resnets_1_time_emb_proj_bias_to_fp16 = const()[name = tensor<string, []>("down_blocks_0_resnets_1_time_emb_proj_bias_to_fp16"), val = tensor<fp16, [320]>(BLOBFILE(path = tensor<string, []>("@model_path/weights/weight.bin"), offset = tensor<uint64, []>(6291456)))];
            tensor<fp16, [2, 320, 1, 1]> temb_3_cast = conv(bias = down_blocks_0_resnets_1_time_emb_proj_bias_to_fp16, dilations = var_392, groups = var_111, pad = temb_3_pad_0, pad_type = temb_3_pad_type_0, strides = var_390, weight = down_blocks_0_resnets_1_time_emb_proj_weight_to_fp16_palettized, x = input_15_cast)[name = tensor<string, []>("temb_3_cast")];
            tensor<fp16, [2, 320, 64, 64]> input_43_cast = add(x = hidden_states_19_cast, y = temb_3_cast)[name = tensor<string, []>("input_43_cast")];
            tensor<int32, [5]> reshape_16_shape_0 = const()[name = tensor<string, []>("reshape_16_shape_0"), val = tensor<int32, [5]>([2, 32, 10, 64, 64])];
            tensor<fp16, [2, 32, 10, 64, 64]> reshape_16_cast = reshape(shape = reshape_16_shape_0, x = input_43_cast)[name = tensor<string, []>("reshape_16_cast")];
            tensor<int32, [3]> reduce_mean_12_axes_0 = const()[name = tensor<string, []>("reduce_mean_12_axes_0"), val = tensor<int32, [3]>([2, 3, 4])];
            tensor<bool, []> reduce_mean_12_keep_dims_0 = const()[name = tensor<string, []>("reduce_mean_12_keep_dims_0"), val = tensor<bool, []>(true)];
            tensor<fp16, [2, 32, 1, 1, 1]> reduce_mean_12_cast = reduce_mean(axes = reduce_mean_12_axes_0, keep_dims = reduce_mean_12_keep_dims_0, x = reshape_16_cast)[name = tensor<string, []>("reduce_mean_12_cast")];
            tensor<fp16, [2, 32, 10, 64, 64]> sub_8_cast = sub(x = reshape_16_cast, y = reduce_mean_12_cast)[name = tensor<string, []>("sub_8_cast")];
            tensor<fp16, [2, 32, 10, 64, 64]> square_4_cast = square(x = sub_8_cast)[name = tensor<string, []>("square_4_cast")];
            tensor<int32, [3]> reduce_mean_14_axes_0 = const()[name = tensor<string, []>("reduce_mean_14_axes_0"), val = tensor<int32, [3]>([2, 3, 4])];
            tensor<bool, []> reduce_mean_14_keep_dims_0 = const()[name = tensor<string, []>("reduce_mean_14_keep_dims_0"), val = tensor<bool, []>(true)];
            tensor<fp16, [2, 32, 1, 1, 1]> reduce_mean_14_cast = reduce_mean(axes = reduce_mean_14_axes_0, keep_dims = reduce_mean_14_keep_dims_0, x = square_4_cast)[name = tensor<string, []>("reduce_mean_14_cast")];
            tensor<fp16, []> add_8_y_0_to_fp16 = const()[name = tensor<string, []>("add_8_y_0_to_fp16"), val = tensor<fp16, []>(0x1.5p-17)];
            tensor<fp16, [2, 32, 1, 1, 1]> add_8_cast = add(x = reduce_mean_14_cast, y = add_8_y_0_to_fp16)[name = tensor<string, []>("add_8_cast")];
            tensor<fp16, [2, 32, 1, 1, 1]> sqrt_4_cast = sqrt(x = add_8_cast)[name = tensor<string, []>("sqrt_4_cast")];
            tensor<fp16, [2, 32, 10, 64, 64]> real_div_4_cast = real_div(x = sub_8_cast, y = sqrt_4_cast)[name = tensor<string, []>("real_div_4_cast")];
            tensor<int32, [4]> reshape_17_shape_0 = const()[name = tensor<string, []>("reshape_17_shape_0"), val = tensor<int32, [4]>([2, 320, 64, 64])];
            tensor<fp16, [2, 320, 64, 64]> reshape_17_cast = reshape(shape = reshape_17_shape_0, x = real_div_4_cast)[name = tensor<string, []>("reshape_17_cast")];
            tensor<fp16, [320]> add_9_gamma_0_to_fp16 = const()[name = tensor<string, []>("add_9_gamma_0_to_fp16"), val = tensor<fp16, [320]>(BLOBFILE(path = tensor<string, []>("@model_path/weights/weight.bin"), offset = tensor<uint64, []>(6292160)))];
            tensor<fp16, [320]> add_9_beta_0_to_fp16 = const()[name = tensor<string, []>("add_9_beta_0_to_fp16"), val = tensor<fp16, [320]>(BLOBFILE(path = tensor<string, []>("@model_path/weights/weight.bin"), offset = tensor<uint64, []>(6292864)))];
            tensor<fp16, []> add_9_epsilon_0_to_fp16 = const()[name = tensor<string, []>("add_9_epsilon_0_to_fp16"), val = tensor<fp16, []>(0x1.5p-17)];
            tensor<fp16, [2, 320, 64, 64]> add_9_cast = batch_norm(beta = add_9_beta_0_to_fp16, epsilon = add_9_epsilon_0_to_fp16, gamma = add_9_gamma_0_to_fp16, mean = add_1_mean_0_to_fp16, variance = add_1_variance_0_to_fp16, x = reshape_17_cast)[name = tensor<string, []>("add_9_cast")];
            tensor<fp16, [2, 320, 64, 64]> input_47_cast = silu(x = add_9_cast)[name = tensor<string, []>("input_47_cast")];
            tensor<int32, [2]> var_402 = const()[name = tensor<string, []>("op_402"), val = tensor<int32, [2]>([1, 1])];
            tensor<int32, [2]> var_404 = const()[name = tensor<string, []>("op_404"), val = tensor<int32, [2]>([1, 1])];
            tensor<string, []> hidden_states_21_pad_type_0 = const()[name = tensor<string, []>("hidden_states_21_pad_type_0"), val = tensor<string, []>("custom")];
            tensor<int32, [4]> hidden_states_21_pad_0 = const()[name = tensor<string, []>("hidden_states_21_pad_0"), val = tensor<int32, [4]>([1, 1, 1, 1])];
            tensor<fp16, [320, 320, 3, 3]> down_blocks_0_resnets_1_conv2_weight_to_fp16_palettized = constexpr_lut_to_dense()[indices = tensor<uint8, [691200]>(BLOBFILE(path = tensor<string, []>("@model_path/weights/weight.bin"), offset = tensor<uint64, []>(6293568))), lut = tensor<fp16, [64]>(BLOBFILE(path = tensor<string, []>("@model_path/weights/weight.bin"), offset = tensor<uint64, []>(6984832))), name = tensor<string, []>("down_blocks_0_resnets_1_conv2_weight_to_fp16_palettized"), shape = tensor<uint32, [4]>([320, 320, 3, 3])];
            tensor<fp16, [320]> down_blocks_0_resnets_1_conv2_bias_to_fp16 = const()[name = tensor<string, []>("down_blocks_0_resnets_1_conv2_bias_to_fp16"), val = tensor<fp16, [320]>(BLOBFILE(path = tensor<string, []>("@model_path/weights/weight.bin"), offset = tensor<uint64, []>(6985024)))];
            tensor<fp16, [2, 320, 64, 64]> hidden_states_21_cast = conv(bias = down_blocks_0_resnets_1_conv2_bias_to_fp16, dilations = var_404, groups = var_111, pad = hidden_states_21_pad_0, pad_type = hidden_states_21_pad_type_0, strides = var_402, weight = down_blocks_0_resnets_1_conv2_weight_to_fp16_palettized, x = input_47_cast)[name = tensor<string, []>("hidden_states_21_cast")];
            tensor<fp16, [2, 320, 64, 64]> hidden_states_23_cast = add(x = input_35_cast, y = hidden_states_21_cast)[name = tensor<string, []>("hidden_states_23_cast")];
            tensor<int32, [5]> reshape_20_shape_0 = const()[name = tensor<string, []>("reshape_20_shape_0"), val = tensor<int32, [5]>([2, 32, 10, 64, 64])];
            tensor<fp16, [2, 32, 10, 64, 64]> reshape_20_cast = reshape(shape = reshape_20_shape_0, x = hidden_states_23_cast)[name = tensor<string, []>("reshape_20_cast")];
            tensor<int32, [3]> reduce_mean_15_axes_0 = const()[name = tensor<string, []>("reduce_mean_15_axes_0"), val = tensor<int32, [3]>([2, 3, 4])];
            tensor<bool, []> reduce_mean_15_keep_dims_0 = const()[name = tensor<string, []>("reduce_mean_15_keep_dims_0"), val = tensor<bool, []>(true)];
            tensor<fp16, [2, 32, 1, 1, 1]> reduce_mean_15_cast = reduce_mean(axes = reduce_mean_15_axes_0, keep_dims = reduce_mean_15_keep_dims_0, x = reshape_20_cast)[name = tensor<string, []>("reduce_mean_15_cast")];
            tensor<fp16, [2, 32, 10, 64, 64]> sub_10_cast = sub(x = reshape_20_cast, y = reduce_mean_15_cast)[name = tensor<string, []>("sub_10_cast")];
            tensor<fp16, [2, 32, 10, 64, 64]> square_5_cast = square(x = sub_10_cast)[name = tensor<string, []>("square_5_cast")];
            tensor<int32, [3]> reduce_mean_17_axes_0 = const()[name = tensor<string, []>("reduce_mean_17_axes_0"), val = tensor<int32, [3]>([2, 3, 4])];
            tensor<bool, []> reduce_mean_17_keep_dims_0 = const()[name = tensor<string, []>("reduce_mean_17_keep_dims_0"), val = tensor<bool, []>(true)];
            tensor<fp16, [2, 32, 1, 1, 1]> reduce_mean_17_cast = reduce_mean(axes = reduce_mean_17_axes_0, keep_dims = reduce_mean_17_keep_dims_0, x = square_5_cast)[name = tensor<string, []>("reduce_mean_17_cast")];
            tensor<fp16, []> add_10_y_0_to_fp16 = const()[name = tensor<string, []>("add_10_y_0_to_fp16"), val = tensor<fp16, []>(0x1.1p-20)];
            tensor<fp16, [2, 32, 1, 1, 1]> add_10_cast = add(x = reduce_mean_17_cast, y = add_10_y_0_to_fp16)[name = tensor<string, []>("add_10_cast")];
            tensor<fp16, [2, 32, 1, 1, 1]> sqrt_5_cast = sqrt(x = add_10_cast)[name = tensor<string, []>("sqrt_5_cast")];
            tensor<fp16, [2, 32, 10, 64, 64]> real_div_5_cast = real_div(x = sub_10_cast, y = sqrt_5_cast)[name = tensor<string, []>("real_div_5_cast")];
            tensor<int32, [4]> reshape_21_shape_0 = const()[name = tensor<string, []>("reshape_21_shape_0"), val = tensor<int32, [4]>([2, 320, 64, 64])];
            tensor<fp16, [2, 320, 64, 64]> reshape_21_cast = reshape(shape = reshape_21_shape_0, x = real_div_5_cast)[name = tensor<string, []>("reshape_21_cast")];
            tensor<fp16, [320]> add_11_gamma_0_to_fp16 = const()[name = tensor<string, []>("add_11_gamma_0_to_fp16"), val = tensor<fp16, [320]>(BLOBFILE(path = tensor<string, []>("@model_path/weights/weight.bin"), offset = tensor<uint64, []>(6985728)))];
            tensor<fp16, [320]> add_11_beta_0_to_fp16 = const()[name = tensor<string, []>("add_11_beta_0_to_fp16"), val = tensor<fp16, [320]>(BLOBFILE(path = tensor<string, []>("@model_path/weights/weight.bin"), offset = tensor<uint64, []>(6986432)))];
            tensor<fp16, []> add_11_epsilon_0_to_fp16 = const()[name = tensor<string, []>("add_11_epsilon_0_to_fp16"), val = tensor<fp16, []>(0x1.5p-17)];
            tensor<fp16, [2, 320, 64, 64]> add_11_cast = batch_norm(beta = add_11_beta_0_to_fp16, epsilon = add_11_epsilon_0_to_fp16, gamma = add_11_gamma_0_to_fp16, mean = add_1_mean_0_to_fp16, variance = add_1_variance_0_to_fp16, x = reshape_21_cast)[name = tensor<string, []>("add_11_cast")];
            tensor<int32, [2]> var_424 = const()[name = tensor<string, []>("op_424"), val = tensor<int32, [2]>([1, 1])];
            tensor<int32, [2]> var_426 = const()[name = tensor<string, []>("op_426"), val = tensor<int32, [2]>([1, 1])];
            tensor<string, []> hidden_states_25_pad_type_0 = const()[name = tensor<string, []>("hidden_states_25_pad_type_0"), val = tensor<string, []>("custom")];
            tensor<int32, [4]> hidden_states_25_pad_0 = const()[name = tensor<string, []>("hidden_states_25_pad_0"), val = tensor<int32, [4]>([0, 0, 0, 0])];
            tensor<fp16, [320, 320, 1, 1]> down_blocks_0_attentions_1_proj_in_weight_to_fp16_palettized = constexpr_lut_to_dense()[indices = tensor<uint8, [76800]>(BLOBFILE(path = tensor<string, []>("@model_path/weights/weight.bin"), offset = tensor<uint64, []>(6987136))), lut = tensor<fp16, [64]>(BLOBFILE(path = tensor<string, []>("@model_path/weights/weight.bin"), offset = tensor<uint64, []>(7064000))), name = tensor<string, []>("down_blocks_0_attentions_1_proj_in_weight_to_fp16_palettized"), shape = tensor<uint32, [4]>([320, 320, 1, 1])];
            tensor<fp16, [320]> down_blocks_0_attentions_1_proj_in_bias_to_fp16 = const()[name = tensor<string, []>("down_blocks_0_attentions_1_proj_in_bias_to_fp16"), val = tensor<fp16, [320]>(BLOBFILE(path = tensor<string, []>("@model_path/weights/weight.bin"), offset = tensor<uint64, []>(7064192)))];
            tensor<fp16, [2, 320, 64, 64]> hidden_states_25_cast = conv(bias = down_blocks_0_attentions_1_proj_in_bias_to_fp16, dilations = var_426, groups = var_111, pad = hidden_states_25_pad_0, pad_type = hidden_states_25_pad_type_0, strides = var_424, weight = down_blocks_0_attentions_1_proj_in_weight_to_fp16_palettized, x = add_11_cast)[name = tensor<string, []>("hidden_states_25_cast")];
            tensor<int32, [4]> var_431 = const()[name = tensor<string, []>("op_431"), val = tensor<int32, [4]>([2, 320, 1, 4096])];
            tensor<fp16, [2, 320, 1, 4096]> inputs_7_cast = reshape(shape = var_431, x = hidden_states_25_cast)[name = tensor<string, []>("inputs_7_cast")];
            tensor<int32, [1]> var_441 = const()[name = tensor<string, []>("op_441"), val = tensor<int32, [1]>([1])];
            tensor<fp16, [2, 1, 1, 4096]> channels_mean_7_cast = reduce_mean(axes = var_441, keep_dims = var_106, x = inputs_7_cast)[name = tensor<string, []>("channels_mean_7_cast")];
            tensor<fp16, [2, 320, 1, 4096]> zero_mean_7_cast = sub(x = inputs_7_cast, y = channels_mean_7_cast)[name = tensor<string, []>("zero_mean_7_cast")];
            tensor<fp16, [2, 320, 1, 4096]> zero_mean_sq_7_cast = mul(x = zero_mean_7_cast, y = zero_mean_7_cast)[name = tensor<string, []>("zero_mean_sq_7_cast")];
            tensor<int32, [1]> var_445 = const()[name = tensor<string, []>("op_445"), val = tensor<int32, [1]>([1])];
            tensor<fp16, [2, 1, 1, 4096]> var_446_cast = reduce_mean(axes = var_445, keep_dims = var_106, x = zero_mean_sq_7_cast)[name = tensor<string, []>("op_446_cast")];
            tensor<fp16, []> var_447_to_fp16 = const()[name = tensor<string, []>("op_447_to_fp16"), val = tensor<fp16, []>(0x1.5p-17)];
            tensor<fp16, [2, 1, 1, 4096]> var_448_cast = add(x = var_446_cast, y = var_447_to_fp16)[name = tensor<string, []>("op_448_cast")];
            tensor<fp16, []> denom_7_epsilon_0_to_fp16 = const()[name = tensor<string, []>("denom_7_epsilon_0_to_fp16"), val = tensor<fp16, []>(0x1p-24)];
            tensor<fp16, [2, 1, 1, 4096]> denom_7_cast = rsqrt(epsilon = denom_7_epsilon_0_to_fp16, x = var_448_cast)[name = tensor<string, []>("denom_7_cast")];
            tensor<fp16, [2, 320, 1, 4096]> out_7_cast = mul(x = zero_mean_7_cast, y = denom_7_cast)[name = tensor<string, []>("out_7_cast")];
            tensor<fp16, [1, 320, 1, 1]> var_452_to_fp16 = const()[name = tensor<string, []>("op_452_to_fp16"), val = tensor<fp16, [1, 320, 1, 1]>(BLOBFILE(path = tensor<string, []>("@model_path/weights/weight.bin"), offset = tensor<uint64, []>(7064896)))];
            tensor<fp16, [2, 320, 1, 4096]> var_453_cast = add(x = out_7_cast, y = var_452_to_fp16)[name = tensor<string, []>("op_453_cast")];
            tensor<fp16, [1, 320, 1, 1]> var_455_to_fp16 = const()[name = tensor<string, []>("op_455_to_fp16"), val = tensor<fp16, [1, 320, 1, 1]>(BLOBFILE(path = tensor<string, []>("@model_path/weights/weight.bin"), offset = tensor<uint64, []>(7065600)))];
            tensor<fp16, [2, 320, 1, 4096]> hidden_states_27_cast = mul(x = var_453_cast, y = var_455_to_fp16)[name = tensor<string, []>("hidden_states_27_cast")];
            tensor<int32, [2]> var_462 = const()[name = tensor<string, []>("op_462"), val = tensor<int32, [2]>([1, 1])];
            tensor<int32, [2]> var_464 = const()[name = tensor<string, []>("op_464"), val = tensor<int32, [2]>([1, 1])];
            tensor<string, []> q_5_pad_type_0 = const()[name = tensor<string, []>("q_5_pad_type_0"), val = tensor<string, []>("custom")];
            tensor<int32, [4]> q_5_pad_0 = const()[name = tensor<string, []>("q_5_pad_0"), val = tensor<int32, [4]>([0, 0, 0, 0])];
            tensor<fp16, [320, 320, 1, 1]> down_blocks_0_attentions_1_transformer_blocks_0_attn1_to_q_weight_to_fp16_palettized = constexpr_lut_to_dense()[indices = tensor<uint8, [76800]>(BLOBFILE(path = tensor<string, []>("@model_path/weights/weight.bin"), offset = tensor<uint64, []>(7066304))), lut = tensor<fp16, [64]>(BLOBFILE(path = tensor<string, []>("@model_path/weights/weight.bin"), offset = tensor<uint64, []>(7143168))), name = tensor<string, []>("down_blocks_0_attentions_1_transformer_blocks_0_attn1_to_q_weight_to_fp16_palettized"), shape = tensor<uint32, [4]>([320, 320, 1, 1])];
            tensor<fp16, [2, 320, 1, 4096]> q_5_cast = conv(dilations = var_464, groups = var_111, pad = q_5_pad_0, pad_type = q_5_pad_type_0, strides = var_462, weight = down_blocks_0_attentions_1_transformer_blocks_0_attn1_to_q_weight_to_fp16_palettized, x = hidden_states_27_cast)[name = tensor<string, []>("q_5_cast")];
            tensor<int32, [2]> var_468 = const()[name = tensor<string, []>("op_468"), val = tensor<int32, [2]>([1, 1])];
            tensor<int32, [2]> var_470 = const()[name = tensor<string, []>("op_470"), val = tensor<int32, [2]>([1, 1])];
            tensor<string, []> k_5_pad_type_0 = const()[name = tensor<string, []>("k_5_pad_type_0"), val = tensor<string, []>("custom")];
            tensor<int32, [4]> k_5_pad_0 = const()[name = tensor<string, []>("k_5_pad_0"), val = tensor<int32, [4]>([0, 0, 0, 0])];
            tensor<fp16, [320, 320, 1, 1]> down_blocks_0_attentions_1_transformer_blocks_0_attn1_to_k_weight_to_fp16_palettized = constexpr_lut_to_dense()[indices = tensor<uint8, [76800]>(BLOBFILE(path = tensor<string, []>("@model_path/weights/weight.bin"), offset = tensor<uint64, []>(7143360))), lut = tensor<fp16, [64]>(BLOBFILE(path = tensor<string, []>("@model_path/weights/weight.bin"), offset = tensor<uint64, []>(7220224))), name = tensor<string, []>("down_blocks_0_attentions_1_transformer_blocks_0_attn1_to_k_weight_to_fp16_palettized"), shape = tensor<uint32, [4]>([320, 320, 1, 1])];
            tensor<fp16, [2, 320, 1, 4096]> k_5_cast = conv(dilations = var_470, groups = var_111, pad = k_5_pad_0, pad_type = k_5_pad_type_0, strides = var_468, weight = down_blocks_0_attentions_1_transformer_blocks_0_attn1_to_k_weight_to_fp16_palettized, x = hidden_states_27_cast)[name = tensor<string, []>("k_5_cast")];
            tensor<int32, [2]> var_474 = const()[name = tensor<string, []>("op_474"), val = tensor<int32, [2]>([1, 1])];
            tensor<int32, [2]> var_476 = const()[name = tensor<string, []>("op_476"), val = tensor<int32, [2]>([1, 1])];
            tensor<string, []> v_5_pad_type_0 = const()[name = tensor<string, []>("v_5_pad_type_0"), val = tensor<string, []>("custom")];
            tensor<int32, [4]> v_5_pad_0 = const()[name = tensor<string, []>("v_5_pad_0"), val = tensor<int32, [4]>([0, 0, 0, 0])];
            tensor<fp16, [320, 320, 1, 1]> down_blocks_0_attentions_1_transformer_blocks_0_attn1_to_v_weight_to_fp16_palettized = constexpr_lut_to_dense()[indices = tensor<uint8, [76800]>(BLOBFILE(path = tensor<string, []>("@model_path/weights/weight.bin"), offset = tensor<uint64, []>(7220416))), lut = tensor<fp16, [64]>(BLOBFILE(path = tensor<string, []>("@model_path/weights/weight.bin"), offset = tensor<uint64, []>(7297280))), name = tensor<string, []>("down_blocks_0_attentions_1_transformer_blocks_0_attn1_to_v_weight_to_fp16_palettized"), shape = tensor<uint32, [4]>([320, 320, 1, 1])];
            tensor<fp16, [2, 320, 1, 4096]> v_5_cast = conv(dilations = var_476, groups = var_111, pad = v_5_pad_0, pad_type = v_5_pad_type_0, strides = var_474, weight = down_blocks_0_attentions_1_transformer_blocks_0_attn1_to_v_weight_to_fp16_palettized, x = hidden_states_27_cast)[name = tensor<string, []>("v_5_cast")];
            tensor<int32, [4]> var_480 = const()[name = tensor<string, []>("op_480"), val = tensor<int32, [4]>([2, 5, 64, -1])];
            tensor<fp16, [2, 5, 64, 4096]> var_481_cast = reshape(shape = var_480, x = q_5_cast)[name = tensor<string, []>("op_481_cast")];
            tensor<int32, [4]> var_482 = const()[name = tensor<string, []>("op_482"), val = tensor<int32, [4]>([2, 5, 64, -1])];
            tensor<fp16, [2, 5, 64, 4096]> var_483_cast = reshape(shape = var_482, x = k_5_cast)[name = tensor<string, []>("op_483_cast")];
            tensor<int32, [4]> var_484 = const()[name = tensor<string, []>("op_484"), val = tensor<int32, [4]>([2, 5, 64, -1])];
            tensor<fp16, [2, 5, 64, 4096]> var_485_cast = reshape(shape = var_484, x = v_5_cast)[name = tensor<string, []>("op_485_cast")];
            tensor<bool, []> attn_weights_9_transpose_x_0 = const()[name = tensor<string, []>("attn_weights_9_transpose_x_0"), val = tensor<bool, []>(true)];
            tensor<bool, []> attn_weights_9_transpose_y_0 = const()[name = tensor<string, []>("attn_weights_9_transpose_y_0"), val = tensor<bool, []>(false)];
            tensor<fp16, [2, 5, 4096, 4096]> attn_weights_9_cast = matmul(transpose_x = attn_weights_9_transpose_x_0, transpose_y = attn_weights_9_transpose_y_0, x = var_481_cast, y = var_483_cast)[name = tensor<string, []>("attn_weights_9_cast")];
            tensor<fp16, [2, 5, 4096, 4096]> attn_weights_11_cast = mul(x = attn_weights_9_cast, y = var_102_to_fp16)[name = tensor<string, []>("attn_weights_11_cast")];
            tensor<fp16, [2, 5, 4096, 4096]> var_489_cast = softmax(axis = var_95, x = attn_weights_11_cast)[name = tensor<string, []>("op_489_cast")];
            tensor<bool, []> attn_5_transpose_x_0 = const()[name = tensor<string, []>("attn_5_transpose_x_0"), val = tensor<bool, []>(false)];
            tensor<bool, []> attn_5_transpose_y_0 = const()[name = tensor<string, []>("attn_5_transpose_y_0"), val = tensor<bool, []>(true)];
            tensor<fp16, [2, 5, 64, 4096]> attn_5_cast = matmul(transpose_x = attn_5_transpose_x_0, transpose_y = attn_5_transpose_y_0, x = var_485_cast, y = var_489_cast)[name = tensor<string, []>("attn_5_cast")];
            tensor<int32, [4]> var_493 = const()[name = tensor<string, []>("op_493"), val = tensor<int32, [4]>([2, 320, 1, -1])];
            tensor<fp16, [2, 320, 1, 4096]> input_51_cast = reshape(shape = var_493, x = attn_5_cast)[name = tensor<string, []>("input_51_cast")];
            tensor<int32, [2]> var_498 = const()[name = tensor<string, []>("op_498"), val = tensor<int32, [2]>([1, 1])];
            tensor<int32, [2]> var_500 = const()[name = tensor<string, []>("op_500"), val = tensor<int32, [2]>([1, 1])];
            tensor<string, []> var_502_pad_type_0 = const()[name = tensor<string, []>("op_502_pad_type_0"), val = tensor<string, []>("custom")];
            tensor<int32, [4]> var_502_pad_0 = const()[name = tensor<string, []>("op_502_pad_0"), val = tensor<int32, [4]>([0, 0, 0, 0])];
            tensor<fp16, [320, 320, 1, 1]> down_blocks_0_attentions_1_transformer_blocks_0_attn1_to_out_0_weight_to_fp16_palettized = constexpr_lut_to_dense()[indices = tensor<uint8, [76800]>(BLOBFILE(path = tensor<string, []>("@model_path/weights/weight.bin"), offset = tensor<uint64, []>(7297472))), lut = tensor<fp16, [64]>(BLOBFILE(path = tensor<string, []>("@model_path/weights/weight.bin"), offset = tensor<uint64, []>(7374336))), name = tensor<string, []>("down_blocks_0_attentions_1_transformer_blocks_0_attn1_to_out_0_weight_to_fp16_palettized"), shape = tensor<uint32, [4]>([320, 320, 1, 1])];
            tensor<fp16, [320]> down_blocks_0_attentions_1_transformer_blocks_0_attn1_to_out_0_bias_to_fp16 = const()[name = tensor<string, []>("down_blocks_0_attentions_1_transformer_blocks_0_attn1_to_out_0_bias_to_fp16"), val = tensor<fp16, [320]>(BLOBFILE(path = tensor<string, []>("@model_path/weights/weight.bin"), offset = tensor<uint64, []>(7374528)))];
            tensor<fp16, [2, 320, 1, 4096]> var_502_cast = conv(bias = down_blocks_0_attentions_1_transformer_blocks_0_attn1_to_out_0_bias_to_fp16, dilations = var_500, groups = var_111, pad = var_502_pad_0, pad_type = var_502_pad_type_0, strides = var_498, weight = down_blocks_0_attentions_1_transformer_blocks_0_attn1_to_out_0_weight_to_fp16_palettized, x = input_51_cast)[name = tensor<string, []>("op_502_cast")];
            tensor<fp16, [2, 320, 1, 4096]> inputs_9_cast = add(x = var_502_cast, y = inputs_7_cast)[name = tensor<string, []>("inputs_9_cast")];
            tensor<int32, [1]> var_506 = const()[name = tensor<string, []>("op_506"), val = tensor<int32, [1]>([1])];
            tensor<fp16, [2, 1, 1, 4096]> channels_mean_9_cast = reduce_mean(axes = var_506, keep_dims = var_106, x = inputs_9_cast)[name = tensor<string, []>("channels_mean_9_cast")];
            tensor<fp16, [2, 320, 1, 4096]> zero_mean_9_cast = sub(x = inputs_9_cast, y = channels_mean_9_cast)[name = tensor<string, []>("zero_mean_9_cast")];
            tensor<fp16, [2, 320, 1, 4096]> zero_mean_sq_9_cast = mul(x = zero_mean_9_cast, y = zero_mean_9_cast)[name = tensor<string, []>("zero_mean_sq_9_cast")];
            tensor<int32, [1]> var_510 = const()[name = tensor<string, []>("op_510"), val = tensor<int32, [1]>([1])];
            tensor<fp16, [2, 1, 1, 4096]> var_511_cast = reduce_mean(axes = var_510, keep_dims = var_106, x = zero_mean_sq_9_cast)[name = tensor<string, []>("op_511_cast")];
            tensor<fp16, []> var_512_to_fp16 = const()[name = tensor<string, []>("op_512_to_fp16"), val = tensor<fp16, []>(0x1.5p-17)];
            tensor<fp16, [2, 1, 1, 4096]> var_513_cast = add(x = var_511_cast, y = var_512_to_fp16)[name = tensor<string, []>("op_513_cast")];
            tensor<fp16, []> denom_9_epsilon_0_to_fp16 = const()[name = tensor<string, []>("denom_9_epsilon_0_to_fp16"), val = tensor<fp16, []>(0x1p-24)];
            tensor<fp16, [2, 1, 1, 4096]> denom_9_cast = rsqrt(epsilon = denom_9_epsilon_0_to_fp16, x = var_513_cast)[name = tensor<string, []>("denom_9_cast")];
            tensor<fp16, [2, 320, 1, 4096]> out_9_cast = mul(x = zero_mean_9_cast, y = denom_9_cast)[name = tensor<string, []>("out_9_cast")];
            tensor<fp16, [1, 320, 1, 1]> var_517_to_fp16 = const()[name = tensor<string, []>("op_517_to_fp16"), val = tensor<fp16, [1, 320, 1, 1]>(BLOBFILE(path = tensor<string, []>("@model_path/weights/weight.bin"), offset = tensor<uint64, []>(7375232)))];
            tensor<fp16, [2, 320, 1, 4096]> var_518_cast = add(x = out_9_cast, y = var_517_to_fp16)[name = tensor<string, []>("op_518_cast")];
            tensor<fp16, [1, 320, 1, 1]> var_520_to_fp16 = const()[name = tensor<string, []>("op_520_to_fp16"), val = tensor<fp16, [1, 320, 1, 1]>(BLOBFILE(path = tensor<string, []>("@model_path/weights/weight.bin"), offset = tensor<uint64, []>(7375936)))];
            tensor<fp16, [2, 320, 1, 4096]> hidden_states_29_cast = mul(x = var_518_cast, y = var_520_to_fp16)[name = tensor<string, []>("hidden_states_29_cast")];
            tensor<int32, [2]> var_527 = const()[name = tensor<string, []>("op_527"), val = tensor<int32, [2]>([1, 1])];
            tensor<int32, [2]> var_529 = const()[name = tensor<string, []>("op_529"), val = tensor<int32, [2]>([1, 1])];
            tensor<string, []> q_7_pad_type_0 = const()[name = tensor<string, []>("q_7_pad_type_0"), val = tensor<string, []>("custom")];
            tensor<int32, [4]> q_7_pad_0 = const()[name = tensor<string, []>("q_7_pad_0"), val = tensor<int32, [4]>([0, 0, 0, 0])];
            tensor<fp16, [320, 320, 1, 1]> down_blocks_0_attentions_1_transformer_blocks_0_attn2_to_q_weight_to_fp16_palettized = constexpr_lut_to_dense()[indices = tensor<uint8, [76800]>(BLOBFILE(path = tensor<string, []>("@model_path/weights/weight.bin"), offset = tensor<uint64, []>(7376640))), lut = tensor<fp16, [64]>(BLOBFILE(path = tensor<string, []>("@model_path/weights/weight.bin"), offset = tensor<uint64, []>(7453504))), name = tensor<string, []>("down_blocks_0_attentions_1_transformer_blocks_0_attn2_to_q_weight_to_fp16_palettized"), shape = tensor<uint32, [4]>([320, 320, 1, 1])];
            tensor<fp16, [2, 320, 1, 4096]> q_7_cast = conv(dilations = var_529, groups = var_111, pad = q_7_pad_0, pad_type = q_7_pad_type_0, strides = var_527, weight = down_blocks_0_attentions_1_transformer_blocks_0_attn2_to_q_weight_to_fp16_palettized, x = hidden_states_29_cast)[name = tensor<string, []>("q_7_cast")];
            tensor<int32, [2]> var_533 = const()[name = tensor<string, []>("op_533"), val = tensor<int32, [2]>([1, 1])];
            tensor<int32, [2]> var_535 = const()[name = tensor<string, []>("op_535"), val = tensor<int32, [2]>([1, 1])];
            tensor<string, []> k_7_pad_type_0 = const()[name = tensor<string, []>("k_7_pad_type_0"), val = tensor<string, []>("custom")];
            tensor<int32, [4]> k_7_pad_0 = const()[name = tensor<string, []>("k_7_pad_0"), val = tensor<int32, [4]>([0, 0, 0, 0])];
            tensor<fp16, [320, 1024, 1, 1]> down_blocks_0_attentions_1_transformer_blocks_0_attn2_to_k_weight_to_fp16_palettized = constexpr_lut_to_dense()[indices = tensor<uint8, [245760]>(BLOBFILE(path = tensor<string, []>("@model_path/weights/weight.bin"), offset = tensor<uint64, []>(7453696))), lut = tensor<fp16, [64]>(BLOBFILE(path = tensor<string, []>("@model_path/weights/weight.bin"), offset = tensor<uint64, []>(7699520))), name = tensor<string, []>("down_blocks_0_attentions_1_transformer_blocks_0_attn2_to_k_weight_to_fp16_palettized"), shape = tensor<uint32, [4]>([320, 1024, 1, 1])];
            tensor<fp16, [2, 320, 1, 77]> k_7_cast = conv(dilations = var_535, groups = var_111, pad = k_7_pad_0, pad_type = k_7_pad_type_0, strides = var_533, weight = down_blocks_0_attentions_1_transformer_blocks_0_attn2_to_k_weight_to_fp16_palettized, x = encoder_hidden_states)[name = tensor<string, []>("k_7_cast")];
            tensor<int32, [2]> var_539 = const()[name = tensor<string, []>("op_539"), val = tensor<int32, [2]>([1, 1])];
            tensor<int32, [2]> var_541 = const()[name = tensor<string, []>("op_541"), val = tensor<int32, [2]>([1, 1])];
            tensor<string, []> v_7_pad_type_0 = const()[name = tensor<string, []>("v_7_pad_type_0"), val = tensor<string, []>("custom")];
            tensor<int32, [4]> v_7_pad_0 = const()[name = tensor<string, []>("v_7_pad_0"), val = tensor<int32, [4]>([0, 0, 0, 0])];
            tensor<fp16, [320, 1024, 1, 1]> down_blocks_0_attentions_1_transformer_blocks_0_attn2_to_v_weight_to_fp16_palettized = constexpr_lut_to_dense()[indices = tensor<uint8, [245760]>(BLOBFILE(path = tensor<string, []>("@model_path/weights/weight.bin"), offset = tensor<uint64, []>(7699712))), lut = tensor<fp16, [64]>(BLOBFILE(path = tensor<string, []>("@model_path/weights/weight.bin"), offset = tensor<uint64, []>(7945536))), name = tensor<string, []>("down_blocks_0_attentions_1_transformer_blocks_0_attn2_to_v_weight_to_fp16_palettized"), shape = tensor<uint32, [4]>([320, 1024, 1, 1])];
            tensor<fp16, [2, 320, 1, 77]> v_7_cast = conv(dilations = var_541, groups = var_111, pad = v_7_pad_0, pad_type = v_7_pad_type_0, strides = var_539, weight = down_blocks_0_attentions_1_transformer_blocks_0_attn2_to_v_weight_to_fp16_palettized, x = encoder_hidden_states)[name = tensor<string, []>("v_7_cast")];
            tensor<int32, [4]> var_545 = const()[name = tensor<string, []>("op_545"), val = tensor<int32, [4]>([2, 5, 64, -1])];
            tensor<fp16, [2, 5, 64, 4096]> var_546_cast = reshape(shape = var_545, x = q_7_cast)[name = tensor<string, []>("op_546_cast")];
            tensor<int32, [4]> var_547 = const()[name = tensor<string, []>("op_547"), val = tensor<int32, [4]>([2, 5, 64, -1])];
            tensor<fp16, [2, 5, 64, 77]> var_548_cast = reshape(shape = var_547, x = k_7_cast)[name = tensor<string, []>("op_548_cast")];
            tensor<int32, [4]> var_549 = const()[name = tensor<string, []>("op_549"), val = tensor<int32, [4]>([2, 5, 64, -1])];
            tensor<fp16, [2, 5, 64, 77]> var_550_cast = reshape(shape = var_549, x = v_7_cast)[name = tensor<string, []>("op_550_cast")];
            tensor<bool, []> attn_weights_13_transpose_x_0 = const()[name = tensor<string, []>("attn_weights_13_transpose_x_0"), val = tensor<bool, []>(true)];
            tensor<bool, []> attn_weights_13_transpose_y_0 = const()[name = tensor<string, []>("attn_weights_13_transpose_y_0"), val = tensor<bool, []>(false)];
            tensor<fp16, [2, 5, 4096, 77]> attn_weights_13_cast = matmul(transpose_x = attn_weights_13_transpose_x_0, transpose_y = attn_weights_13_transpose_y_0, x = var_546_cast, y = var_548_cast)[name = tensor<string, []>("attn_weights_13_cast")];
            tensor<fp16, [2, 5, 4096, 77]> attn_weights_15_cast = mul(x = attn_weights_13_cast, y = var_102_to_fp16)[name = tensor<string, []>("attn_weights_15_cast")];
            tensor<fp16, [2, 5, 4096, 77]> var_554_cast = softmax(axis = var_95, x = attn_weights_15_cast)[name = tensor<string, []>("op_554_cast")];
            tensor<bool, []> attn_7_transpose_x_0 = const()[name = tensor<string, []>("attn_7_transpose_x_0"), val = tensor<bool, []>(false)];
            tensor<bool, []> attn_7_transpose_y_0 = const()[name = tensor<string, []>("attn_7_transpose_y_0"), val = tensor<bool, []>(true)];
            tensor<fp16, [2, 5, 64, 4096]> attn_7_cast = matmul(transpose_x = attn_7_transpose_x_0, transpose_y = attn_7_transpose_y_0, x = var_550_cast, y = var_554_cast)[name = tensor<string, []>("attn_7_cast")];
            tensor<int32, [4]> var_558 = const()[name = tensor<string, []>("op_558"), val = tensor<int32, [4]>([2, 320, 1, -1])];
            tensor<fp16, [2, 320, 1, 4096]> input_53_cast = reshape(shape = var_558, x = attn_7_cast)[name = tensor<string, []>("input_53_cast")];
            tensor<int32, [2]> var_563 = const()[name = tensor<string, []>("op_563"), val = tensor<int32, [2]>([1, 1])];
            tensor<int32, [2]> var_565 = const()[name = tensor<string, []>("op_565"), val = tensor<int32, [2]>([1, 1])];
            tensor<string, []> var_567_pad_type_0 = const()[name = tensor<string, []>("op_567_pad_type_0"), val = tensor<string, []>("custom")];
            tensor<int32, [4]> var_567_pad_0 = const()[name = tensor<string, []>("op_567_pad_0"), val = tensor<int32, [4]>([0, 0, 0, 0])];
            tensor<fp16, [320, 320, 1, 1]> down_blocks_0_attentions_1_transformer_blocks_0_attn2_to_out_0_weight_to_fp16_palettized = constexpr_lut_to_dense()[indices = tensor<uint8, [76800]>(BLOBFILE(path = tensor<string, []>("@model_path/weights/weight.bin"), offset = tensor<uint64, []>(7945728))), lut = tensor<fp16, [64]>(BLOBFILE(path = tensor<string, []>("@model_path/weights/weight.bin"), offset = tensor<uint64, []>(8022592))), name = tensor<string, []>("down_blocks_0_attentions_1_transformer_blocks_0_attn2_to_out_0_weight_to_fp16_palettized"), shape = tensor<uint32, [4]>([320, 320, 1, 1])];
            tensor<fp16, [320]> down_blocks_0_attentions_1_transformer_blocks_0_attn2_to_out_0_bias_to_fp16 = const()[name = tensor<string, []>("down_blocks_0_attentions_1_transformer_blocks_0_attn2_to_out_0_bias_to_fp16"), val = tensor<fp16, [320]>(BLOBFILE(path = tensor<string, []>("@model_path/weights/weight.bin"), offset = tensor<uint64, []>(8022784)))];
            tensor<fp16, [2, 320, 1, 4096]> var_567_cast = conv(bias = down_blocks_0_attentions_1_transformer_blocks_0_attn2_to_out_0_bias_to_fp16, dilations = var_565, groups = var_111, pad = var_567_pad_0, pad_type = var_567_pad_type_0, strides = var_563, weight = down_blocks_0_attentions_1_transformer_blocks_0_attn2_to_out_0_weight_to_fp16_palettized, x = input_53_cast)[name = tensor<string, []>("op_567_cast")];
            tensor<fp16, [2, 320, 1, 4096]> inputs_11_cast = add(x = var_567_cast, y = inputs_9_cast)[name = tensor<string, []>("inputs_11_cast")];
            tensor<int32, [1]> var_571 = const()[name = tensor<string, []>("op_571"), val = tensor<int32, [1]>([1])];
            tensor<fp16, [2, 1, 1, 4096]> channels_mean_11_cast = reduce_mean(axes = var_571, keep_dims = var_106, x = inputs_11_cast)[name = tensor<string, []>("channels_mean_11_cast")];
            tensor<fp16, [2, 320, 1, 4096]> zero_mean_11_cast = sub(x = inputs_11_cast, y = channels_mean_11_cast)[name = tensor<string, []>("zero_mean_11_cast")];
            tensor<fp16, [2, 320, 1, 4096]> zero_mean_sq_11_cast = mul(x = zero_mean_11_cast, y = zero_mean_11_cast)[name = tensor<string, []>("zero_mean_sq_11_cast")];
            tensor<int32, [1]> var_575 = const()[name = tensor<string, []>("op_575"), val = tensor<int32, [1]>([1])];
            tensor<fp16, [2, 1, 1, 4096]> var_576_cast = reduce_mean(axes = var_575, keep_dims = var_106, x = zero_mean_sq_11_cast)[name = tensor<string, []>("op_576_cast")];
            tensor<fp16, []> var_577_to_fp16 = const()[name = tensor<string, []>("op_577_to_fp16"), val = tensor<fp16, []>(0x1.5p-17)];
            tensor<fp16, [2, 1, 1, 4096]> var_578_cast = add(x = var_576_cast, y = var_577_to_fp16)[name = tensor<string, []>("op_578_cast")];
            tensor<fp16, []> denom_11_epsilon_0_to_fp16 = const()[name = tensor<string, []>("denom_11_epsilon_0_to_fp16"), val = tensor<fp16, []>(0x1p-24)];
            tensor<fp16, [2, 1, 1, 4096]> denom_11_cast = rsqrt(epsilon = denom_11_epsilon_0_to_fp16, x = var_578_cast)[name = tensor<string, []>("denom_11_cast")];
            tensor<fp16, [2, 320, 1, 4096]> out_11_cast = mul(x = zero_mean_11_cast, y = denom_11_cast)[name = tensor<string, []>("out_11_cast")];
            tensor<fp16, [1, 320, 1, 1]> var_582_to_fp16 = const()[name = tensor<string, []>("op_582_to_fp16"), val = tensor<fp16, [1, 320, 1, 1]>(BLOBFILE(path = tensor<string, []>("@model_path/weights/weight.bin"), offset = tensor<uint64, []>(8023488)))];
            tensor<fp16, [2, 320, 1, 4096]> var_583_cast = add(x = out_11_cast, y = var_582_to_fp16)[name = tensor<string, []>("op_583_cast")];
            tensor<fp16, [1, 320, 1, 1]> var_585_to_fp16 = const()[name = tensor<string, []>("op_585_to_fp16"), val = tensor<fp16, [1, 320, 1, 1]>(BLOBFILE(path = tensor<string, []>("@model_path/weights/weight.bin"), offset = tensor<uint64, []>(8024192)))];
            tensor<fp16, [2, 320, 1, 4096]> input_55_cast = mul(x = var_583_cast, y = var_585_to_fp16)[name = tensor<string, []>("input_55_cast")];
            tensor<int32, [2]> var_593 = const()[name = tensor<string, []>("op_593"), val = tensor<int32, [2]>([1, 1])];
            tensor<int32, [2]> var_595 = const()[name = tensor<string, []>("op_595"), val = tensor<int32, [2]>([1, 1])];
            tensor<string, []> var_597_pad_type_0 = const()[name = tensor<string, []>("op_597_pad_type_0"), val = tensor<string, []>("custom")];
            tensor<int32, [4]> var_597_pad_0 = const()[name = tensor<string, []>("op_597_pad_0"), val = tensor<int32, [4]>([0, 0, 0, 0])];
            tensor<fp16, [2560, 320, 1, 1]> down_blocks_0_attentions_1_transformer_blocks_0_ff_net_0_proj_weight_to_fp16_palettized = constexpr_lut_to_dense()[indices = tensor<uint8, [614400]>(BLOBFILE(path = tensor<string, []>("@model_path/weights/weight.bin"), offset = tensor<uint64, []>(8024896))), lut = tensor<fp16, [64]>(BLOBFILE(path = tensor<string, []>("@model_path/weights/weight.bin"), offset = tensor<uint64, []>(8639360))), name = tensor<string, []>("down_blocks_0_attentions_1_transformer_blocks_0_ff_net_0_proj_weight_to_fp16_palettized"), shape = tensor<uint32, [4]>([2560, 320, 1, 1])];
            tensor<fp16, [2560]> down_blocks_0_attentions_1_transformer_blocks_0_ff_net_0_proj_bias_to_fp16_palettized = constexpr_lut_to_dense()[indices = tensor<uint8, [1920]>(BLOBFILE(path = tensor<string, []>("@model_path/weights/weight.bin"), offset = tensor<uint64, []>(8639552))), lut = tensor<fp16, [64]>(BLOBFILE(path = tensor<string, []>("@model_path/weights/weight.bin"), offset = tensor<uint64, []>(8641536))), name = tensor<string, []>("down_blocks_0_attentions_1_transformer_blocks_0_ff_net_0_proj_bias_to_fp16_palettized"), shape = tensor<uint32, [1]>([2560])];
            tensor<fp16, [2, 2560, 1, 4096]> var_597_cast = conv(bias = down_blocks_0_attentions_1_transformer_blocks_0_ff_net_0_proj_bias_to_fp16_palettized, dilations = var_595, groups = var_111, pad = var_597_pad_0, pad_type = var_597_pad_type_0, strides = var_593, weight = down_blocks_0_attentions_1_transformer_blocks_0_ff_net_0_proj_weight_to_fp16_palettized, x = input_55_cast)[name = tensor<string, []>("op_597_cast")];
            tensor<int32, [2]> var_598_split_sizes_0 = const()[name = tensor<string, []>("op_598_split_sizes_0"), val = tensor<int32, [2]>([1280, 1280])];
            tensor<int32, []> var_598_axis_0 = const()[name = tensor<string, []>("op_598_axis_0"), val = tensor<int32, []>(1)];
            tensor<fp16, [2, 1280, 1, 4096]> var_598_cast_0, tensor<fp16, [2, 1280, 1, 4096]> var_598_cast_1 = split(axis = var_598_axis_0, split_sizes = var_598_split_sizes_0, x = var_597_cast)[name = tensor<string, []>("op_598_cast")];
            tensor<string, []> var_600_mode_0 = const()[name = tensor<string, []>("op_600_mode_0"), val = tensor<string, []>("EXACT")];
            tensor<fp16, [2, 1280, 1, 4096]> var_600_cast = gelu(mode = var_600_mode_0, x = var_598_cast_1)[name = tensor<string, []>("op_600_cast")];
            tensor<fp16, [2, 1280, 1, 4096]> input_57_cast = mul(x = var_598_cast_0, y = var_600_cast)[name = tensor<string, []>("input_57_cast")];
            tensor<int32, [2]> var_604 = const()[name = tensor<string, []>("op_604"), val = tensor<int32, [2]>([1, 1])];
            tensor<int32, [2]> var_606 = const()[name = tensor<string, []>("op_606"), val = tensor<int32, [2]>([1, 1])];
            tensor<string, []> var_608_pad_type_0 = const()[name = tensor<string, []>("op_608_pad_type_0"), val = tensor<string, []>("custom")];
            tensor<int32, [4]> var_608_pad_0 = const()[name = tensor<string, []>("op_608_pad_0"), val = tensor<int32, [4]>([0, 0, 0, 0])];
            tensor<fp16, [320, 1280, 1, 1]> down_blocks_0_attentions_1_transformer_blocks_0_ff_net_2_weight_to_fp16_palettized = constexpr_lut_to_dense()[indices = tensor<uint8, [307200]>(BLOBFILE(path = tensor<string, []>("@model_path/weights/weight.bin"), offset = tensor<uint64, []>(8641728))), lut = tensor<fp16, [64]>(BLOBFILE(path = tensor<string, []>("@model_path/weights/weight.bin"), offset = tensor<uint64, []>(8948992))), name = tensor<string, []>("down_blocks_0_attentions_1_transformer_blocks_0_ff_net_2_weight_to_fp16_palettized"), shape = tensor<uint32, [4]>([320, 1280, 1, 1])];
            tensor<fp16, [320]> down_blocks_0_attentions_1_transformer_blocks_0_ff_net_2_bias_to_fp16 = const()[name = tensor<string, []>("down_blocks_0_attentions_1_transformer_blocks_0_ff_net_2_bias_to_fp16"), val = tensor<fp16, [320]>(BLOBFILE(path = tensor<string, []>("@model_path/weights/weight.bin"), offset = tensor<uint64, []>(8949184)))];
            tensor<fp16, [2, 320, 1, 4096]> var_608_cast = conv(bias = down_blocks_0_attentions_1_transformer_blocks_0_ff_net_2_bias_to_fp16, dilations = var_606, groups = var_111, pad = var_608_pad_0, pad_type = var_608_pad_type_0, strides = var_604, weight = down_blocks_0_attentions_1_transformer_blocks_0_ff_net_2_weight_to_fp16_palettized, x = input_57_cast)[name = tensor<string, []>("op_608_cast")];
            tensor<fp16, [2, 320, 1, 4096]> hidden_states_33_cast = add(x = var_608_cast, y = inputs_11_cast)[name = tensor<string, []>("hidden_states_33_cast")];
            tensor<int32, [4]> var_610 = const()[name = tensor<string, []>("op_610"), val = tensor<int32, [4]>([2, 320, 64, 64])];
            tensor<fp16, [2, 320, 64, 64]> input_59_cast = reshape(shape = var_610, x = hidden_states_33_cast)[name = tensor<string, []>("input_59_cast")];
            tensor<int32, [2]> var_614 = const()[name = tensor<string, []>("op_614"), val = tensor<int32, [2]>([1, 1])];
            tensor<int32, [2]> var_616 = const()[name = tensor<string, []>("op_616"), val = tensor<int32, [2]>([1, 1])];
            tensor<string, []> hidden_states_35_pad_type_0 = const()[name = tensor<string, []>("hidden_states_35_pad_type_0"), val = tensor<string, []>("custom")];
            tensor<int32, [4]> hidden_states_35_pad_0 = const()[name = tensor<string, []>("hidden_states_35_pad_0"), val = tensor<int32, [4]>([0, 0, 0, 0])];
            tensor<fp16, [320, 320, 1, 1]> down_blocks_0_attentions_1_proj_out_weight_to_fp16_palettized = constexpr_lut_to_dense()[indices = tensor<uint8, [76800]>(BLOBFILE(path = tensor<string, []>("@model_path/weights/weight.bin"), offset = tensor<uint64, []>(8949888))), lut = tensor<fp16, [64]>(BLOBFILE(path = tensor<string, []>("@model_path/weights/weight.bin"), offset = tensor<uint64, []>(9026752))), name = tensor<string, []>("down_blocks_0_attentions_1_proj_out_weight_to_fp16_palettized"), shape = tensor<uint32, [4]>([320, 320, 1, 1])];
            tensor<fp16, [320]> down_blocks_0_attentions_1_proj_out_bias_to_fp16 = const()[name = tensor<string, []>("down_blocks_0_attentions_1_proj_out_bias_to_fp16"), val = tensor<fp16, [320]>(BLOBFILE(path = tensor<string, []>("@model_path/weights/weight.bin"), offset = tensor<uint64, []>(9026944)))];
            tensor<fp16, [2, 320, 64, 64]> hidden_states_35_cast = conv(bias = down_blocks_0_attentions_1_proj_out_bias_to_fp16, dilations = var_616, groups = var_111, pad = hidden_states_35_pad_0, pad_type = hidden_states_35_pad_type_0, strides = var_614, weight = down_blocks_0_attentions_1_proj_out_weight_to_fp16_palettized, x = input_59_cast)[name = tensor<string, []>("hidden_states_35_cast")];
            tensor<fp16, [2, 320, 64, 64]> input_61_cast = add(x = hidden_states_35_cast, y = hidden_states_23_cast)[name = tensor<string, []>("input_61_cast")];
            tensor<int32, [2]> var_623 = const()[name = tensor<string, []>("op_623"), val = tensor<int32, [2]>([2, 2])];
            tensor<int32, [2]> var_625 = const()[name = tensor<string, []>("op_625"), val = tensor<int32, [2]>([1, 1])];
            tensor<string, []> input_63_pad_type_0 = const()[name = tensor<string, []>("input_63_pad_type_0"), val = tensor<string, []>("custom")];
            tensor<int32, [4]> input_63_pad_0 = const()[name = tensor<string, []>("input_63_pad_0"), val = tensor<int32, [4]>([1, 1, 1, 1])];
            tensor<fp16, [320, 320, 3, 3]> down_blocks_0_downsamplers_0_conv_weight_to_fp16_palettized = constexpr_lut_to_dense()[indices = tensor<uint8, [691200]>(BLOBFILE(path = tensor<string, []>("@model_path/weights/weight.bin"), offset = tensor<uint64, []>(9027648))), lut = tensor<fp16, [64]>(BLOBFILE(path = tensor<string, []>("@model_path/weights/weight.bin"), offset = tensor<uint64, []>(9718912))), name = tensor<string, []>("down_blocks_0_downsamplers_0_conv_weight_to_fp16_palettized"), shape = tensor<uint32, [4]>([320, 320, 3, 3])];
            tensor<fp16, [320]> down_blocks_0_downsamplers_0_conv_bias_to_fp16 = const()[name = tensor<string, []>("down_blocks_0_downsamplers_0_conv_bias_to_fp16"), val = tensor<fp16, [320]>(BLOBFILE(path = tensor<string, []>("@model_path/weights/weight.bin"), offset = tensor<uint64, []>(9719104)))];
            tensor<fp16, [2, 320, 32, 32]> input_63_cast = conv(bias = down_blocks_0_downsamplers_0_conv_bias_to_fp16, dilations = var_625, groups = var_111, pad = input_63_pad_0, pad_type = input_63_pad_type_0, strides = var_623, weight = down_blocks_0_downsamplers_0_conv_weight_to_fp16_palettized, x = input_61_cast)[name = tensor<string, []>("input_63_cast")];
            tensor<int32, []> var_633 = const()[name = tensor<string, []>("op_633"), val = tensor<int32, []>(3)];
            tensor<bool, []> var_644 = const()[name = tensor<string, []>("op_644"), val = tensor<bool, []>(true)];
            tensor<int32, []> var_649 = const()[name = tensor<string, []>("op_649"), val = tensor<int32, []>(1)];
            tensor<int32, [5]> reshape_24_shape_0 = const()[name = tensor<string, []>("reshape_24_shape_0"), val = tensor<int32, [5]>([2, 32, 10, 32, 32])];
            tensor<fp16, [2, 32, 10, 32, 32]> reshape_24_cast = reshape(shape = reshape_24_shape_0, x = input_63_cast)[name = tensor<string, []>("reshape_24_cast")];
            tensor<int32, [3]> reduce_mean_18_axes_0 = const()[name = tensor<string, []>("reduce_mean_18_axes_0"), val = tensor<int32, [3]>([2, 3, 4])];
            tensor<bool, []> reduce_mean_18_keep_dims_0 = const()[name = tensor<string, []>("reduce_mean_18_keep_dims_0"), val = tensor<bool, []>(true)];
            tensor<fp16, [2, 32, 1, 1, 1]> reduce_mean_18_cast = reduce_mean(axes = reduce_mean_18_axes_0, keep_dims = reduce_mean_18_keep_dims_0, x = reshape_24_cast)[name = tensor<string, []>("reduce_mean_18_cast")];
            tensor<fp16, [2, 32, 10, 32, 32]> sub_12_cast = sub(x = reshape_24_cast, y = reduce_mean_18_cast)[name = tensor<string, []>("sub_12_cast")];
            tensor<fp16, [2, 32, 10, 32, 32]> square_6_cast = square(x = sub_12_cast)[name = tensor<string, []>("square_6_cast")];
            tensor<int32, [3]> reduce_mean_20_axes_0 = const()[name = tensor<string, []>("reduce_mean_20_axes_0"), val = tensor<int32, [3]>([2, 3, 4])];
            tensor<bool, []> reduce_mean_20_keep_dims_0 = const()[name = tensor<string, []>("reduce_mean_20_keep_dims_0"), val = tensor<bool, []>(true)];
            tensor<fp16, [2, 32, 1, 1, 1]> reduce_mean_20_cast = reduce_mean(axes = reduce_mean_20_axes_0, keep_dims = reduce_mean_20_keep_dims_0, x = square_6_cast)[name = tensor<string, []>("reduce_mean_20_cast")];
            tensor<fp16, []> add_12_y_0_to_fp16 = const()[name = tensor<string, []>("add_12_y_0_to_fp16"), val = tensor<fp16, []>(0x1.5p-17)];
            tensor<fp16, [2, 32, 1, 1, 1]> add_12_cast = add(x = reduce_mean_20_cast, y = add_12_y_0_to_fp16)[name = tensor<string, []>("add_12_cast")];
            tensor<fp16, [2, 32, 1, 1, 1]> sqrt_6_cast = sqrt(x = add_12_cast)[name = tensor<string, []>("sqrt_6_cast")];
            tensor<fp16, [2, 32, 10, 32, 32]> real_div_6_cast = real_div(x = sub_12_cast, y = sqrt_6_cast)[name = tensor<string, []>("real_div_6_cast")];
            tensor<int32, [4]> reshape_25_shape_0 = const()[name = tensor<string, []>("reshape_25_shape_0"), val = tensor<int32, [4]>([2, 320, 32, 32])];
            tensor<fp16, [2, 320, 32, 32]> reshape_25_cast = reshape(shape = reshape_25_shape_0, x = real_div_6_cast)[name = tensor<string, []>("reshape_25_cast")];
            tensor<fp16, [320]> add_13_gamma_0_to_fp16 = const()[name = tensor<string, []>("add_13_gamma_0_to_fp16"), val = tensor<fp16, [320]>(BLOBFILE(path = tensor<string, []>("@model_path/weights/weight.bin"), offset = tensor<uint64, []>(9719808)))];
            tensor<fp16, [320]> add_13_beta_0_to_fp16 = const()[name = tensor<string, []>("add_13_beta_0_to_fp16"), val = tensor<fp16, [320]>(BLOBFILE(path = tensor<string, []>("@model_path/weights/weight.bin"), offset = tensor<uint64, []>(9720512)))];
            tensor<fp16, []> add_13_epsilon_0_to_fp16 = const()[name = tensor<string, []>("add_13_epsilon_0_to_fp16"), val = tensor<fp16, []>(0x1.5p-17)];
            tensor<fp16, [2, 320, 32, 32]> add_13_cast = batch_norm(beta = add_13_beta_0_to_fp16, epsilon = add_13_epsilon_0_to_fp16, gamma = add_13_gamma_0_to_fp16, mean = add_1_mean_0_to_fp16, variance = add_1_variance_0_to_fp16, x = reshape_25_cast)[name = tensor<string, []>("add_13_cast")];
            tensor<fp16, [2, 320, 32, 32]> input_67_cast = silu(x = add_13_cast)[name = tensor<string, []>("input_67_cast")];
            tensor<int32, [2]> var_672 = const()[name = tensor<string, []>("op_672"), val = tensor<int32, [2]>([1, 1])];
            tensor<int32, [2]> var_674 = const()[name = tensor<string, []>("op_674"), val = tensor<int32, [2]>([1, 1])];
            tensor<string, []> hidden_states_37_pad_type_0 = const()[name = tensor<string, []>("hidden_states_37_pad_type_0"), val = tensor<string, []>("custom")];
            tensor<int32, [4]> hidden_states_37_pad_0 = const()[name = tensor<string, []>("hidden_states_37_pad_0"), val = tensor<int32, [4]>([1, 1, 1, 1])];
            tensor<fp16, [640, 320, 3, 3]> down_blocks_1_resnets_0_conv1_weight_to_fp16_palettized = constexpr_lut_to_dense()[indices = tensor<uint8, [1382400]>(BLOBFILE(path = tensor<string, []>("@model_path/weights/weight.bin"), offset = tensor<uint64, []>(9721216))), lut = tensor<fp16, [64]>(BLOBFILE(path = tensor<string, []>("@model_path/weights/weight.bin"), offset = tensor<uint64, []>(11103680))), name = tensor<string, []>("down_blocks_1_resnets_0_conv1_weight_to_fp16_palettized"), shape = tensor<uint32, [4]>([640, 320, 3, 3])];
            tensor<fp16, [640]> down_blocks_1_resnets_0_conv1_bias_to_fp16 = const()[name = tensor<string, []>("down_blocks_1_resnets_0_conv1_bias_to_fp16"), val = tensor<fp16, [640]>(BLOBFILE(path = tensor<string, []>("@model_path/weights/weight.bin"), offset = tensor<uint64, []>(11103872)))];
            tensor<fp16, [2, 640, 32, 32]> hidden_states_37_cast = conv(bias = down_blocks_1_resnets_0_conv1_bias_to_fp16, dilations = var_674, groups = var_649, pad = hidden_states_37_pad_0, pad_type = hidden_states_37_pad_type_0, strides = var_672, weight = down_blocks_1_resnets_0_conv1_weight_to_fp16_palettized, x = input_67_cast)[name = tensor<string, []>("hidden_states_37_cast")];
            tensor<int32, [2]> var_680 = const()[name = tensor<string, []>("op_680"), val = tensor<int32, [2]>([1, 1])];
            tensor<int32, [2]> var_682 = const()[name = tensor<string, []>("op_682"), val = tensor<int32, [2]>([1, 1])];
            tensor<string, []> temb_5_pad_type_0 = const()[name = tensor<string, []>("temb_5_pad_type_0"), val = tensor<string, []>("custom")];
            tensor<int32, [4]> temb_5_pad_0 = const()[name = tensor<string, []>("temb_5_pad_0"), val = tensor<int32, [4]>([0, 0, 0, 0])];
            tensor<fp16, [640, 1280, 1, 1]> down_blocks_1_resnets_0_time_emb_proj_weight_to_fp16_palettized = constexpr_lut_to_dense()[indices = tensor<uint8, [614400]>(BLOBFILE(path = tensor<string, []>("@model_path/weights/weight.bin"), offset = tensor<uint64, []>(11105216))), lut = tensor<fp16, [64]>(BLOBFILE(path = tensor<string, []>("@model_path/weights/weight.bin"), offset = tensor<uint64, []>(11719680))), name = tensor<string, []>("down_blocks_1_resnets_0_time_emb_proj_weight_to_fp16_palettized"), shape = tensor<uint32, [4]>([640, 1280, 1, 1])];
            tensor<fp16, [640]> down_blocks_1_resnets_0_time_emb_proj_bias_to_fp16 = const()[name = tensor<string, []>("down_blocks_1_resnets_0_time_emb_proj_bias_to_fp16"), val = tensor<fp16, [640]>(BLOBFILE(path = tensor<string, []>("@model_path/weights/weight.bin"), offset = tensor<uint64, []>(11719872)))];
            tensor<fp16, [2, 640, 1, 1]> temb_5_cast = conv(bias = down_blocks_1_resnets_0_time_emb_proj_bias_to_fp16, dilations = var_682, groups = var_649, pad = temb_5_pad_0, pad_type = temb_5_pad_type_0, strides = var_680, weight = down_blocks_1_resnets_0_time_emb_proj_weight_to_fp16_palettized, x = input_15_cast)[name = tensor<string, []>("temb_5_cast")];
            tensor<fp16, [2, 640, 32, 32]> input_71_cast = add(x = hidden_states_37_cast, y = temb_5_cast)[name = tensor<string, []>("input_71_cast")];
            tensor<int32, [5]> reshape_28_shape_0 = const()[name = tensor<string, []>("reshape_28_shape_0"), val = tensor<int32, [5]>([2, 32, 20, 32, 32])];
            tensor<fp16, [2, 32, 20, 32, 32]> reshape_28_cast = reshape(shape = reshape_28_shape_0, x = input_71_cast)[name = tensor<string, []>("reshape_28_cast")];
            tensor<int32, [3]> reduce_mean_21_axes_0 = const()[name = tensor<string, []>("reduce_mean_21_axes_0"), val = tensor<int32, [3]>([2, 3, 4])];
            tensor<bool, []> reduce_mean_21_keep_dims_0 = const()[name = tensor<string, []>("reduce_mean_21_keep_dims_0"), val = tensor<bool, []>(true)];
            tensor<fp16, [2, 32, 1, 1, 1]> reduce_mean_21_cast = reduce_mean(axes = reduce_mean_21_axes_0, keep_dims = reduce_mean_21_keep_dims_0, x = reshape_28_cast)[name = tensor<string, []>("reduce_mean_21_cast")];
            tensor<fp16, [2, 32, 20, 32, 32]> sub_14_cast = sub(x = reshape_28_cast, y = reduce_mean_21_cast)[name = tensor<string, []>("sub_14_cast")];
            tensor<fp16, [2, 32, 20, 32, 32]> square_7_cast = square(x = sub_14_cast)[name = tensor<string, []>("square_7_cast")];
            tensor<int32, [3]> reduce_mean_23_axes_0 = const()[name = tensor<string, []>("reduce_mean_23_axes_0"), val = tensor<int32, [3]>([2, 3, 4])];
            tensor<bool, []> reduce_mean_23_keep_dims_0 = const()[name = tensor<string, []>("reduce_mean_23_keep_dims_0"), val = tensor<bool, []>(true)];
            tensor<fp16, [2, 32, 1, 1, 1]> reduce_mean_23_cast = reduce_mean(axes = reduce_mean_23_axes_0, keep_dims = reduce_mean_23_keep_dims_0, x = square_7_cast)[name = tensor<string, []>("reduce_mean_23_cast")];
            tensor<fp16, []> add_14_y_0_to_fp16 = const()[name = tensor<string, []>("add_14_y_0_to_fp16"), val = tensor<fp16, []>(0x1.5p-17)];
            tensor<fp16, [2, 32, 1, 1, 1]> add_14_cast = add(x = reduce_mean_23_cast, y = add_14_y_0_to_fp16)[name = tensor<string, []>("add_14_cast")];
            tensor<fp16, [2, 32, 1, 1, 1]> sqrt_7_cast = sqrt(x = add_14_cast)[name = tensor<string, []>("sqrt_7_cast")];
            tensor<fp16, [2, 32, 20, 32, 32]> real_div_7_cast = real_div(x = sub_14_cast, y = sqrt_7_cast)[name = tensor<string, []>("real_div_7_cast")];
            tensor<int32, [4]> reshape_29_shape_0 = const()[name = tensor<string, []>("reshape_29_shape_0"), val = tensor<int32, [4]>([2, 640, 32, 32])];
            tensor<fp16, [2, 640, 32, 32]> reshape_29_cast = reshape(shape = reshape_29_shape_0, x = real_div_7_cast)[name = tensor<string, []>("reshape_29_cast")];
            tensor<fp16, [640]> add_15_mean_0_to_fp16 = const()[name = tensor<string, []>("add_15_mean_0_to_fp16"), val = tensor<fp16, [640]>(BLOBFILE(path = tensor<string, []>("@model_path/weights/weight.bin"), offset = tensor<uint64, []>(11721216)))];
            tensor<fp16, [640]> add_15_variance_0_to_fp16 = const()[name = tensor<string, []>("add_15_variance_0_to_fp16"), val = tensor<fp16, [640]>(BLOBFILE(path = tensor<string, []>("@model_path/weights/weight.bin"), offset = tensor<uint64, []>(11722560)))];
            tensor<fp16, [640]> add_15_gamma_0_to_fp16 = const()[name = tensor<string, []>("add_15_gamma_0_to_fp16"), val = tensor<fp16, [640]>(BLOBFILE(path = tensor<string, []>("@model_path/weights/weight.bin"), offset = tensor<uint64, []>(11723904)))];
            tensor<fp16, [640]> add_15_beta_0_to_fp16 = const()[name = tensor<string, []>("add_15_beta_0_to_fp16"), val = tensor<fp16, [640]>(BLOBFILE(path = tensor<string, []>("@model_path/weights/weight.bin"), offset = tensor<uint64, []>(11725248)))];
            tensor<fp16, []> add_15_epsilon_0_to_fp16 = const()[name = tensor<string, []>("add_15_epsilon_0_to_fp16"), val = tensor<fp16, []>(0x1.5p-17)];
            tensor<fp16, [2, 640, 32, 32]> add_15_cast = batch_norm(beta = add_15_beta_0_to_fp16, epsilon = add_15_epsilon_0_to_fp16, gamma = add_15_gamma_0_to_fp16, mean = add_15_mean_0_to_fp16, variance = add_15_variance_0_to_fp16, x = reshape_29_cast)[name = tensor<string, []>("add_15_cast")];
            tensor<fp16, [2, 640, 32, 32]> input_75_cast = silu(x = add_15_cast)[name = tensor<string, []>("input_75_cast")];
            tensor<int32, [2]> var_692 = const()[name = tensor<string, []>("op_692"), val = tensor<int32, [2]>([1, 1])];
            tensor<int32, [2]> var_694 = const()[name = tensor<string, []>("op_694"), val = tensor<int32, [2]>([1, 1])];
            tensor<string, []> hidden_states_39_pad_type_0 = const()[name = tensor<string, []>("hidden_states_39_pad_type_0"), val = tensor<string, []>("custom")];
            tensor<int32, [4]> hidden_states_39_pad_0 = const()[name = tensor<string, []>("hidden_states_39_pad_0"), val = tensor<int32, [4]>([1, 1, 1, 1])];
            tensor<fp16, [640, 640, 3, 3]> down_blocks_1_resnets_0_conv2_weight_to_fp16_palettized = constexpr_lut_to_dense()[indices = tensor<uint8, [2764800]>(BLOBFILE(path = tensor<string, []>("@model_path/weights/weight.bin"), offset = tensor<uint64, []>(11726592))), lut = tensor<fp16, [64]>(BLOBFILE(path = tensor<string, []>("@model_path/weights/weight.bin"), offset = tensor<uint64, []>(14491456))), name = tensor<string, []>("down_blocks_1_resnets_0_conv2_weight_to_fp16_palettized"), shape = tensor<uint32, [4]>([640, 640, 3, 3])];
            tensor<fp16, [640]> down_blocks_1_resnets_0_conv2_bias_to_fp16 = const()[name = tensor<string, []>("down_blocks_1_resnets_0_conv2_bias_to_fp16"), val = tensor<fp16, [640]>(BLOBFILE(path = tensor<string, []>("@model_path/weights/weight.bin"), offset = tensor<uint64, []>(14491648)))];
            tensor<fp16, [2, 640, 32, 32]> hidden_states_39_cast = conv(bias = down_blocks_1_resnets_0_conv2_bias_to_fp16, dilations = var_694, groups = var_649, pad = hidden_states_39_pad_0, pad_type = hidden_states_39_pad_type_0, strides = var_692, weight = down_blocks_1_resnets_0_conv2_weight_to_fp16_palettized, x = input_75_cast)[name = tensor<string, []>("hidden_states_39_cast")];
            tensor<int32, [2]> var_699 = const()[name = tensor<string, []>("op_699"), val = tensor<int32, [2]>([1, 1])];
            tensor<int32, [2]> var_701 = const()[name = tensor<string, []>("op_701"), val = tensor<int32, [2]>([1, 1])];
            tensor<string, []> x_1_pad_type_0 = const()[name = tensor<string, []>("x_1_pad_type_0"), val = tensor<string, []>("custom")];
            tensor<int32, [4]> x_1_pad_0 = const()[name = tensor<string, []>("x_1_pad_0"), val = tensor<int32, [4]>([0, 0, 0, 0])];
            tensor<fp16, [640, 320, 1, 1]> down_blocks_1_resnets_0_conv_shortcut_weight_to_fp16_palettized = constexpr_lut_to_dense()[indices = tensor<uint8, [153600]>(BLOBFILE(path = tensor<string, []>("@model_path/weights/weight.bin"), offset = tensor<uint64, []>(14492992))), lut = tensor<fp16, [64]>(BLOBFILE(path = tensor<string, []>("@model_path/weights/weight.bin"), offset = tensor<uint64, []>(14646656))), name = tensor<string, []>("down_blocks_1_resnets_0_conv_shortcut_weight_to_fp16_palettized"), shape = tensor<uint32, [4]>([640, 320, 1, 1])];
            tensor<fp16, [640]> down_blocks_1_resnets_0_conv_shortcut_bias_to_fp16 = const()[name = tensor<string, []>("down_blocks_1_resnets_0_conv_shortcut_bias_to_fp16"), val = tensor<fp16, [640]>(BLOBFILE(path = tensor<string, []>("@model_path/weights/weight.bin"), offset = tensor<uint64, []>(14646848)))];
            tensor<fp16, [2, 640, 32, 32]> x_1_cast = conv(bias = down_blocks_1_resnets_0_conv_shortcut_bias_to_fp16, dilations = var_701, groups = var_649, pad = x_1_pad_0, pad_type = x_1_pad_type_0, strides = var_699, weight = down_blocks_1_resnets_0_conv_shortcut_weight_to_fp16_palettized, x = input_63_cast)[name = tensor<string, []>("x_1_cast")];
            tensor<fp16, [2, 640, 32, 32]> hidden_states_41_cast = add(x = x_1_cast, y = hidden_states_39_cast)[name = tensor<string, []>("hidden_states_41_cast")];
            tensor<int32, [5]> reshape_32_shape_0 = const()[name = tensor<string, []>("reshape_32_shape_0"), val = tensor<int32, [5]>([2, 32, 20, 32, 32])];
            tensor<fp16, [2, 32, 20, 32, 32]> reshape_32_cast = reshape(shape = reshape_32_shape_0, x = hidden_states_41_cast)[name = tensor<string, []>("reshape_32_cast")];
            tensor<int32, [3]> reduce_mean_24_axes_0 = const()[name = tensor<string, []>("reduce_mean_24_axes_0"), val = tensor<int32, [3]>([2, 3, 4])];
            tensor<bool, []> reduce_mean_24_keep_dims_0 = const()[name = tensor<string, []>("reduce_mean_24_keep_dims_0"), val = tensor<bool, []>(true)];
            tensor<fp16, [2, 32, 1, 1, 1]> reduce_mean_24_cast = reduce_mean(axes = reduce_mean_24_axes_0, keep_dims = reduce_mean_24_keep_dims_0, x = reshape_32_cast)[name = tensor<string, []>("reduce_mean_24_cast")];
            tensor<fp16, [2, 32, 20, 32, 32]> sub_16_cast = sub(x = reshape_32_cast, y = reduce_mean_24_cast)[name = tensor<string, []>("sub_16_cast")];
            tensor<fp16, [2, 32, 20, 32, 32]> square_8_cast = square(x = sub_16_cast)[name = tensor<string, []>("square_8_cast")];
            tensor<int32, [3]> reduce_mean_26_axes_0 = const()[name = tensor<string, []>("reduce_mean_26_axes_0"), val = tensor<int32, [3]>([2, 3, 4])];
            tensor<bool, []> reduce_mean_26_keep_dims_0 = const()[name = tensor<string, []>("reduce_mean_26_keep_dims_0"), val = tensor<bool, []>(true)];
            tensor<fp16, [2, 32, 1, 1, 1]> reduce_mean_26_cast = reduce_mean(axes = reduce_mean_26_axes_0, keep_dims = reduce_mean_26_keep_dims_0, x = square_8_cast)[name = tensor<string, []>("reduce_mean_26_cast")];
            tensor<fp16, []> add_16_y_0_to_fp16 = const()[name = tensor<string, []>("add_16_y_0_to_fp16"), val = tensor<fp16, []>(0x1.1p-20)];
            tensor<fp16, [2, 32, 1, 1, 1]> add_16_cast = add(x = reduce_mean_26_cast, y = add_16_y_0_to_fp16)[name = tensor<string, []>("add_16_cast")];
            tensor<fp16, [2, 32, 1, 1, 1]> sqrt_8_cast = sqrt(x = add_16_cast)[name = tensor<string, []>("sqrt_8_cast")];
            tensor<fp16, [2, 32, 20, 32, 32]> real_div_8_cast = real_div(x = sub_16_cast, y = sqrt_8_cast)[name = tensor<string, []>("real_div_8_cast")];
            tensor<int32, [4]> reshape_33_shape_0 = const()[name = tensor<string, []>("reshape_33_shape_0"), val = tensor<int32, [4]>([2, 640, 32, 32])];
            tensor<fp16, [2, 640, 32, 32]> reshape_33_cast = reshape(shape = reshape_33_shape_0, x = real_div_8_cast)[name = tensor<string, []>("reshape_33_cast")];
            tensor<fp16, [640]> add_17_gamma_0_to_fp16 = const()[name = tensor<string, []>("add_17_gamma_0_to_fp16"), val = tensor<fp16, [640]>(BLOBFILE(path = tensor<string, []>("@model_path/weights/weight.bin"), offset = tensor<uint64, []>(14648192)))];
            tensor<fp16, [640]> add_17_beta_0_to_fp16 = const()[name = tensor<string, []>("add_17_beta_0_to_fp16"), val = tensor<fp16, [640]>(BLOBFILE(path = tensor<string, []>("@model_path/weights/weight.bin"), offset = tensor<uint64, []>(14649536)))];
            tensor<fp16, []> add_17_epsilon_0_to_fp16 = const()[name = tensor<string, []>("add_17_epsilon_0_to_fp16"), val = tensor<fp16, []>(0x1.5p-17)];
            tensor<fp16, [2, 640, 32, 32]> add_17_cast = batch_norm(beta = add_17_beta_0_to_fp16, epsilon = add_17_epsilon_0_to_fp16, gamma = add_17_gamma_0_to_fp16, mean = add_15_mean_0_to_fp16, variance = add_15_variance_0_to_fp16, x = reshape_33_cast)[name = tensor<string, []>("add_17_cast")];
            tensor<int32, [2]> var_721 = const()[name = tensor<string, []>("op_721"), val = tensor<int32, [2]>([1, 1])];
            tensor<int32, [2]> var_723 = const()[name = tensor<string, []>("op_723"), val = tensor<int32, [2]>([1, 1])];
            tensor<string, []> hidden_states_43_pad_type_0 = const()[name = tensor<string, []>("hidden_states_43_pad_type_0"), val = tensor<string, []>("custom")];
            tensor<int32, [4]> hidden_states_43_pad_0 = const()[name = tensor<string, []>("hidden_states_43_pad_0"), val = tensor<int32, [4]>([0, 0, 0, 0])];
            tensor<fp16, [640, 640, 1, 1]> down_blocks_1_attentions_0_proj_in_weight_to_fp16_palettized = constexpr_lut_to_dense()[indices = tensor<uint8, [307200]>(BLOBFILE(path = tensor<string, []>("@model_path/weights/weight.bin"), offset = tensor<uint64, []>(14650880))), lut = tensor<fp16, [64]>(BLOBFILE(path = tensor<string, []>("@model_path/weights/weight.bin"), offset = tensor<uint64, []>(14958144))), name = tensor<string, []>("down_blocks_1_attentions_0_proj_in_weight_to_fp16_palettized"), shape = tensor<uint32, [4]>([640, 640, 1, 1])];
            tensor<fp16, [640]> down_blocks_1_attentions_0_proj_in_bias_to_fp16 = const()[name = tensor<string, []>("down_blocks_1_attentions_0_proj_in_bias_to_fp16"), val = tensor<fp16, [640]>(BLOBFILE(path = tensor<string, []>("@model_path/weights/weight.bin"), offset = tensor<uint64, []>(14958336)))];
            tensor<fp16, [2, 640, 32, 32]> hidden_states_43_cast = conv(bias = down_blocks_1_attentions_0_proj_in_bias_to_fp16, dilations = var_723, groups = var_649, pad = hidden_states_43_pad_0, pad_type = hidden_states_43_pad_type_0, strides = var_721, weight = down_blocks_1_attentions_0_proj_in_weight_to_fp16_palettized, x = add_17_cast)[name = tensor<string, []>("hidden_states_43_cast")];
            tensor<int32, [4]> var_728 = const()[name = tensor<string, []>("op_728"), val = tensor<int32, [4]>([2, 640, 1, 1024])];
            tensor<fp16, [2, 640, 1, 1024]> inputs_13_cast = reshape(shape = var_728, x = hidden_states_43_cast)[name = tensor<string, []>("inputs_13_cast")];
            tensor<int32, [1]> var_738 = const()[name = tensor<string, []>("op_738"), val = tensor<int32, [1]>([1])];
            tensor<fp16, [2, 1, 1, 1024]> channels_mean_13_cast = reduce_mean(axes = var_738, keep_dims = var_644, x = inputs_13_cast)[name = tensor<string, []>("channels_mean_13_cast")];
            tensor<fp16, [2, 640, 1, 1024]> zero_mean_13_cast = sub(x = inputs_13_cast, y = channels_mean_13_cast)[name = tensor<string, []>("zero_mean_13_cast")];
            tensor<fp16, [2, 640, 1, 1024]> zero_mean_sq_13_cast = mul(x = zero_mean_13_cast, y = zero_mean_13_cast)[name = tensor<string, []>("zero_mean_sq_13_cast")];
            tensor<int32, [1]> var_742 = const()[name = tensor<string, []>("op_742"), val = tensor<int32, [1]>([1])];
            tensor<fp16, [2, 1, 1, 1024]> var_743_cast = reduce_mean(axes = var_742, keep_dims = var_644, x = zero_mean_sq_13_cast)[name = tensor<string, []>("op_743_cast")];
            tensor<fp16, []> var_744_to_fp16 = const()[name = tensor<string, []>("op_744_to_fp16"), val = tensor<fp16, []>(0x1.5p-17)];
            tensor<fp16, [2, 1, 1, 1024]> var_745_cast = add(x = var_743_cast, y = var_744_to_fp16)[name = tensor<string, []>("op_745_cast")];
            tensor<fp16, []> denom_13_epsilon_0_to_fp16 = const()[name = tensor<string, []>("denom_13_epsilon_0_to_fp16"), val = tensor<fp16, []>(0x1p-24)];
            tensor<fp16, [2, 1, 1, 1024]> denom_13_cast = rsqrt(epsilon = denom_13_epsilon_0_to_fp16, x = var_745_cast)[name = tensor<string, []>("denom_13_cast")];
            tensor<fp16, [2, 640, 1, 1024]> out_13_cast = mul(x = zero_mean_13_cast, y = denom_13_cast)[name = tensor<string, []>("out_13_cast")];
            tensor<fp16, [1, 640, 1, 1]> var_749_to_fp16 = const()[name = tensor<string, []>("op_749_to_fp16"), val = tensor<fp16, [1, 640, 1, 1]>(BLOBFILE(path = tensor<string, []>("@model_path/weights/weight.bin"), offset = tensor<uint64, []>(14959680)))];
            tensor<fp16, [2, 640, 1, 1024]> var_750_cast = add(x = out_13_cast, y = var_749_to_fp16)[name = tensor<string, []>("op_750_cast")];
            tensor<fp16, [1, 640, 1, 1]> var_752_to_fp16 = const()[name = tensor<string, []>("op_752_to_fp16"), val = tensor<fp16, [1, 640, 1, 1]>(BLOBFILE(path = tensor<string, []>("@model_path/weights/weight.bin"), offset = tensor<uint64, []>(14961024)))];
            tensor<fp16, [2, 640, 1, 1024]> hidden_states_45_cast = mul(x = var_750_cast, y = var_752_to_fp16)[name = tensor<string, []>("hidden_states_45_cast")];
            tensor<int32, [2]> var_759 = const()[name = tensor<string, []>("op_759"), val = tensor<int32, [2]>([1, 1])];
            tensor<int32, [2]> var_761 = const()[name = tensor<string, []>("op_761"), val = tensor<int32, [2]>([1, 1])];
            tensor<string, []> q_9_pad_type_0 = const()[name = tensor<string, []>("q_9_pad_type_0"), val = tensor<string, []>("custom")];
            tensor<int32, [4]> q_9_pad_0 = const()[name = tensor<string, []>("q_9_pad_0"), val = tensor<int32, [4]>([0, 0, 0, 0])];
            tensor<fp16, [640, 640, 1, 1]> down_blocks_1_attentions_0_transformer_blocks_0_attn1_to_q_weight_to_fp16_palettized = constexpr_lut_to_dense()[indices = tensor<uint8, [307200]>(BLOBFILE(path = tensor<string, []>("@model_path/weights/weight.bin"), offset = tensor<uint64, []>(14962368))), lut = tensor<fp16, [64]>(BLOBFILE(path = tensor<string, []>("@model_path/weights/weight.bin"), offset = tensor<uint64, []>(15269632))), name = tensor<string, []>("down_blocks_1_attentions_0_transformer_blocks_0_attn1_to_q_weight_to_fp16_palettized"), shape = tensor<uint32, [4]>([640, 640, 1, 1])];
            tensor<fp16, [2, 640, 1, 1024]> q_9_cast = conv(dilations = var_761, groups = var_649, pad = q_9_pad_0, pad_type = q_9_pad_type_0, strides = var_759, weight = down_blocks_1_attentions_0_transformer_blocks_0_attn1_to_q_weight_to_fp16_palettized, x = hidden_states_45_cast)[name = tensor<string, []>("q_9_cast")];
            tensor<int32, [2]> var_765 = const()[name = tensor<string, []>("op_765"), val = tensor<int32, [2]>([1, 1])];
            tensor<int32, [2]> var_767 = const()[name = tensor<string, []>("op_767"), val = tensor<int32, [2]>([1, 1])];
            tensor<string, []> k_9_pad_type_0 = const()[name = tensor<string, []>("k_9_pad_type_0"), val = tensor<string, []>("custom")];
            tensor<int32, [4]> k_9_pad_0 = const()[name = tensor<string, []>("k_9_pad_0"), val = tensor<int32, [4]>([0, 0, 0, 0])];
            tensor<fp16, [640, 640, 1, 1]> down_blocks_1_attentions_0_transformer_blocks_0_attn1_to_k_weight_to_fp16_palettized = constexpr_lut_to_dense()[indices = tensor<uint8, [307200]>(BLOBFILE(path = tensor<string, []>("@model_path/weights/weight.bin"), offset = tensor<uint64, []>(15269824))), lut = tensor<fp16, [64]>(BLOBFILE(path = tensor<string, []>("@model_path/weights/weight.bin"), offset = tensor<uint64, []>(15577088))), name = tensor<string, []>("down_blocks_1_attentions_0_transformer_blocks_0_attn1_to_k_weight_to_fp16_palettized"), shape = tensor<uint32, [4]>([640, 640, 1, 1])];
            tensor<fp16, [2, 640, 1, 1024]> k_9_cast = conv(dilations = var_767, groups = var_649, pad = k_9_pad_0, pad_type = k_9_pad_type_0, strides = var_765, weight = down_blocks_1_attentions_0_transformer_blocks_0_attn1_to_k_weight_to_fp16_palettized, x = hidden_states_45_cast)[name = tensor<string, []>("k_9_cast")];
            tensor<int32, [2]> var_771 = const()[name = tensor<string, []>("op_771"), val = tensor<int32, [2]>([1, 1])];
            tensor<int32, [2]> var_773 = const()[name = tensor<string, []>("op_773"), val = tensor<int32, [2]>([1, 1])];
            tensor<string, []> v_9_pad_type_0 = const()[name = tensor<string, []>("v_9_pad_type_0"), val = tensor<string, []>("custom")];
            tensor<int32, [4]> v_9_pad_0 = const()[name = tensor<string, []>("v_9_pad_0"), val = tensor<int32, [4]>([0, 0, 0, 0])];
            tensor<fp16, [640, 640, 1, 1]> down_blocks_1_attentions_0_transformer_blocks_0_attn1_to_v_weight_to_fp16_palettized = constexpr_lut_to_dense()[indices = tensor<uint8, [307200]>(BLOBFILE(path = tensor<string, []>("@model_path/weights/weight.bin"), offset = tensor<uint64, []>(15577280))), lut = tensor<fp16, [64]>(BLOBFILE(path = tensor<string, []>("@model_path/weights/weight.bin"), offset = tensor<uint64, []>(15884544))), name = tensor<string, []>("down_blocks_1_attentions_0_transformer_blocks_0_attn1_to_v_weight_to_fp16_palettized"), shape = tensor<uint32, [4]>([640, 640, 1, 1])];
            tensor<fp16, [2, 640, 1, 1024]> v_9_cast = conv(dilations = var_773, groups = var_649, pad = v_9_pad_0, pad_type = v_9_pad_type_0, strides = var_771, weight = down_blocks_1_attentions_0_transformer_blocks_0_attn1_to_v_weight_to_fp16_palettized, x = hidden_states_45_cast)[name = tensor<string, []>("v_9_cast")];
            tensor<int32, [4]> var_777 = const()[name = tensor<string, []>("op_777"), val = tensor<int32, [4]>([2, 10, 64, -1])];
            tensor<fp16, [2, 10, 64, 1024]> var_778_cast = reshape(shape = var_777, x = q_9_cast)[name = tensor<string, []>("op_778_cast")];
            tensor<int32, [4]> var_779 = const()[name = tensor<string, []>("op_779"), val = tensor<int32, [4]>([2, 10, 64, -1])];
            tensor<fp16, [2, 10, 64, 1024]> var_780_cast = reshape(shape = var_779, x = k_9_cast)[name = tensor<string, []>("op_780_cast")];
            tensor<int32, [4]> var_781 = const()[name = tensor<string, []>("op_781"), val = tensor<int32, [4]>([2, 10, 64, -1])];
            tensor<fp16, [2, 10, 64, 1024]> var_782_cast = reshape(shape = var_781, x = v_9_cast)[name = tensor<string, []>("op_782_cast")];
            tensor<bool, []> attn_weights_17_transpose_x_0 = const()[name = tensor<string, []>("attn_weights_17_transpose_x_0"), val = tensor<bool, []>(true)];
            tensor<bool, []> attn_weights_17_transpose_y_0 = const()[name = tensor<string, []>("attn_weights_17_transpose_y_0"), val = tensor<bool, []>(false)];
            tensor<fp16, [2, 10, 1024, 1024]> attn_weights_17_cast = matmul(transpose_x = attn_weights_17_transpose_x_0, transpose_y = attn_weights_17_transpose_y_0, x = var_778_cast, y = var_780_cast)[name = tensor<string, []>("attn_weights_17_cast")];
            tensor<fp16, []> var_640_to_fp16 = const()[name = tensor<string, []>("op_640_to_fp16"), val = tensor<fp16, []>(0x1p-3)];
            tensor<fp16, [2, 10, 1024, 1024]> attn_weights_19_cast = mul(x = attn_weights_17_cast, y = var_640_to_fp16)[name = tensor<string, []>("attn_weights_19_cast")];
            tensor<fp16, [2, 10, 1024, 1024]> var_786_cast = softmax(axis = var_633, x = attn_weights_19_cast)[name = tensor<string, []>("op_786_cast")];
            tensor<bool, []> attn_9_transpose_x_0 = const()[name = tensor<string, []>("attn_9_transpose_x_0"), val = tensor<bool, []>(false)];
            tensor<bool, []> attn_9_transpose_y_0 = const()[name = tensor<string, []>("attn_9_transpose_y_0"), val = tensor<bool, []>(true)];
            tensor<fp16, [2, 10, 64, 1024]> attn_9_cast = matmul(transpose_x = attn_9_transpose_x_0, transpose_y = attn_9_transpose_y_0, x = var_782_cast, y = var_786_cast)[name = tensor<string, []>("attn_9_cast")];
            tensor<int32, [4]> var_790 = const()[name = tensor<string, []>("op_790"), val = tensor<int32, [4]>([2, 640, 1, -1])];
            tensor<fp16, [2, 640, 1, 1024]> input_79_cast = reshape(shape = var_790, x = attn_9_cast)[name = tensor<string, []>("input_79_cast")];
            tensor<int32, [2]> var_795 = const()[name = tensor<string, []>("op_795"), val = tensor<int32, [2]>([1, 1])];
            tensor<int32, [2]> var_797 = const()[name = tensor<string, []>("op_797"), val = tensor<int32, [2]>([1, 1])];
            tensor<string, []> var_799_pad_type_0 = const()[name = tensor<string, []>("op_799_pad_type_0"), val = tensor<string, []>("custom")];
            tensor<int32, [4]> var_799_pad_0 = const()[name = tensor<string, []>("op_799_pad_0"), val = tensor<int32, [4]>([0, 0, 0, 0])];
            tensor<fp16, [640, 640, 1, 1]> down_blocks_1_attentions_0_transformer_blocks_0_attn1_to_out_0_weight_to_fp16_palettized = constexpr_lut_to_dense()[indices = tensor<uint8, [307200]>(BLOBFILE(path = tensor<string, []>("@model_path/weights/weight.bin"), offset = tensor<uint64, []>(15884736))), lut = tensor<fp16, [64]>(BLOBFILE(path = tensor<string, []>("@model_path/weights/weight.bin"), offset = tensor<uint64, []>(16192000))), name = tensor<string, []>("down_blocks_1_attentions_0_transformer_blocks_0_attn1_to_out_0_weight_to_fp16_palettized"), shape = tensor<uint32, [4]>([640, 640, 1, 1])];
            tensor<fp16, [640]> down_blocks_1_attentions_0_transformer_blocks_0_attn1_to_out_0_bias_to_fp16 = const()[name = tensor<string, []>("down_blocks_1_attentions_0_transformer_blocks_0_attn1_to_out_0_bias_to_fp16"), val = tensor<fp16, [640]>(BLOBFILE(path = tensor<string, []>("@model_path/weights/weight.bin"), offset = tensor<uint64, []>(16192192)))];
            tensor<fp16, [2, 640, 1, 1024]> var_799_cast = conv(bias = down_blocks_1_attentions_0_transformer_blocks_0_attn1_to_out_0_bias_to_fp16, dilations = var_797, groups = var_649, pad = var_799_pad_0, pad_type = var_799_pad_type_0, strides = var_795, weight = down_blocks_1_attentions_0_transformer_blocks_0_attn1_to_out_0_weight_to_fp16_palettized, x = input_79_cast)[name = tensor<string, []>("op_799_cast")];
            tensor<fp16, [2, 640, 1, 1024]> inputs_15_cast = add(x = var_799_cast, y = inputs_13_cast)[name = tensor<string, []>("inputs_15_cast")];
            tensor<int32, [1]> var_803 = const()[name = tensor<string, []>("op_803"), val = tensor<int32, [1]>([1])];
            tensor<fp16, [2, 1, 1, 1024]> channels_mean_15_cast = reduce_mean(axes = var_803, keep_dims = var_644, x = inputs_15_cast)[name = tensor<string, []>("channels_mean_15_cast")];
            tensor<fp16, [2, 640, 1, 1024]> zero_mean_15_cast = sub(x = inputs_15_cast, y = channels_mean_15_cast)[name = tensor<string, []>("zero_mean_15_cast")];
            tensor<fp16, [2, 640, 1, 1024]> zero_mean_sq_15_cast = mul(x = zero_mean_15_cast, y = zero_mean_15_cast)[name = tensor<string, []>("zero_mean_sq_15_cast")];
            tensor<int32, [1]> var_807 = const()[name = tensor<string, []>("op_807"), val = tensor<int32, [1]>([1])];
            tensor<fp16, [2, 1, 1, 1024]> var_808_cast = reduce_mean(axes = var_807, keep_dims = var_644, x = zero_mean_sq_15_cast)[name = tensor<string, []>("op_808_cast")];
            tensor<fp16, []> var_809_to_fp16 = const()[name = tensor<string, []>("op_809_to_fp16"), val = tensor<fp16, []>(0x1.5p-17)];
            tensor<fp16, [2, 1, 1, 1024]> var_810_cast = add(x = var_808_cast, y = var_809_to_fp16)[name = tensor<string, []>("op_810_cast")];
            tensor<fp16, []> denom_15_epsilon_0_to_fp16 = const()[name = tensor<string, []>("denom_15_epsilon_0_to_fp16"), val = tensor<fp16, []>(0x1p-24)];
            tensor<fp16, [2, 1, 1, 1024]> denom_15_cast = rsqrt(epsilon = denom_15_epsilon_0_to_fp16, x = var_810_cast)[name = tensor<string, []>("denom_15_cast")];
            tensor<fp16, [2, 640, 1, 1024]> out_15_cast = mul(x = zero_mean_15_cast, y = denom_15_cast)[name = tensor<string, []>("out_15_cast")];
            tensor<fp16, [1, 640, 1, 1]> var_814_to_fp16 = const()[name = tensor<string, []>("op_814_to_fp16"), val = tensor<fp16, [1, 640, 1, 1]>(BLOBFILE(path = tensor<string, []>("@model_path/weights/weight.bin"), offset = tensor<uint64, []>(16193536)))];
            tensor<fp16, [2, 640, 1, 1024]> var_815_cast = add(x = out_15_cast, y = var_814_to_fp16)[name = tensor<string, []>("op_815_cast")];
            tensor<fp16, [1, 640, 1, 1]> var_817_to_fp16 = const()[name = tensor<string, []>("op_817_to_fp16"), val = tensor<fp16, [1, 640, 1, 1]>(BLOBFILE(path = tensor<string, []>("@model_path/weights/weight.bin"), offset = tensor<uint64, []>(16194880)))];
            tensor<fp16, [2, 640, 1, 1024]> hidden_states_47_cast = mul(x = var_815_cast, y = var_817_to_fp16)[name = tensor<string, []>("hidden_states_47_cast")];
            tensor<int32, [2]> var_824 = const()[name = tensor<string, []>("op_824"), val = tensor<int32, [2]>([1, 1])];
            tensor<int32, [2]> var_826 = const()[name = tensor<string, []>("op_826"), val = tensor<int32, [2]>([1, 1])];
            tensor<string, []> q_11_pad_type_0 = const()[name = tensor<string, []>("q_11_pad_type_0"), val = tensor<string, []>("custom")];
            tensor<int32, [4]> q_11_pad_0 = const()[name = tensor<string, []>("q_11_pad_0"), val = tensor<int32, [4]>([0, 0, 0, 0])];
            tensor<fp16, [640, 640, 1, 1]> down_blocks_1_attentions_0_transformer_blocks_0_attn2_to_q_weight_to_fp16_palettized = constexpr_lut_to_dense()[indices = tensor<uint8, [307200]>(BLOBFILE(path = tensor<string, []>("@model_path/weights/weight.bin"), offset = tensor<uint64, []>(16196224))), lut = tensor<fp16, [64]>(BLOBFILE(path = tensor<string, []>("@model_path/weights/weight.bin"), offset = tensor<uint64, []>(16503488))), name = tensor<string, []>("down_blocks_1_attentions_0_transformer_blocks_0_attn2_to_q_weight_to_fp16_palettized"), shape = tensor<uint32, [4]>([640, 640, 1, 1])];
…
            tensor<fp16, [2, 32, 1, 1, 1]> reduce_mean_176_cast = reduce_mean(axes = reduce_mean_176_axes_0, keep_dims = reduce_mean_176_keep_dims_0, x = square_58_cast)[name = tensor<string, []>("reduce_mean_176_cast")];
            tensor<fp16, []> add_116_y_0_to_fp16 = const()[name = tensor<string, []>("add_116_y_0_to_fp16"), val = tensor<fp16, []>(0x1.5p-17)];
            tensor<fp16, [2, 32, 1, 1, 1]> add_116_cast = add(x = reduce_mean_176_cast, y = add_116_y_0_to_fp16)[name = tensor<string, []>("add_116_cast")];
            tensor<fp16, [2, 32, 1, 1, 1]> sqrt_58_cast = sqrt(x = add_116_cast)[name = tensor<string, []>("sqrt_58_cast")];
            tensor<fp16, [2, 32, 10, 64, 64]> real_div_58_cast = real_div(x = sub_116_cast, y = sqrt_58_cast)[name = tensor<string, []>("real_div_58_cast")];
            tensor<int32, [4]> reshape_233_shape_0 = const()[name = tensor<string, []>("reshape_233_shape_0"), val = tensor<int32, [4]>([2, 320, 64, 64])];
            tensor<fp16, [2, 320, 64, 64]> reshape_233_cast = reshape(shape = reshape_233_shape_0, x = real_div_58_cast)[name = tensor<string, []>("reshape_233_cast")];
            tensor<fp16, [320]> add_117_gamma_0_to_fp16 = const()[name = tensor<string, []>("add_117_gamma_0_to_fp16"), val = tensor<fp16, [320]>(BLOBFILE(path = tensor<string, []>("@model_path/weights/weight.bin"), offset = tensor<uint64, []>(647059584)))];
            tensor<fp16, [320]> add_117_beta_0_to_fp16 = const()[name = tensor<string, []>("add_117_beta_0_to_fp16"), val = tensor<fp16, [320]>(BLOBFILE(path = tensor<string, []>("@model_path/weights/weight.bin"), offset = tensor<uint64, []>(647060288)))];
            tensor<fp16, []> add_117_epsilon_0_to_fp16 = const()[name = tensor<string, []>("add_117_epsilon_0_to_fp16"), val = tensor<fp16, []>(0x1.5p-17)];
            tensor<fp16, [2, 320, 64, 64]> add_117_cast = batch_norm(beta = add_117_beta_0_to_fp16, epsilon = add_117_epsilon_0_to_fp16, gamma = add_117_gamma_0_to_fp16, mean = add_1_mean_0_to_fp16, variance = add_1_variance_0_to_fp16, x = reshape_233_cast)[name = tensor<string, []>("add_117_cast")];
            tensor<fp16, [2, 320, 64, 64]> input_513_cast = silu(x = add_117_cast)[name = tensor<string, []>("input_513_cast")];
            tensor<int32, [2]> var_4510 = const()[name = tensor<string, []>("op_4510"), val = tensor<int32, [2]>([1, 1])];
            tensor<int32, [2]> var_4512 = const()[name = tensor<string, []>("op_4512"), val = tensor<int32, [2]>([1, 1])];
            tensor<string, []> hidden_states_321_pad_type_0 = const()[name = tensor<string, []>("hidden_states_321_pad_type_0"), val = tensor<string, []>("custom")];
            tensor<int32, [4]> hidden_states_321_pad_0 = const()[name = tensor<string, []>("hidden_states_321_pad_0"), val = tensor<int32, [4]>([1, 1, 1, 1])];
            tensor<fp16, [320, 320, 3, 3]> up_blocks_3_resnets_2_conv2_weight_to_fp16_palettized = constexpr_lut_to_dense()[indices = tensor<uint8, [691200]>(BLOBFILE(path = tensor<string, []>("@model_path/weights/weight.bin"), offset = tensor<uint64, []>(647060992))), lut = tensor<fp16, [64]>(BLOBFILE(path = tensor<string, []>("@model_path/weights/weight.bin"), offset = tensor<uint64, []>(647752256))), name = tensor<string, []>("up_blocks_3_resnets_2_conv2_weight_to_fp16_palettized"), shape = tensor<uint32, [4]>([320, 320, 3, 3])];
            tensor<fp16, [320]> up_blocks_3_resnets_2_conv2_bias_to_fp16 = const()[name = tensor<string, []>("up_blocks_3_resnets_2_conv2_bias_to_fp16"), val = tensor<fp16, [320]>(BLOBFILE(path = tensor<string, []>("@model_path/weights/weight.bin"), offset = tensor<uint64, []>(647752448)))];
            tensor<fp16, [2, 320, 64, 64]> hidden_states_321_cast = conv(bias = up_blocks_3_resnets_2_conv2_bias_to_fp16, dilations = var_4512, groups = var_3945, pad = hidden_states_321_pad_0, pad_type = hidden_states_321_pad_type_0, strides = var_4510, weight = up_blocks_3_resnets_2_conv2_weight_to_fp16_palettized, x = input_513_cast)[name = tensor<string, []>("hidden_states_321_cast")];
            tensor<int32, [2]> var_4517 = const()[name = tensor<string, []>("op_4517"), val = tensor<int32, [2]>([1, 1])];
            tensor<int32, [2]> var_4519 = const()[name = tensor<string, []>("op_4519"), val = tensor<int32, [2]>([1, 1])];
            tensor<string, []> x_pad_type_0 = const()[name = tensor<string, []>("x_pad_type_0"), val = tensor<string, []>("custom")];
            tensor<int32, [4]> x_pad_0 = const()[name = tensor<string, []>("x_pad_0"), val = tensor<int32, [4]>([0, 0, 0, 0])];
            tensor<fp16, [320, 640, 1, 1]> up_blocks_3_resnets_2_conv_shortcut_weight_to_fp16_palettized = constexpr_lut_to_dense()[indices = tensor<uint8, [153600]>(BLOBFILE(path = tensor<string, []>("@model_path/weights/weight.bin"), offset = tensor<uint64, []>(647753152))), lut = tensor<fp16, [64]>(BLOBFILE(path = tensor<string, []>("@model_path/weights/weight.bin"), offset = tensor<uint64, []>(647906816))), name = tensor<string, []>("up_blocks_3_resnets_2_conv_shortcut_weight_to_fp16_palettized"), shape = tensor<uint32, [4]>([320, 640, 1, 1])];
            tensor<fp16, [320]> up_blocks_3_resnets_2_conv_shortcut_bias_to_fp16 = const()[name = tensor<string, []>("up_blocks_3_resnets_2_conv_shortcut_bias_to_fp16"), val = tensor<fp16, [320]>(BLOBFILE(path = tensor<string, []>("@model_path/weights/weight.bin"), offset = tensor<uint64, []>(647907008)))];
            tensor<fp16, [2, 320, 64, 64]> x_cast = conv(bias = up_blocks_3_resnets_2_conv_shortcut_bias_to_fp16, dilations = var_4519, groups = var_3945, pad = x_pad_0, pad_type = x_pad_type_0, strides = var_4517, weight = up_blocks_3_resnets_2_conv_shortcut_weight_to_fp16_palettized, x = input_501_cast)[name = tensor<string, []>("x_cast")];
            tensor<fp16, [2, 320, 64, 64]> hidden_states_323_cast = add(x = x_cast, y = hidden_states_321_cast)[name = tensor<string, []>("hidden_states_323_cast")];
            tensor<int32, [5]> reshape_236_shape_0 = const()[name = tensor<string, []>("reshape_236_shape_0"), val = tensor<int32, [5]>([2, 32, 10, 64, 64])];
            tensor<fp16, [2, 32, 10, 64, 64]> reshape_236_cast = reshape(shape = reshape_236_shape_0, x = hidden_states_323_cast)[name = tensor<string, []>("reshape_236_cast")];
            tensor<int32, [3]> reduce_mean_177_axes_0 = const()[name = tensor<string, []>("reduce_mean_177_axes_0"), val = tensor<int32, [3]>([2, 3, 4])];
            tensor<bool, []> reduce_mean_177_keep_dims_0 = const()[name = tensor<string, []>("reduce_mean_177_keep_dims_0"), val = tensor<bool, []>(true)];
            tensor<fp16, [2, 32, 1, 1, 1]> reduce_mean_177_cast = reduce_mean(axes = reduce_mean_177_axes_0, keep_dims = reduce_mean_177_keep_dims_0, x = reshape_236_cast)[name = tensor<string, []>("reduce_mean_177_cast")];
            tensor<fp16, [2, 32, 10, 64, 64]> sub_118_cast = sub(x = reshape_236_cast, y = reduce_mean_177_cast)[name = tensor<string, []>("sub_118_cast")];
            tensor<fp16, [2, 32, 10, 64, 64]> square_59_cast = square(x = sub_118_cast)[name = tensor<string, []>("square_59_cast")];
            tensor<int32, [3]> reduce_mean_179_axes_0 = const()[name = tensor<string, []>("reduce_mean_179_axes_0"), val = tensor<int32, [3]>([2, 3, 4])];
            tensor<bool, []> reduce_mean_179_keep_dims_0 = const()[name = tensor<string, []>("reduce_mean_179_keep_dims_0"), val = tensor<bool, []>(true)];
            tensor<fp16, [2, 32, 1, 1, 1]> reduce_mean_179_cast = reduce_mean(axes = reduce_mean_179_axes_0, keep_dims = reduce_mean_179_keep_dims_0, x = square_59_cast)[name = tensor<string, []>("reduce_mean_179_cast")];
            tensor<fp16, []> add_118_y_0_to_fp16 = const()[name = tensor<string, []>("add_118_y_0_to_fp16"), val = tensor<fp16, []>(0x1.1p-20)];
            tensor<fp16, [2, 32, 1, 1, 1]> add_118_cast = add(x = reduce_mean_179_cast, y = add_118_y_0_to_fp16)[name = tensor<string, []>("add_118_cast")];
            tensor<fp16, [2, 32, 1, 1, 1]> sqrt_59_cast = sqrt(x = add_118_cast)[name = tensor<string, []>("sqrt_59_cast")];
            tensor<fp16, [2, 32, 10, 64, 64]> real_div_59_cast = real_div(x = sub_118_cast, y = sqrt_59_cast)[name = tensor<string, []>("real_div_59_cast")];
            tensor<int32, [4]> reshape_237_shape_0 = const()[name = tensor<string, []>("reshape_237_shape_0"), val = tensor<int32, [4]>([2, 320, 64, 64])];
            tensor<fp16, [2, 320, 64, 64]> reshape_237_cast = reshape(shape = reshape_237_shape_0, x = real_div_59_cast)[name = tensor<string, []>("reshape_237_cast")];
            tensor<fp16, [320]> add_119_gamma_0_to_fp16 = const()[name = tensor<string, []>("add_119_gamma_0_to_fp16"), val = tensor<fp16, [320]>(BLOBFILE(path = tensor<string, []>("@model_path/weights/weight.bin"), offset = tensor<uint64, []>(647907712)))];
            tensor<fp16, [320]> add_119_beta_0_to_fp16 = const()[name = tensor<string, []>("add_119_beta_0_to_fp16"), val = tensor<fp16, [320]>(BLOBFILE(path = tensor<string, []>("@model_path/weights/weight.bin"), offset = tensor<uint64, []>(647908416)))];
            tensor<fp16, []> add_119_epsilon_0_to_fp16 = const()[name = tensor<string, []>("add_119_epsilon_0_to_fp16"), val = tensor<fp16, []>(0x1.5p-17)];
            tensor<fp16, [2, 320, 64, 64]> add_119_cast = batch_norm(beta = add_119_beta_0_to_fp16, epsilon = add_119_epsilon_0_to_fp16, gamma = add_119_gamma_0_to_fp16, mean = add_1_mean_0_to_fp16, variance = add_1_variance_0_to_fp16, x = reshape_237_cast)[name = tensor<string, []>("add_119_cast")];
            tensor<int32, [2]> var_4539 = const()[name = tensor<string, []>("op_4539"), val = tensor<int32, [2]>([1, 1])];
            tensor<int32, [2]> var_4541 = const()[name = tensor<string, []>("op_4541"), val = tensor<int32, [2]>([1, 1])];
            tensor<string, []> hidden_states_325_pad_type_0 = const()[name = tensor<string, []>("hidden_states_325_pad_type_0"), val = tensor<string, []>("custom")];
            tensor<int32, [4]> hidden_states_325_pad_0 = const()[name = tensor<string, []>("hidden_states_325_pad_0"), val = tensor<int32, [4]>([0, 0, 0, 0])];
            tensor<fp16, [320, 320, 1, 1]> up_blocks_3_attentions_2_proj_in_weight_to_fp16_palettized = constexpr_lut_to_dense()[indices = tensor<uint8, [76800]>(BLOBFILE(path = tensor<string, []>("@model_path/weights/weight.bin"), offset = tensor<uint64, []>(647909120))), lut = tensor<fp16, [64]>(BLOBFILE(path = tensor<string, []>("@model_path/weights/weight.bin"), offset = tensor<uint64, []>(647985984))), name = tensor<string, []>("up_blocks_3_attentions_2_proj_in_weight_to_fp16_palettized"), shape = tensor<uint32, [4]>([320, 320, 1, 1])];
            tensor<fp16, [320]> up_blocks_3_attentions_2_proj_in_bias_to_fp16 = const()[name = tensor<string, []>("up_blocks_3_attentions_2_proj_in_bias_to_fp16"), val = tensor<fp16, [320]>(BLOBFILE(path = tensor<string, []>("@model_path/weights/weight.bin"), offset = tensor<uint64, []>(647986176)))];
            tensor<fp16, [2, 320, 64, 64]> hidden_states_325_cast = conv(bias = up_blocks_3_attentions_2_proj_in_bias_to_fp16, dilations = var_4541, groups = var_3945, pad = hidden_states_325_pad_0, pad_type = hidden_states_325_pad_type_0, strides = var_4539, weight = up_blocks_3_attentions_2_proj_in_weight_to_fp16_palettized, x = add_119_cast)[name = tensor<string, []>("hidden_states_325_cast")];
            tensor<int32, [4]> var_4546 = const()[name = tensor<string, []>("op_4546"), val = tensor<int32, [4]>([2, 320, 1, 4096])];
            tensor<fp16, [2, 320, 1, 4096]> inputs_91_cast = reshape(shape = var_4546, x = hidden_states_325_cast)[name = tensor<string, []>("inputs_91_cast")];
            tensor<int32, [1]> var_4556 = const()[name = tensor<string, []>("op_4556"), val = tensor<int32, [1]>([1])];
            tensor<fp16, [2, 1, 1, 4096]> channels_mean_91_cast = reduce_mean(axes = var_4556, keep_dims = var_3940, x = inputs_91_cast)[name = tensor<string, []>("channels_mean_91_cast")];
            tensor<fp16, [2, 320, 1, 4096]> zero_mean_91_cast = sub(x = inputs_91_cast, y = channels_mean_91_cast)[name = tensor<string, []>("zero_mean_91_cast")];
            tensor<fp16, [2, 320, 1, 4096]> zero_mean_sq_91_cast = mul(x = zero_mean_91_cast, y = zero_mean_91_cast)[name = tensor<string, []>("zero_mean_sq_91_cast")];
            tensor<int32, [1]> var_4560 = const()[name = tensor<string, []>("op_4560"), val = tensor<int32, [1]>([1])];
            tensor<fp16, [2, 1, 1, 4096]> var_4561_cast = reduce_mean(axes = var_4560, keep_dims = var_3940, x = zero_mean_sq_91_cast)[name = tensor<string, []>("op_4561_cast")];
            tensor<fp16, []> var_4562_to_fp16 = const()[name = tensor<string, []>("op_4562_to_fp16"), val = tensor<fp16, []>(0x1.5p-17)];
            tensor<fp16, [2, 1, 1, 4096]> var_4563_cast = add(x = var_4561_cast, y = var_4562_to_fp16)[name = tensor<string, []>("op_4563_cast")];
            tensor<fp16, []> denom_91_epsilon_0_to_fp16 = const()[name = tensor<string, []>("denom_91_epsilon_0_to_fp16"), val = tensor<fp16, []>(0x1p-24)];
            tensor<fp16, [2, 1, 1, 4096]> denom_91_cast = rsqrt(epsilon = denom_91_epsilon_0_to_fp16, x = var_4563_cast)[name = tensor<string, []>("denom_91_cast")];
            tensor<fp16, [2, 320, 1, 4096]> out_91_cast = mul(x = zero_mean_91_cast, y = denom_91_cast)[name = tensor<string, []>("out_91_cast")];
            tensor<fp16, [1, 320, 1, 1]> var_4567_to_fp16 = const()[name = tensor<string, []>("op_4567_to_fp16"), val = tensor<fp16, [1, 320, 1, 1]>(BLOBFILE(path = tensor<string, []>("@model_path/weights/weight.bin"), offset = tensor<uint64, []>(647986880)))];
            tensor<fp16, [2, 320, 1, 4096]> var_4568_cast = add(x = out_91_cast, y = var_4567_to_fp16)[name = tensor<string, []>("op_4568_cast")];
            tensor<fp16, [1, 320, 1, 1]> var_4570_to_fp16 = const()[name = tensor<string, []>("op_4570_to_fp16"), val = tensor<fp16, [1, 320, 1, 1]>(BLOBFILE(path = tensor<string, []>("@model_path/weights/weight.bin"), offset = tensor<uint64, []>(647987584)))];
            tensor<fp16, [2, 320, 1, 4096]> hidden_states_327_cast = mul(x = var_4568_cast, y = var_4570_to_fp16)[name = tensor<string, []>("hidden_states_327_cast")];
            tensor<int32, [2]> var_4577 = const()[name = tensor<string, []>("op_4577"), val = tensor<int32, [2]>([1, 1])];
            tensor<int32, [2]> var_4579 = const()[name = tensor<string, []>("op_4579"), val = tensor<int32, [2]>([1, 1])];
            tensor<string, []> q_61_pad_type_0 = const()[name = tensor<string, []>("q_61_pad_type_0"), val = tensor<string, []>("custom")];
            tensor<int32, [4]> q_61_pad_0 = const()[name = tensor<string, []>("q_61_pad_0"), val = tensor<int32, [4]>([0, 0, 0, 0])];
            tensor<fp16, [320, 320, 1, 1]> up_blocks_3_attentions_2_transformer_blocks_0_attn1_to_q_weight_to_fp16_palettized = constexpr_lut_to_dense()[indices = tensor<uint8, [76800]>(BLOBFILE(path = tensor<string, []>("@model_path/weights/weight.bin"), offset = tensor<uint64, []>(647988288))), lut = tensor<fp16, [64]>(BLOBFILE(path = tensor<string, []>("@model_path/weights/weight.bin"), offset = tensor<uint64, []>(648065152))), name = tensor<string, []>("up_blocks_3_attentions_2_transformer_blocks_0_attn1_to_q_weight_to_fp16_palettized"), shape = tensor<uint32, [4]>([320, 320, 1, 1])];
            tensor<fp16, [2, 320, 1, 4096]> q_61_cast = conv(dilations = var_4579, groups = var_3945, pad = q_61_pad_0, pad_type = q_61_pad_type_0, strides = var_4577, weight = up_blocks_3_attentions_2_transformer_blocks_0_attn1_to_q_weight_to_fp16_palettized, x = hidden_states_327_cast)[name = tensor<string, []>("q_61_cast")];
            tensor<int32, [2]> var_4583 = const()[name = tensor<string, []>("op_4583"), val = tensor<int32, [2]>([1, 1])];
            tensor<int32, [2]> var_4585 = const()[name = tensor<string, []>("op_4585"), val = tensor<int32, [2]>([1, 1])];
            tensor<string, []> k_61_pad_type_0 = const()[name = tensor<string, []>("k_61_pad_type_0"), val = tensor<string, []>("custom")];
            tensor<int32, [4]> k_61_pad_0 = const()[name = tensor<string, []>("k_61_pad_0"), val = tensor<int32, [4]>([0, 0, 0, 0])];
            tensor<fp16, [320, 320, 1, 1]> up_blocks_3_attentions_2_transformer_blocks_0_attn1_to_k_weight_to_fp16_palettized = constexpr_lut_to_dense()[indices = tensor<uint8, [76800]>(BLOBFILE(path = tensor<string, []>("@model_path/weights/weight.bin"), offset = tensor<uint64, []>(648065344))), lut = tensor<fp16, [64]>(BLOBFILE(path = tensor<string, []>("@model_path/weights/weight.bin"), offset = tensor<uint64, []>(648142208))), name = tensor<string, []>("up_blocks_3_attentions_2_transformer_blocks_0_attn1_to_k_weight_to_fp16_palettized"), shape = tensor<uint32, [4]>([320, 320, 1, 1])];
            tensor<fp16, [2, 320, 1, 4096]> k_61_cast = conv(dilations = var_4585, groups = var_3945, pad = k_61_pad_0, pad_type = k_61_pad_type_0, strides = var_4583, weight = up_blocks_3_attentions_2_transformer_blocks_0_attn1_to_k_weight_to_fp16_palettized, x = hidden_states_327_cast)[name = tensor<string, []>("k_61_cast")];
            tensor<int32, [2]> var_4589 = const()[name = tensor<string, []>("op_4589"), val = tensor<int32, [2]>([1, 1])];
            tensor<int32, [2]> var_4591 = const()[name = tensor<string, []>("op_4591"), val = tensor<int32, [2]>([1, 1])];
            tensor<string, []> v_61_pad_type_0 = const()[name = tensor<string, []>("v_61_pad_type_0"), val = tensor<string, []>("custom")];
            tensor<int32, [4]> v_61_pad_0 = const()[name = tensor<string, []>("v_61_pad_0"), val = tensor<int32, [4]>([0, 0, 0, 0])];
            tensor<fp16, [320, 320, 1, 1]> up_blocks_3_attentions_2_transformer_blocks_0_attn1_to_v_weight_to_fp16_palettized = constexpr_lut_to_dense()[indices = tensor<uint8, [76800]>(BLOBFILE(path = tensor<string, []>("@model_path/weights/weight.bin"), offset = tensor<uint64, []>(648142400))), lut = tensor<fp16, [64]>(BLOBFILE(path = tensor<string, []>("@model_path/weights/weight.bin"), offset = tensor<uint64, []>(648219264))), name = tensor<string, []>("up_blocks_3_attentions_2_transformer_blocks_0_attn1_to_v_weight_to_fp16_palettized"), shape = tensor<uint32, [4]>([320, 320, 1, 1])];
            tensor<fp16, [2, 320, 1, 4096]> v_61_cast = conv(dilations = var_4591, groups = var_3945, pad = v_61_pad_0, pad_type = v_61_pad_type_0, strides = var_4589, weight = up_blocks_3_attentions_2_transformer_blocks_0_attn1_to_v_weight_to_fp16_palettized, x = hidden_states_327_cast)[name = tensor<string, []>("v_61_cast")];
            tensor<int32, [4]> var_4595 = const()[name = tensor<string, []>("op_4595"), val = tensor<int32, [4]>([2, 5, 64, -1])];
            tensor<fp16, [2, 5, 64, 4096]> var_4596_cast = reshape(shape = var_4595, x = q_61_cast)[name = tensor<string, []>("op_4596_cast")];
            tensor<int32, [4]> var_4597 = const()[name = tensor<string, []>("op_4597"), val = tensor<int32, [4]>([2, 5, 64, -1])];
            tensor<fp16, [2, 5, 64, 4096]> var_4598_cast = reshape(shape = var_4597, x = k_61_cast)[name = tensor<string, []>("op_4598_cast")];
            tensor<int32, [4]> var_4599 = const()[name = tensor<string, []>("op_4599"), val = tensor<int32, [4]>([2, 5, 64, -1])];
            tensor<fp16, [2, 5, 64, 4096]> var_4600_cast = reshape(shape = var_4599, x = v_61_cast)[name = tensor<string, []>("op_4600_cast")];
            tensor<bool, []> attn_weights_121_transpose_x_0 = const()[name = tensor<string, []>("attn_weights_121_transpose_x_0"), val = tensor<bool, []>(true)];
            tensor<bool, []> attn_weights_121_transpose_y_0 = const()[name = tensor<string, []>("attn_weights_121_transpose_y_0"), val = tensor<bool, []>(false)];
            tensor<fp16, [2, 5, 4096, 4096]> attn_weights_121_cast = matmul(transpose_x = attn_weights_121_transpose_x_0, transpose_y = attn_weights_121_transpose_y_0, x = var_4596_cast, y = var_4598_cast)[name = tensor<string, []>("attn_weights_121_cast")];
            tensor<fp16, [2, 5, 4096, 4096]> attn_weights_123_cast = mul(x = attn_weights_121_cast, y = var_3936_to_fp16)[name = tensor<string, []>("attn_weights_123_cast")];
            tensor<fp16, [2, 5, 4096, 4096]> var_4604_cast = softmax(axis = var_3929, x = attn_weights_123_cast)[name = tensor<string, []>("op_4604_cast")];
            tensor<bool, []> attn_61_transpose_x_0 = const()[name = tensor<string, []>("attn_61_transpose_x_0"), val = tensor<bool, []>(false)];
            tensor<bool, []> attn_61_transpose_y_0 = const()[name = tensor<string, []>("attn_61_transpose_y_0"), val = tensor<bool, []>(true)];
            tensor<fp16, [2, 5, 64, 4096]> attn_61_cast = matmul(transpose_x = attn_61_transpose_x_0, transpose_y = attn_61_transpose_y_0, x = var_4600_cast, y = var_4604_cast)[name = tensor<string, []>("attn_61_cast")];
            tensor<int32, [4]> var_4608 = const()[name = tensor<string, []>("op_4608"), val = tensor<int32, [4]>([2, 320, 1, -1])];
            tensor<fp16, [2, 320, 1, 4096]> input_517_cast = reshape(shape = var_4608, x = attn_61_cast)[name = tensor<string, []>("input_517_cast")];
            tensor<int32, [2]> var_4613 = const()[name = tensor<string, []>("op_4613"), val = tensor<int32, [2]>([1, 1])];
            tensor<int32, [2]> var_4615 = const()[name = tensor<string, []>("op_4615"), val = tensor<int32, [2]>([1, 1])];
            tensor<string, []> var_4617_pad_type_0 = const()[name = tensor<string, []>("op_4617_pad_type_0"), val = tensor<string, []>("custom")];
            tensor<int32, [4]> var_4617_pad_0 = const()[name = tensor<string, []>("op_4617_pad_0"), val = tensor<int32, [4]>([0, 0, 0, 0])];
            tensor<fp16, [320, 320, 1, 1]> up_blocks_3_attentions_2_transformer_blocks_0_attn1_to_out_0_weight_to_fp16_palettized = constexpr_lut_to_dense()[indices = tensor<uint8, [76800]>(BLOBFILE(path = tensor<string, []>("@model_path/weights/weight.bin"), offset = tensor<uint64, []>(648219456))), lut = tensor<fp16, [64]>(BLOBFILE(path = tensor<string, []>("@model_path/weights/weight.bin"), offset = tensor<uint64, []>(648296320))), name = tensor<string, []>("up_blocks_3_attentions_2_transformer_blocks_0_attn1_to_out_0_weight_to_fp16_palettized"), shape = tensor<uint32, [4]>([320, 320, 1, 1])];
            tensor<fp16, [320]> up_blocks_3_attentions_2_transformer_blocks_0_attn1_to_out_0_bias_to_fp16 = const()[name = tensor<string, []>("up_blocks_3_attentions_2_transformer_blocks_0_attn1_to_out_0_bias_to_fp16"), val = tensor<fp16, [320]>(BLOBFILE(path = tensor<string, []>("@model_path/weights/weight.bin"), offset = tensor<uint64, []>(648296512)))];
            tensor<fp16, [2, 320, 1, 4096]> var_4617_cast = conv(bias = up_blocks_3_attentions_2_transformer_blocks_0_attn1_to_out_0_bias_to_fp16, dilations = var_4615, groups = var_3945, pad = var_4617_pad_0, pad_type = var_4617_pad_type_0, strides = var_4613, weight = up_blocks_3_attentions_2_transformer_blocks_0_attn1_to_out_0_weight_to_fp16_palettized, x = input_517_cast)[name = tensor<string, []>("op_4617_cast")];
            tensor<fp16, [2, 320, 1, 4096]> inputs_93_cast = add(x = var_4617_cast, y = inputs_91_cast)[name = tensor<string, []>("inputs_93_cast")];
            tensor<int32, [1]> var_4621 = const()[name = tensor<string, []>("op_4621"), val = tensor<int32, [1]>([1])];
            tensor<fp16, [2, 1, 1, 4096]> channels_mean_93_cast = reduce_mean(axes = var_4621, keep_dims = var_3940, x = inputs_93_cast)[name = tensor<string, []>("channels_mean_93_cast")];
            tensor<fp16, [2, 320, 1, 4096]> zero_mean_93_cast = sub(x = inputs_93_cast, y = channels_mean_93_cast)[name = tensor<string, []>("zero_mean_93_cast")];
            tensor<fp16, [2, 320, 1, 4096]> zero_mean_sq_93_cast = mul(x = zero_mean_93_cast, y = zero_mean_93_cast)[name = tensor<string, []>("zero_mean_sq_93_cast")];
            tensor<int32, [1]> var_4625 = const()[name = tensor<string, []>("op_4625"), val = tensor<int32, [1]>([1])];
            tensor<fp16, [2, 1, 1, 4096]> var_4626_cast = reduce_mean(axes = var_4625, keep_dims = var_3940, x = zero_mean_sq_93_cast)[name = tensor<string, []>("op_4626_cast")];
            tensor<fp16, []> var_4627_to_fp16 = const()[name = tensor<string, []>("op_4627_to_fp16"), val = tensor<fp16, []>(0x1.5p-17)];
            tensor<fp16, [2, 1, 1, 4096]> var_4628_cast = add(x = var_4626_cast, y = var_4627_to_fp16)[name = tensor<string, []>("op_4628_cast")];
            tensor<fp16, []> denom_93_epsilon_0_to_fp16 = const()[name = tensor<string, []>("denom_93_epsilon_0_to_fp16"), val = tensor<fp16, []>(0x1p-24)];
            tensor<fp16, [2, 1, 1, 4096]> denom_93_cast = rsqrt(epsilon = denom_93_epsilon_0_to_fp16, x = var_4628_cast)[name = tensor<string, []>("denom_93_cast")];
            tensor<fp16, [2, 320, 1, 4096]> out_93_cast = mul(x = zero_mean_93_cast, y = denom_93_cast)[name = tensor<string, []>("out_93_cast")];
            tensor<fp16, [1, 320, 1, 1]> var_4632_to_fp16 = const()[name = tensor<string, []>("op_4632_to_fp16"), val = tensor<fp16, [1, 320, 1, 1]>(BLOBFILE(path = tensor<string, []>("@model_path/weights/weight.bin"), offset = tensor<uint64, []>(648297216)))];
            tensor<fp16, [2, 320, 1, 4096]> var_4633_cast = add(x = out_93_cast, y = var_4632_to_fp16)[name = tensor<string, []>("op_4633_cast")];
            tensor<fp16, [1, 320, 1, 1]> var_4635_to_fp16 = const()[name = tensor<string, []>("op_4635_to_fp16"), val = tensor<fp16, [1, 320, 1, 1]>(BLOBFILE(path = tensor<string, []>("@model_path/weights/weight.bin"), offset = tensor<uint64, []>(648297920)))];
            tensor<fp16, [2, 320, 1, 4096]> hidden_states_329_cast = mul(x = var_4633_cast, y = var_4635_to_fp16)[name = tensor<string, []>("hidden_states_329_cast")];
            tensor<int32, [2]> var_4642 = const()[name = tensor<string, []>("op_4642"), val = tensor<int32, [2]>([1, 1])];
            tensor<int32, [2]> var_4644 = const()[name = tensor<string, []>("op_4644"), val = tensor<int32, [2]>([1, 1])];
            tensor<string, []> q_pad_type_0 = const()[name = tensor<string, []>("q_pad_type_0"), val = tensor<string, []>("custom")];
            tensor<int32, [4]> q_pad_0 = const()[name = tensor<string, []>("q_pad_0"), val = tensor<int32, [4]>([0, 0, 0, 0])];
            tensor<fp16, [320, 320, 1, 1]> up_blocks_3_attentions_2_transformer_blocks_0_attn2_to_q_weight_to_fp16_palettized = constexpr_lut_to_dense()[indices = tensor<uint8, [76800]>(BLOBFILE(path = tensor<string, []>("@model_path/weights/weight.bin"), offset = tensor<uint64, []>(648298624))), lut = tensor<fp16, [64]>(BLOBFILE(path = tensor<string, []>("@model_path/weights/weight.bin"), offset = tensor<uint64, []>(648375488))), name = tensor<string, []>("up_blocks_3_attentions_2_transformer_blocks_0_attn2_to_q_weight_to_fp16_palettized"), shape = tensor<uint32, [4]>([320, 320, 1, 1])];
            tensor<fp16, [2, 320, 1, 4096]> q_cast = conv(dilations = var_4644, groups = var_3945, pad = q_pad_0, pad_type = q_pad_type_0, strides = var_4642, weight = up_blocks_3_attentions_2_transformer_blocks_0_attn2_to_q_weight_to_fp16_palettized, x = hidden_states_329_cast)[name = tensor<string, []>("q_cast")];
            tensor<int32, [2]> var_4648 = const()[name = tensor<string, []>("op_4648"), val = tensor<int32, [2]>([1, 1])];
            tensor<int32, [2]> var_4650 = const()[name = tensor<string, []>("op_4650"), val = tensor<int32, [2]>([1, 1])];
            tensor<string, []> k_pad_type_0 = const()[name = tensor<string, []>("k_pad_type_0"), val = tensor<string, []>("custom")];
            tensor<int32, [4]> k_pad_0 = const()[name = tensor<string, []>("k_pad_0"), val = tensor<int32, [4]>([0, 0, 0, 0])];
            tensor<fp16, [320, 1024, 1, 1]> up_blocks_3_attentions_2_transformer_blocks_0_attn2_to_k_weight_to_fp16_palettized = constexpr_lut_to_dense()[indices = tensor<uint8, [245760]>(BLOBFILE(path = tensor<string, []>("@model_path/weights/weight.bin"), offset = tensor<uint64, []>(648375680))), lut = tensor<fp16, [64]>(BLOBFILE(path = tensor<string, []>("@model_path/weights/weight.bin"), offset = tensor<uint64, []>(648621504))), name = tensor<string, []>("up_blocks_3_attentions_2_transformer_blocks_0_attn2_to_k_weight_to_fp16_palettized"), shape = tensor<uint32, [4]>([320, 1024, 1, 1])];
            tensor<fp16, [2, 320, 1, 77]> k_cast = conv(dilations = var_4650, groups = var_3945, pad = k_pad_0, pad_type = k_pad_type_0, strides = var_4648, weight = up_blocks_3_attentions_2_transformer_blocks_0_attn2_to_k_weight_to_fp16_palettized, x = encoder_hidden_states)[name = tensor<string, []>("k_cast")];
            tensor<int32, [2]> var_4654 = const()[name = tensor<string, []>("op_4654"), val = tensor<int32, [2]>([1, 1])];
            tensor<int32, [2]> var_4656 = const()[name = tensor<string, []>("op_4656"), val = tensor<int32, [2]>([1, 1])];
            tensor<string, []> v_pad_type_0 = const()[name = tensor<string, []>("v_pad_type_0"), val = tensor<string, []>("custom")];
            tensor<int32, [4]> v_pad_0 = const()[name = tensor<string, []>("v_pad_0"), val = tensor<int32, [4]>([0, 0, 0, 0])];
            tensor<fp16, [320, 1024, 1, 1]> up_blocks_3_attentions_2_transformer_blocks_0_attn2_to_v_weight_to_fp16_palettized = constexpr_lut_to_dense()[indices = tensor<uint8, [245760]>(BLOBFILE(path = tensor<string, []>("@model_path/weights/weight.bin"), offset = tensor<uint64, []>(648621696))), lut = tensor<fp16, [64]>(BLOBFILE(path = tensor<string, []>("@model_path/weights/weight.bin"), offset = tensor<uint64, []>(648867520))), name = tensor<string, []>("up_blocks_3_attentions_2_transformer_blocks_0_attn2_to_v_weight_to_fp16_palettized"), shape = tensor<uint32, [4]>([320, 1024, 1, 1])];
            tensor<fp16, [2, 320, 1, 77]> v_cast = conv(dilations = var_4656, groups = var_3945, pad = v_pad_0, pad_type = v_pad_type_0, strides = var_4654, weight = up_blocks_3_attentions_2_transformer_blocks_0_attn2_to_v_weight_to_fp16_palettized, x = encoder_hidden_states)[name = tensor<string, []>("v_cast")];
            tensor<int32, [4]> var_4660 = const()[name = tensor<string, []>("op_4660"), val = tensor<int32, [4]>([2, 5, 64, -1])];
            tensor<fp16, [2, 5, 64, 4096]> var_4661_cast = reshape(shape = var_4660, x = q_cast)[name = tensor<string, []>("op_4661_cast")];
            tensor<int32, [4]> var_4662 = const()[name = tensor<string, []>("op_4662"), val = tensor<int32, [4]>([2, 5, 64, -1])];
            tensor<fp16, [2, 5, 64, 77]> var_4663_cast = reshape(shape = var_4662, x = k_cast)[name = tensor<string, []>("op_4663_cast")];
            tensor<int32, [4]> var_4664 = const()[name = tensor<string, []>("op_4664"), val = tensor<int32, [4]>([2, 5, 64, -1])];
            tensor<fp16, [2, 5, 64, 77]> var_4665_cast = reshape(shape = var_4664, x = v_cast)[name = tensor<string, []>("op_4665_cast")];
            tensor<bool, []> attn_weights_125_transpose_x_0 = const()[name = tensor<string, []>("attn_weights_125_transpose_x_0"), val = tensor<bool, []>(true)];
            tensor<bool, []> attn_weights_125_transpose_y_0 = const()[name = tensor<string, []>("attn_weights_125_transpose_y_0"), val = tensor<bool, []>(false)];
            tensor<fp16, [2, 5, 4096, 77]> attn_weights_125_cast = matmul(transpose_x = attn_weights_125_transpose_x_0, transpose_y = attn_weights_125_transpose_y_0, x = var_4661_cast, y = var_4663_cast)[name = tensor<string, []>("attn_weights_125_cast")];
            tensor<fp16, [2, 5, 4096, 77]> attn_weights_cast = mul(x = attn_weights_125_cast, y = var_3936_to_fp16)[name = tensor<string, []>("attn_weights_cast")];
            tensor<fp16, [2, 5, 4096, 77]> var_4669_cast = softmax(axis = var_3929, x = attn_weights_cast)[name = tensor<string, []>("op_4669_cast")];
            tensor<bool, []> attn_transpose_x_0 = const()[name = tensor<string, []>("attn_transpose_x_0"), val = tensor<bool, []>(false)];
            tensor<bool, []> attn_transpose_y_0 = const()[name = tensor<string, []>("attn_transpose_y_0"), val = tensor<bool, []>(true)];
            tensor<fp16, [2, 5, 64, 4096]> attn_cast = matmul(transpose_x = attn_transpose_x_0, transpose_y = attn_transpose_y_0, x = var_4665_cast, y = var_4669_cast)[name = tensor<string, []>("attn_cast")];
            tensor<int32, [4]> var_4673 = const()[name = tensor<string, []>("op_4673"), val = tensor<int32, [4]>([2, 320, 1, -1])];
            tensor<fp16, [2, 320, 1, 4096]> input_519_cast = reshape(shape = var_4673, x = attn_cast)[name = tensor<string, []>("input_519_cast")];
            tensor<int32, [2]> var_4678 = const()[name = tensor<string, []>("op_4678"), val = tensor<int32, [2]>([1, 1])];
            tensor<int32, [2]> var_4680 = const()[name = tensor<string, []>("op_4680"), val = tensor<int32, [2]>([1, 1])];
            tensor<string, []> var_4682_pad_type_0 = const()[name = tensor<string, []>("op_4682_pad_type_0"), val = tensor<string, []>("custom")];
            tensor<int32, [4]> var_4682_pad_0 = const()[name = tensor<string, []>("op_4682_pad_0"), val = tensor<int32, [4]>([0, 0, 0, 0])];
            tensor<fp16, [320, 320, 1, 1]> up_blocks_3_attentions_2_transformer_blocks_0_attn2_to_out_0_weight_to_fp16_palettized = constexpr_lut_to_dense()[indices = tensor<uint8, [76800]>(BLOBFILE(path = tensor<string, []>("@model_path/weights/weight.bin"), offset = tensor<uint64, []>(648867712))), lut = tensor<fp16, [64]>(BLOBFILE(path = tensor<string, []>("@model_path/weights/weight.bin"), offset = tensor<uint64, []>(648944576))), name = tensor<string, []>("up_blocks_3_attentions_2_transformer_blocks_0_attn2_to_out_0_weight_to_fp16_palettized"), shape = tensor<uint32, [4]>([320, 320, 1, 1])];
            tensor<fp16, [320]> up_blocks_3_attentions_2_transformer_blocks_0_attn2_to_out_0_bias_to_fp16 = const()[name = tensor<string, []>("up_blocks_3_attentions_2_transformer_blocks_0_attn2_to_out_0_bias_to_fp16"), val = tensor<fp16, [320]>(BLOBFILE(path = tensor<string, []>("@model_path/weights/weight.bin"), offset = tensor<uint64, []>(648944768)))];
            tensor<fp16, [2, 320, 1, 4096]> var_4682_cast = conv(bias = up_blocks_3_attentions_2_transformer_blocks_0_attn2_to_out_0_bias_to_fp16, dilations = var_4680, groups = var_3945, pad = var_4682_pad_0, pad_type = var_4682_pad_type_0, strides = var_4678, weight = up_blocks_3_attentions_2_transformer_blocks_0_attn2_to_out_0_weight_to_fp16_palettized, x = input_519_cast)[name = tensor<string, []>("op_4682_cast")];
            tensor<fp16, [2, 320, 1, 4096]> inputs_cast = add(x = var_4682_cast, y = inputs_93_cast)[name = tensor<string, []>("inputs_cast")];
            tensor<int32, [1]> var_4686 = const()[name = tensor<string, []>("op_4686"), val = tensor<int32, [1]>([1])];
            tensor<fp16, [2, 1, 1, 4096]> channels_mean_cast = reduce_mean(axes = var_4686, keep_dims = var_3940, x = inputs_cast)[name = tensor<string, []>("channels_mean_cast")];
            tensor<fp16, [2, 320, 1, 4096]> zero_mean_cast = sub(x = inputs_cast, y = channels_mean_cast)[name = tensor<string, []>("zero_mean_cast")];
            tensor<fp16, [2, 320, 1, 4096]> zero_mean_sq_cast = mul(x = zero_mean_cast, y = zero_mean_cast)[name = tensor<string, []>("zero_mean_sq_cast")];
            tensor<int32, [1]> var_4690 = const()[name = tensor<string, []>("op_4690"), val = tensor<int32, [1]>([1])];
            tensor<fp16, [2, 1, 1, 4096]> var_4691_cast = reduce_mean(axes = var_4690, keep_dims = var_3940, x = zero_mean_sq_cast)[name = tensor<string, []>("op_4691_cast")];
            tensor<fp16, []> var_4692_to_fp16 = const()[name = tensor<string, []>("op_4692_to_fp16"), val = tensor<fp16, []>(0x1.5p-17)];
            tensor<fp16, [2, 1, 1, 4096]> var_4693_cast = add(x = var_4691_cast, y = var_4692_to_fp16)[name = tensor<string, []>("op_4693_cast")];
            tensor<fp16, []> denom_epsilon_0_to_fp16 = const()[name = tensor<string, []>("denom_epsilon_0_to_fp16"), val = tensor<fp16, []>(0x1p-24)];
            tensor<fp16, [2, 1, 1, 4096]> denom_cast = rsqrt(epsilon = denom_epsilon_0_to_fp16, x = var_4693_cast)[name = tensor<string, []>("denom_cast")];
            tensor<fp16, [2, 320, 1, 4096]> out_cast = mul(x = zero_mean_cast, y = denom_cast)[name = tensor<string, []>("out_cast")];
            tensor<fp16, [1, 320, 1, 1]> var_4697_to_fp16 = const()[name = tensor<string, []>("op_4697_to_fp16"), val = tensor<fp16, [1, 320, 1, 1]>(BLOBFILE(path = tensor<string, []>("@model_path/weights/weight.bin"), offset = tensor<uint64, []>(648945472)))];
            tensor<fp16, [2, 320, 1, 4096]> var_4698_cast = add(x = out_cast, y = var_4697_to_fp16)[name = tensor<string, []>("op_4698_cast")];
            tensor<fp16, [1, 320, 1, 1]> var_4700_to_fp16 = const()[name = tensor<string, []>("op_4700_to_fp16"), val = tensor<fp16, [1, 320, 1, 1]>(BLOBFILE(path = tensor<string, []>("@model_path/weights/weight.bin"), offset = tensor<uint64, []>(648946176)))];
            tensor<fp16, [2, 320, 1, 4096]> input_521_cast = mul(x = var_4698_cast, y = var_4700_to_fp16)[name = tensor<string, []>("input_521_cast")];
            tensor<int32, [2]> var_4708 = const()[name = tensor<string, []>("op_4708"), val = tensor<int32, [2]>([1, 1])];
            tensor<int32, [2]> var_4710 = const()[name = tensor<string, []>("op_4710"), val = tensor<int32, [2]>([1, 1])];
            tensor<string, []> var_4712_pad_type_0 = const()[name = tensor<string, []>("op_4712_pad_type_0"), val = tensor<string, []>("custom")];
            tensor<int32, [4]> var_4712_pad_0 = const()[name = tensor<string, []>("op_4712_pad_0"), val = tensor<int32, [4]>([0, 0, 0, 0])];
            tensor<fp16, [2560, 320, 1, 1]> up_blocks_3_attentions_2_transformer_blocks_0_ff_net_0_proj_weight_to_fp16_palettized = constexpr_lut_to_dense()[indices = tensor<uint8, [614400]>(BLOBFILE(path = tensor<string, []>("@model_path/weights/weight.bin"), offset = tensor<uint64, []>(648946880))), lut = tensor<fp16, [64]>(BLOBFILE(path = tensor<string, []>("@model_path/weights/weight.bin"), offset = tensor<uint64, []>(649561344))), name = tensor<string, []>("up_blocks_3_attentions_2_transformer_blocks_0_ff_net_0_proj_weight_to_fp16_palettized"), shape = tensor<uint32, [4]>([2560, 320, 1, 1])];
            tensor<fp16, [2560]> up_blocks_3_attentions_2_transformer_blocks_0_ff_net_0_proj_bias_to_fp16_palettized = constexpr_lut_to_dense()[indices = tensor<uint8, [1920]>(BLOBFILE(path = tensor<string, []>("@model_path/weights/weight.bin"), offset = tensor<uint64, []>(649561536))), lut = tensor<fp16, [64]>(BLOBFILE(path = tensor<string, []>("@model_path/weights/weight.bin"), offset = tensor<uint64, []>(649563520))), name = tensor<string, []>("up_blocks_3_attentions_2_transformer_blocks_0_ff_net_0_proj_bias_to_fp16_palettized"), shape = tensor<uint32, [1]>([2560])];
            tensor<fp16, [2, 2560, 1, 4096]> var_4712_cast = conv(bias = up_blocks_3_attentions_2_transformer_blocks_0_ff_net_0_proj_bias_to_fp16_palettized, dilations = var_4710, groups = var_3945, pad = var_4712_pad_0, pad_type = var_4712_pad_type_0, strides = var_4708, weight = up_blocks_3_attentions_2_transformer_blocks_0_ff_net_0_proj_weight_to_fp16_palettized, x = input_521_cast)[name = tensor<string, []>("op_4712_cast")];
            tensor<int32, [2]> var_4713_split_sizes_0 = const()[name = tensor<string, []>("op_4713_split_sizes_0"), val = tensor<int32, [2]>([1280, 1280])];
            tensor<int32, []> var_4713_axis_0 = const()[name = tensor<string, []>("op_4713_axis_0"), val = tensor<int32, []>(1)];
            tensor<fp16, [2, 1280, 1, 4096]> var_4713_cast_0, tensor<fp16, [2, 1280, 1, 4096]> var_4713_cast_1 = split(axis = var_4713_axis_0, split_sizes = var_4713_split_sizes_0, x = var_4712_cast)[name = tensor<string, []>("op_4713_cast")];
            tensor<string, []> var_4715_mode_0 = const()[name = tensor<string, []>("op_4715_mode_0"), val = tensor<string, []>("EXACT")];
            tensor<fp16, [2, 1280, 1, 4096]> var_4715_cast = gelu(mode = var_4715_mode_0, x = var_4713_cast_1)[name = tensor<string, []>("op_4715_cast")];
            tensor<fp16, [2, 1280, 1, 4096]> input_523_cast = mul(x = var_4713_cast_0, y = var_4715_cast)[name = tensor<string, []>("input_523_cast")];
            tensor<int32, [2]> var_4719 = const()[name = tensor<string, []>("op_4719"), val = tensor<int32, [2]>([1, 1])];
            tensor<int32, [2]> var_4721 = const()[name = tensor<string, []>("op_4721"), val = tensor<int32, [2]>([1, 1])];
            tensor<string, []> var_4723_pad_type_0 = const()[name = tensor<string, []>("op_4723_pad_type_0"), val = tensor<string, []>("custom")];
            tensor<int32, [4]> var_4723_pad_0 = const()[name = tensor<string, []>("op_4723_pad_0"), val = tensor<int32, [4]>([0, 0, 0, 0])];
            tensor<fp16, [320, 1280, 1, 1]> up_blocks_3_attentions_2_transformer_blocks_0_ff_net_2_weight_to_fp16_palettized = constexpr_lut_to_dense()[indices = tensor<uint8, [307200]>(BLOBFILE(path = tensor<string, []>("@model_path/weights/weight.bin"), offset = tensor<uint64, []>(649563712))), lut = tensor<fp16, [64]>(BLOBFILE(path = tensor<string, []>("@model_path/weights/weight.bin"), offset = tensor<uint64, []>(649870976))), name = tensor<string, []>("up_blocks_3_attentions_2_transformer_blocks_0_ff_net_2_weight_to_fp16_palettized"), shape = tensor<uint32, [4]>([320, 1280, 1, 1])];
            tensor<fp16, [320]> up_blocks_3_attentions_2_transformer_blocks_0_ff_net_2_bias_to_fp16 = const()[name = tensor<string, []>("up_blocks_3_attentions_2_transformer_blocks_0_ff_net_2_bias_to_fp16"), val = tensor<fp16, [320]>(BLOBFILE(path = tensor<string, []>("@model_path/weights/weight.bin"), offset = tensor<uint64, []>(649871168)))];
            tensor<fp16, [2, 320, 1, 4096]> var_4723_cast = conv(bias = up_blocks_3_attentions_2_transformer_blocks_0_ff_net_2_bias_to_fp16, dilations = var_4721, groups = var_3945, pad = var_4723_pad_0, pad_type = var_4723_pad_type_0, strides = var_4719, weight = up_blocks_3_attentions_2_transformer_blocks_0_ff_net_2_weight_to_fp16_palettized, x = input_523_cast)[name = tensor<string, []>("op_4723_cast")];
            tensor<fp16, [2, 320, 1, 4096]> hidden_states_333_cast = add(x = var_4723_cast, y = inputs_cast)[name = tensor<string, []>("hidden_states_333_cast")];
            tensor<int32, [4]> var_4725 = const()[name = tensor<string, []>("op_4725"), val = tensor<int32, [4]>([2, 320, 64, 64])];
            tensor<fp16, [2, 320, 64, 64]> input_525_cast = reshape(shape = var_4725, x = hidden_states_333_cast)[name = tensor<string, []>("input_525_cast")];
            tensor<int32, [2]> var_4729 = const()[name = tensor<string, []>("op_4729"), val = tensor<int32, [2]>([1, 1])];
            tensor<int32, [2]> var_4731 = const()[name = tensor<string, []>("op_4731"), val = tensor<int32, [2]>([1, 1])];
            tensor<string, []> hidden_states_pad_type_0 = const()[name = tensor<string, []>("hidden_states_pad_type_0"), val = tensor<string, []>("custom")];
            tensor<int32, [4]> hidden_states_pad_0 = const()[name = tensor<string, []>("hidden_states_pad_0"), val = tensor<int32, [4]>([0, 0, 0, 0])];
            tensor<fp16, [320, 320, 1, 1]> up_blocks_3_attentions_2_proj_out_weight_to_fp16_palettized = constexpr_lut_to_dense()[indices = tensor<uint8, [76800]>(BLOBFILE(path = tensor<string, []>("@model_path/weights/weight.bin"), offset = tensor<uint64, []>(649871872))), lut = tensor<fp16, [64]>(BLOBFILE(path = tensor<string, []>("@model_path/weights/weight.bin"), offset = tensor<uint64, []>(649948736))), name = tensor<string, []>("up_blocks_3_attentions_2_proj_out_weight_to_fp16_palettized"), shape = tensor<uint32, [4]>([320, 320, 1, 1])];
            tensor<fp16, [320]> up_blocks_3_attentions_2_proj_out_bias_to_fp16 = const()[name = tensor<string, []>("up_blocks_3_attentions_2_proj_out_bias_to_fp16"), val = tensor<fp16, [320]>(BLOBFILE(path = tensor<string, []>("@model_path/weights/weight.bin"), offset = tensor<uint64, []>(649948928)))];
            tensor<fp16, [2, 320, 64, 64]> hidden_states_cast = conv(bias = up_blocks_3_attentions_2_proj_out_bias_to_fp16, dilations = var_4731, groups = var_3945, pad = hidden_states_pad_0, pad_type = hidden_states_pad_type_0, strides = var_4729, weight = up_blocks_3_attentions_2_proj_out_weight_to_fp16_palettized, x = input_525_cast)[name = tensor<string, []>("hidden_states_cast")];
            tensor<fp16, [2, 320, 64, 64]> input_527_cast = add(x = hidden_states_cast, y = hidden_states_323_cast)[name = tensor<string, []>("input_527_cast")];
            tensor<int32, [5]> reshape_240_shape_0 = const()[name = tensor<string, []>("reshape_240_shape_0"), val = tensor<int32, [5]>([2, 32, 10, 64, 64])];
            tensor<fp16, [2, 32, 10, 64, 64]> reshape_240_cast = reshape(shape = reshape_240_shape_0, x = input_527_cast)[name = tensor<string, []>("reshape_240_cast")];
            tensor<int32, [3]> reduce_mean_180_axes_0 = const()[name = tensor<string, []>("reduce_mean_180_axes_0"), val = tensor<int32, [3]>([2, 3, 4])];
            tensor<bool, []> reduce_mean_180_keep_dims_0 = const()[name = tensor<string, []>("reduce_mean_180_keep_dims_0"), val = tensor<bool, []>(true)];
            tensor<fp16, [2, 32, 1, 1, 1]> reduce_mean_180_cast = reduce_mean(axes = reduce_mean_180_axes_0, keep_dims = reduce_mean_180_keep_dims_0, x = reshape_240_cast)[name = tensor<string, []>("reduce_mean_180_cast")];
            tensor<fp16, [2, 32, 10, 64, 64]> sub_120_cast = sub(x = reshape_240_cast, y = reduce_mean_180_cast)[name = tensor<string, []>("sub_120_cast")];
            tensor<fp16, [2, 32, 10, 64, 64]> square_60_cast = square(x = sub_120_cast)[name = tensor<string, []>("square_60_cast")];
            tensor<int32, [3]> reduce_mean_182_axes_0 = const()[name = tensor<string, []>("reduce_mean_182_axes_0"), val = tensor<int32, [3]>([2, 3, 4])];
            tensor<bool, []> reduce_mean_182_keep_dims_0 = const()[name = tensor<string, []>("reduce_mean_182_keep_dims_0"), val = tensor<bool, []>(true)];
            tensor<fp16, [2, 32, 1, 1, 1]> reduce_mean_182_cast = reduce_mean(axes = reduce_mean_182_axes_0, keep_dims = reduce_mean_182_keep_dims_0, x = square_60_cast)[name = tensor<string, []>("reduce_mean_182_cast")];
            tensor<fp16, []> add_120_y_0_to_fp16 = const()[name = tensor<string, []>("add_120_y_0_to_fp16"), val = tensor<fp16, []>(0x1.5p-17)];
            tensor<fp16, [2, 32, 1, 1, 1]> add_120_cast = add(x = reduce_mean_182_cast, y = add_120_y_0_to_fp16)[name = tensor<string, []>("add_120_cast")];
            tensor<fp16, [2, 32, 1, 1, 1]> sqrt_60_cast = sqrt(x = add_120_cast)[name = tensor<string, []>("sqrt_60_cast")];
            tensor<fp16, [2, 32, 10, 64, 64]> real_div_60_cast = real_div(x = sub_120_cast, y = sqrt_60_cast)[name = tensor<string, []>("real_div_60_cast")];
            tensor<int32, [4]> reshape_241_shape_0 = const()[name = tensor<string, []>("reshape_241_shape_0"), val = tensor<int32, [4]>([2, 320, 64, 64])];
            tensor<fp16, [2, 320, 64, 64]> reshape_241_cast = reshape(shape = reshape_241_shape_0, x = real_div_60_cast)[name = tensor<string, []>("reshape_241_cast")];
            tensor<fp16, [320]> add_121_gamma_0_to_fp16 = const()[name = tensor<string, []>("add_121_gamma_0_to_fp16"), val = tensor<fp16, [320]>(BLOBFILE(path = tensor<string, []>("@model_path/weights/weight.bin"), offset = tensor<uint64, []>(649949632)))];
            tensor<fp16, [320]> add_121_beta_0_to_fp16 = const()[name = tensor<string, []>("add_121_beta_0_to_fp16"), val = tensor<fp16, [320]>(BLOBFILE(path = tensor<string, []>("@model_path/weights/weight.bin"), offset = tensor<uint64, []>(649950336)))];
            tensor<fp16, []> add_121_epsilon_0_to_fp16 = const()[name = tensor<string, []>("add_121_epsilon_0_to_fp16"), val = tensor<fp16, []>(0x1.5p-17)];
            tensor<fp16, [2, 320, 64, 64]> add_121_cast = batch_norm(beta = add_121_beta_0_to_fp16, epsilon = add_121_epsilon_0_to_fp16, gamma = add_121_gamma_0_to_fp16, mean = add_1_mean_0_to_fp16, variance = add_1_variance_0_to_fp16, x = reshape_241_cast)[name = tensor<string, []>("add_121_cast")];
            tensor<fp16, [2, 320, 64, 64]> input_cast = silu(x = add_121_cast)[name = tensor<string, []>("input_cast")];
            tensor<int32, []> var_4745 = const()[name = tensor<string, []>("op_4745"), val = tensor<int32, []>(1)];
            tensor<int32, [2]> var_4748 = const()[name = tensor<string, []>("op_4748"), val = tensor<int32, [2]>([1, 1])];
            tensor<int32, [2]> var_4750 = const()[name = tensor<string, []>("op_4750"), val = tensor<int32, [2]>([1, 1])];
            tensor<string, []> var_4752_pad_type_0 = const()[name = tensor<string, []>("op_4752_pad_type_0"), val = tensor<string, []>("custom")];
            tensor<int32, [4]> var_4752_pad_0 = const()[name = tensor<string, []>("op_4752_pad_0"), val = tensor<int32, [4]>([1, 1, 1, 1])];
            tensor<fp16, [4, 320, 3, 3]> conv_out_weight_to_fp16_palettized = constexpr_lut_to_dense()[indices = tensor<uint8, [8640]>(BLOBFILE(path = tensor<string, []>("@model_path/weights/weight.bin"), offset = tensor<uint64, []>(649951040))), lut = tensor<fp16, [64]>(BLOBFILE(path = tensor<string, []>("@model_path/weights/weight.bin"), offset = tensor<uint64, []>(649959744))), name = tensor<string, []>("conv_out_weight_to_fp16_palettized"), shape = tensor<uint32, [4]>([4, 320, 3, 3])];
            tensor<fp16, [4]> conv_out_bias_to_fp16 = const()[name = tensor<string, []>("conv_out_bias_to_fp16"), val = tensor<fp16, [4]>([-0x1.39p-9, 0x1.9f8p-9, 0x1.c64p-12, 0x1.d6cp-10])];
            tensor<fp16, [2, 4, 64, 64]> var_4752_cast = conv(bias = conv_out_bias_to_fp16, dilations = var_4750, groups = var_4745, pad = var_4752_pad_0, pad_type = var_4752_pad_type_0, strides = var_4748, weight = conv_out_weight_to_fp16_palettized, x = input_cast)[name = tensor<string, []>("op_4752_cast")];
            tensor<string, []> var_4752_cast_to_fp32_dtype_0 = const()[name = tensor<string, []>("op_4752_cast_to_fp32_dtype_0"), val = tensor<string, []>("fp32")];
            tensor<fp32, [2, 4, 64, 64]> noise_pred = cast(dtype = var_4752_cast_to_fp32_dtype_0, x = var_4752_cast)[name = tensor<string, []>("cast_0")];
        } -> (noise_pred);
}