program(1.0)
[buildInfo = dict<tensor<string, []>, tensor<string, []>>({{"coremlc-component-MIL", "5.30.0"}, {"coremlc-version", "1839.0.0"}})]
{
    func main<ios16>(tensor<fp16, [2, 1024, 1, 77]> encoder_hidden_states, tensor<fp16, [2, 4, 64, 64]> sample, tensor<fp16, [2]> timestep) {
            tensor<int32, []> var_25 = const()[name = tensor<string, []>("op_25"), val = tensor<int32, []>(-1)];
            tensor<int32, [1]> var_42_axes_0 = const()[name = tensor<string, []>("op_42_axes_0"), val = tensor<int32, [1]>([1])];
            tensor<fp16, [2, 1]> var_42_cast = expand_dims(axes = var_42_axes_0, x = timestep)[name = tensor<string, []>("op_42_cast")];
            tensor<fp16, [1, 160]> var_44_to_fp16 = const()[name = tensor<string, []>("op_44_to_fp16"), val = tensor<fp16, [1, 160]>(BLOBFILE(path = tensor<string, []>("@model_path/weights/weight.bin"), offset = tensor<uint64, []>(64)))];
            tensor<fp16, [2, 160]> emb_3_cast = mul(x = var_42_cast, y = var_44_to_fp16)[name = tensor<string, []>("emb_3_cast")];
            tensor<fp16, [2, 160]> var_49_cast = sin(x = emb_3_cast)[name = tensor<string, []>("op_49_cast")];
            tensor<fp16, [2, 160]> var_50_cast = cos(x = emb_3_cast)[name = tensor<string, []>("op_50_cast")];
            tensor<bool, []> emb_interleave_0 = const()[name = tensor<string, []>("emb_interleave_0"), val = tensor<bool, []>(false)];
            tensor<fp16, [2, 320]> emb_cast = concat(axis = var_25, interleave = emb_interleave_0, values = (var_49_cast, var_50_cast))[name = tensor<string, []>("emb_cast")];
            tensor<int32, [2]> var_54_begin_0 = const()[name = tensor<string, []>("op_54_begin_0"), val = tensor<int32, [2]>([0, 160])];
            tensor<int32, [2]> var_54_end_0 = const()[name = tensor<string, []>("op_54_end_0"), val = tensor<int32, [2]>([2, 320])];
            tensor<bool, [2]> var_54_end_mask_0 = const()[name = tensor<string, []>("op_54_end_mask_0"), val = tensor<bool, [2]>([true, true])];
            tensor<fp16, [2, 160]> var_54_cast = slice_by_index(begin = var_54_begin_0, end = var_54_end_0, end_mask = var_54_end_mask_0, x = emb_cast)[name = tensor<string, []>("op_54_cast")];
            tensor<int32, [2]> var_56_begin_0 = const()[name = tensor<string, []>("op_56_begin_0"), val = tensor<int32, [2]>([0, 0])];
            tensor<int32, [2]> var_56_end_0 = const()[name = tensor<string, []>("op_56_end_0"), val = tensor<int32, [2]>([2, 160])];
            tensor<bool, [2]> var_56_end_mask_0 = const()[name = tensor<string, []>("op_56_end_mask_0"), val = tensor<bool, [2]>([true, false])];
            tensor<fp16, [2, 160]> var_56_cast = slice_by_index(begin = var_56_begin_0, end = var_56_end_0, end_mask = var_56_end_mask_0, x = emb_cast)[name = tensor<string, []>("op_56_cast")];
            tensor<bool, []> sample_interleave_0 = const()[name = tensor<string, []>("sample_interleave_0"), val = tensor<bool, []>(false)];
            tensor<fp16, [2, 320]> sample_cast = concat(axis = var_25, interleave = sample_interleave_0, values = (var_54_cast, var_56_cast))[name = tensor<string, []>("sample_cast")];
            tensor<int32, []> var_59 = const()[name = tensor<string, []>("op_59"), val = tensor<int32, []>(1)];
            tensor<int32, [1]> var_66_axes_0 = const()[name = tensor<string, []>("op_66_axes_0"), val = tensor<int32, [1]>([-1])];
            tensor<fp16, [2, 320, 1]> var_66_cast = expand_dims(axes = var_66_axes_0, x = sample_cast)[name = tensor<string, []>("op_66_cast")];
            tensor<int32, [1]> input_1_axes_0 = const()[name = tensor<string, []>("input_1_axes_0"), val = tensor<int32, [1]>([-1])];
            tensor<fp16, [2, 320, 1, 1]> input_1_cast = expand_dims(axes = input_1_axes_0, x = var_66_cast)[name = tensor<string, []>("input_1_cast")];
            tensor<int32, [2]> var_70 = const()[name = tensor<string, []>("op_70"), val = tensor<int32, [2]>([1, 1])];
            tensor<int32, [2]> var_72 = const()[name = tensor<string, []>("op_72"), val = tensor<int32, [2]>([1, 1])];
            tensor<string, []> input_3_pad_type_0 = const()[name = tensor<string, []>("input_3_pad_type_0"), val = tensor<string, []>("custom")];
            tensor<int32, [4]> input_3_pad_0 = const()[name = tensor<string, []>("input_3_pad_0"), val = tensor<int32, [4]>([0, 0, 0, 0])];
            tensor<fp16, [1280, 320, 1, 1]> time_embedding_linear_1_weight_to_fp16_palettized = constexpr_lut_to_dense()[indices = tensor<uint8, [307200]>(BLOBFILE(path = tensor<string, []>("@model_path/weights/weight.bin"), offset = tensor<uint64, []>(448))), lut = tensor<fp16, [64]>(BLOBFILE(path = tensor<string, []>("@model_path/weights/weight.bin"), offset = tensor<uint64, []>(307712))), name = tensor<string, []>("time_embedding_linear_1_weight_to_fp16_palettized"), shape = tensor<uint32, [4]>([1280, 320, 1, 1])];
            tensor<fp16, [1280]> time_embedding_linear_1_bias_to_fp16 = const()[name = tensor<string, []>("time_embedding_linear_1_bias_to_fp16"), val = tensor<fp16, [1280]>(BLOBFILE(path = tensor<string, []>("@model_path/weights/weight.bin"), offset = tensor<uint64, []>(307904)))];
            tensor<fp16, [2, 1280, 1, 1]> input_3_cast = conv(bias = time_embedding_linear_1_bias_to_fp16, dilations = var_72, groups = var_59, pad = input_3_pad_0, pad_type = input_3_pad_type_0, strides = var_70, weight = time_embedding_linear_1_weight_to_fp16_palettized, x = input_1_cast)[name = tensor<string, []>("input_3_cast")];
            tensor<fp16, [2, 1280, 1, 1]> input_5_cast = silu(x = input_3_cast)[name = tensor<string, []>("input_5_cast")];
            tensor<int32, [2]> var_78 = const()[name = tensor<string, []>("op_78"), val = tensor<int32, [2]>([1, 1])];
            tensor<int32, [2]> var_80 = const()[name = tensor<string, []>("op_80"), val = tensor<int32, [2]>([1, 1])];
            tensor<string, []> input_13_pad_type_0 = const()[name = tensor<string, []>("input_13_pad_type_0"), val = tensor<string, []>("custom")];
            tensor<int32, [4]> input_13_pad_0 = const()[name = tensor<string, []>("input_13_pad_0"), val = tensor<int32, [4]>([0, 0, 0, 0])];
            tensor<fp16, [1280, 1280, 1, 1]> time_embedding_linear_2_weight_to_fp16_palettized = constexpr_lut_to_dense()[indices = tensor<uint8, [1228800]>(BLOBFILE(path = tensor<string, []>("@model_path/weights/weight.bin"), offset = tensor<uint64, []>(310528))), lut = tensor<fp16, [64]>(BLOBFILE(path = tensor<string, []>("@model_path/weights/weight.bin"), offset = tensor<uint64, []>(1539392))), name = tensor<string, []>("time_embedding_linear_2_weight_to_fp16_palettized"), shape = tensor<uint32, [4]>([1280, 1280, 1, 1])];
            tensor<fp16, [1280]> time_embedding_linear_2_bias_to_fp16 = const()[name = tensor<string, []>("time_embedding_linear_2_bias_to_fp16"), val = tensor<fp16, [1280]>(BLOBFILE(path = tensor<string, []>("@model_path/weights/weight.bin"), offset = tensor<uint64, []>(1539584)))];
            tensor<fp16, [2, 1280, 1, 1]> input_13_cast = conv(bias = time_embedding_linear_2_bias_to_fp16, dilations = var_80, groups = var_59, pad = input_13_pad_0, pad_type = input_13_pad_type_0, strides = var_78, weight = time_embedding_linear_2_weight_to_fp16_palettized, x = input_5_cast)[name = tensor<string, []>("input_13_cast")];
            tensor<int32, []> var_86 = const()[name = tensor<string, []>("op_86"), val = tensor<int32, []>(1)];
            tensor<int32, [2]> var_89 = const()[name = tensor<string, []>("op_89"), val = tensor<int32, [2]>([1, 1])];
            tensor<int32, [2]> var_91 = const()[name = tensor<string, []>("op_91"), val = tensor<int32, [2]>([1, 1])];
            tensor<string, []> input_7_pad_type_0 = const()[name = tensor<string, []>("input_7_pad_type_0"), val = tensor<string, []>("custom")];
            tensor<int32, [4]> input_7_pad_0 = const()[name = tensor<string, []>("input_7_pad_0"), val = tensor<int32, [4]>([1, 1, 1, 1])];
            tensor<fp16, [320, 4, 3, 3]> conv_in_weight_to_fp16_palettized = constexpr_lut_to_dense()[indices = tensor<uint8, [8640]>(BLOBFILE(path = tensor<string, []>("@model_path/weights/weight.bin"), offset = tensor<uint64, []>(1542208))), lut = tensor<fp16, [64]>(BLOBFILE(path = tensor<string, []>("@model_path/weights/weight.bin"), offset = tensor<uint64, []>(1550912))), name = tensor<string, []>("conv_in_weight_to_fp16_palettized"), shape = tensor<uint32, [4]>([320, 4, 3, 3])];
            tensor<fp16, [320]> conv_in_bias_to_fp16 = const()[name = tensor<string, []>("conv_in_bias_to_fp16"), val = tensor<fp16, [320]>(BLOBFILE(path = tensor<string, []>("@model_path/weights/weight.bin"), offset = tensor<uint64, []>(1551104)))];
            tensor<fp16, [2, 320, 64, 64]> input_7_cast = conv(bias = conv_in_bias_to_fp16, dilations = var_91, groups = var_86, pad = input_7_pad_0, pad_type = input_7_pad_type_0, strides = var_89, weight = conv_in_weight_to_fp16_palettized, x = sample)[name = tensor<string, []>("input_7_cast")];
            tensor<int32, []> var_95 = const()[name = tensor<string, []>("op_95"), val = tensor<int32, []>(3)];
            tensor<bool, []> var_115 = const()[name = tensor<string, []>("op_115"), val = tensor<bool, []>(true)];
            tensor<int32, []> var_120 = const()[name = tensor<string, []>("op_120"), val = tensor<int32, []>(1)];
            tensor<int32, [5]> reshape_0_shape_0 = const()[name = tensor<string, []>("reshape_0_shape_0"), val = tensor<int32, [5]>([2, 32, 10, 64, 64])];
            tensor<fp16, [2, 32, 10, 64, 64]> reshape_0_cast = reshape(shape = reshape_0_shape_0, x = input_7_cast)[name = tensor<string, []>("reshape_0_cast")];
            tensor<int32, [3]> reduce_mean_0_axes_0 = const()[name = tensor<string, []>("reduce_mean_0_axes_0"), val = tensor<int32, [3]>([2, 3, 4])];
            tensor<bool, []> reduce_mean_0_keep_dims_0 = const()[name = tensor<string, []>("reduce_mean_0_keep_dims_0"), val = tensor<bool, []>(true)];
            tensor<fp16, [2, 32, 1, 1, 1]> reduce_mean_0_cast = reduce_mean(axes = reduce_mean_0_axes_0, keep_dims = reduce_mean_0_keep_dims_0, x = reshape_0_cast)[name = tensor<string, []>("reduce_mean_0_cast")];
            tensor<fp16, [2, 32, 10, 64, 64]> sub_0_cast = sub(x = reshape_0_cast, y = reduce_mean_0_cast)[name = tensor<string, []>("sub_0_cast")];
            tensor<fp16, [2, 32, 10, 64, 64]> square_0_cast = square(x = sub_0_cast)[name = tensor<string, []>("square_0_cast")];
            tensor<int32, [3]> reduce_mean_2_axes_0 = const()[name = tensor<string, []>("reduce_mean_2_axes_0"), val = tensor<int32, [3]>([2, 3, 4])];
            tensor<bool, []> reduce_mean_2_keep_dims_0 = const()[name = tensor<string, []>("reduce_mean_2_keep_dims_0"), val = tensor<bool, []>(true)];
            tensor<fp16, [2, 32, 1, 1, 1]> reduce_mean_2_cast = reduce_mean(axes = reduce_mean_2_axes_0, keep_dims = reduce_mean_2_keep_dims_0, x = square_0_cast)[name = tensor<string, []>("reduce_mean_2_cast")];
            tensor<fp16, []> add_0_y_0_to_fp16 = const()[name = tensor<string, []>("add_0_y_0_to_fp16"), val = tensor<fp16, []>(0x1.5p-17)];
            tensor<fp16, [2, 32, 1, 1, 1]> add_0_cast = add(x = reduce_mean_2_cast, y = add_0_y_0_to_fp16)[name = tensor<string, []>("add_0_cast")];
            tensor<fp16, [2, 32, 1, 1, 1]> sqrt_0_cast = sqrt(x = add_0_cast)[name = tensor<string, []>("sqrt_0_cast")];
            tensor<fp16, [2, 32, 10, 64, 64]> real_div_0_cast = real_div(x = sub_0_cast, y = sqrt_0_cast)[name = tensor<string, []>("real_div_0_cast")];
            tensor<int32, [4]> reshape_1_shape_0 = const()[name = tensor<string, []>("reshape_1_shape_0"), val = tensor<int32, [4]>([2, 320, 64, 64])];
            tensor<fp16, [2, 320, 64, 64]> reshape_1_cast = reshape(shape = reshape_1_shape_0, x = real_div_0_cast)[name = tensor<string, []>("reshape_1_cast")];
            tensor<fp16, [320]> add_1_mean_0_to_fp16 = const()[name = tensor<string, []>("add_1_mean_0_to_fp16"), val = tensor<fp16, [320]>(BLOBFILE(path = tensor<string, []>("@model_path/weights/weight.bin"), offset = tensor<uint64, []>(1551808)))];
            tensor<fp16, [320]> add_1_variance_0_to_fp16 = const()[name = tensor<string, []>("add_1_variance_0_to_fp16"), val = tensor<fp16, [320]>(BLOBFILE(path = tensor<string, []>("@model_path/weights/weight.bin"), offset = tensor<uint64, []>(1552512)))];
            tensor<fp16, [320]> add_1_gamma_0_to_fp16 = const()[name = tensor<string, []>("add_1_gamma_0_to_fp16"), val = tensor<fp16, [320]>(BLOBFILE(path = tensor<string, []>("@model_path/weights/weight.bin"), offset = tensor<uint64, []>(1553216)))];
            tensor<fp16, [320]> add_1_beta_0_to_fp16 = const()[name = tensor<string, []>("add_1_beta_0_to_fp16"), val = tensor<fp16, [320]>(BLOBFILE(path = tensor<string, []>("@model_path/weights/weight.bin"), offset = tensor<uint64, []>(1553920)))];
            tensor<fp16, []> add_1_epsilon_0_to_fp16 = const()[name = tensor<string, []>("add_1_epsilon_0_to_fp16"), val = tensor<fp16, []>(0x1.5p-17)];
            tensor<fp16, [2, 320, 64, 64]> add_1_cast = batch_norm(beta = add_1_beta_0_to_fp16, epsilon = add_1_epsilon_0_to_fp16, gamma = add_1_gamma_0_to_fp16, mean = add_1_mean_0_to_fp16, variance = add_1_variance_0_to_fp16, x = reshape_1_cast)[name = tensor<string, []>("add_1_cast")];
            tensor<fp16, [2, 320, 64, 64]> input_11_cast = silu(x = add_1_cast)[name = tensor<string, []>("input_11_cast")];
            tensor<int32, [2]> var_142 = const()[name = tensor<string, []>("op_142"), val = tensor<int32, [2]>([1, 1])];
            tensor<int32, [2]> var_144 = const()[name = tensor<string, []>("op_144"), val = tensor<int32, [2]>([1, 1])];
            tensor<string, []> hidden_states_1_pad_type_0 = const()[name = tensor<string, []>("hidden_states_1_pad_type_0"), val = tensor<string, []>("custom")];
            tensor<int32, [4]> hidden_states_1_pad_0 = const()[name = tensor<string, []>("hidden_states_1_pad_0"), val = tensor<int32, [4]>([1, 1, 1, 1])];
            tensor<fp16, [320, 320, 3, 3]> down_blocks_0_resnets_0_conv1_weight_to_fp16_palettized = constexpr_lut_to_dense()[indices = tensor<uint8, [691200]>(BLOBFILE(path = tensor<string, []>("@model_path/weights/weight.bin"), offset = tensor<uint64, []>(1554624))), lut = tensor<fp16, [64]>(BLOBFILE(path = tensor<string, []>("@model_path/weights/weight.bin"), offset = tensor<uint64, []>(2245888))), name = tensor<string, []>("down_blocks_0_resnets_0_conv1_weight_to_fp16_palettized"), shape = tensor<uint32, [4]>([320, 320, 3, 3])];
            tensor<fp16, [320]> down_blocks_0_resnets_0_conv1_bias_to_fp16 = const()[name = tensor<string, []>("down_blocks_0_resnets_0_conv1_bias_to_fp16"), val = tensor<fp16, [320]>(BLOBFILE(path = tensor<string, []>("@model_path/weights/weight.bin"), offset = tensor<uint64, []>(2246080)))];
            tensor<fp16, [2, 320, 64, 64]> hidden_states_1_cast = conv(bias = down_blocks_0_resnets_0_conv1_bias_to_fp16, dilations = var_144, groups = var_120, pad = hidden_states_1_pad_0, pad_type = hidden_states_1_pad_type_0, strides = var_142, weight = down_blocks_0_resnets_0_conv1_weight_to_fp16_palettized, x = input_11_cast)[name = tensor<string, []>("hidden_states_1_cast")];
            tensor<fp16, [2, 1280, 1, 1]> input_15_cast = silu(x = input_13_cast)[name = tensor<string, []>("input_15_cast")];
            tensor<int32, [2]> var_150 = const()[name = tensor<string, []>("op_150"), val = tensor<int32, [2]>([1, 1])];
            tensor<int32, [2]> var_152 = const()[name = tensor<string, []>("op_152"), val = tensor<int32, [2]>([1, 1])];
            tensor<string, []> temb_1_pad_type_0 = const()[name = tensor<string, []>("temb_1_pad_type_0"), val = tensor<string, []>("custom")];
            tensor<int32, [4]> temb_1_pad_0 = const()[name = tensor<string, []>("temb_1_pad_0"), val = tensor<int32, [4]>([0, 0, 0, 0])];
            tensor<fp16, [320, 1280, 1, 1]> down_blocks_0_resnets_0_time_emb_proj_weight_to_fp16_palettized = constexpr_lut_to_dense()[indices = tensor<uint8, [307200]>(BLOBFILE(path = tensor<string, []>("@model_path/weights/weight.bin"), offset = tensor<uint64, []>(2246784))), lut = tensor<fp16, [64]>(BLOBFILE(path = tensor<string, []>("@model_path/weights/weight.bin"), offset = tensor<uint64, []>(2554048))), name = tensor<string, []>("down_blocks_0_resnets_0_time_emb_proj_weight_to_fp16_palettized"), shape = tensor<uint32, [4]>([320, 1280, 1, 1])];
            tensor<fp16, [320]> down_blocks_0_resnets_0_time_emb_proj_bias_to_fp16 = const()[name = tensor<string, []>("down_blocks_0_resnets_0_time_emb_proj_bias_to_fp16"), val = tensor<fp16, [320]>(BLOBFILE(path = tensor<string, []>("@model_path/weights/weight.bin"), offset = tensor<uint64, []>(2554240)))];
            tensor<fp16, [2, 320, 1, 1]> temb_1_cast = conv(bias = down_blocks_0_resnets_0_time_emb_proj_bias_to_fp16, dilations = var_152, groups = var_120, pad = temb_1_pad_0, pad_type = temb_1_pad_type_0, strides = var_150, weight = down_blocks_0_resnets_0_time_emb_proj_weight_to_fp16_palettized, x = input_15_cast)[name = tensor<string, []>("temb_1_cast")];
            tensor<fp16, [2, 320, 64, 64]> input_17_cast = add(x = hidden_states_1_cast, y = temb_1_cast)[name = tensor<string, []>("input_17_cast")];
            tensor<int32, [5]> reshape_4_shape_0 = const()[name = tensor<string, []>("reshape_4_shape_0"), val = tensor<int32, [5]>([2, 32, 10, 64, 64])];
            tensor<fp16, [2, 32, 10, 64, 64]> reshape_4_cast = reshape(shape = reshape_4_shape_0, x = input_17_cast)[name = tensor<string, []>("reshape_4_cast")];
            tensor<int32, [3]> reduce_mean_3_axes_0 = const()[name = tensor<string, []>("reduce_mean_3_axes_0"), val = tensor<int32, [3]>([2, 3, 4])];
            tensor<bool, []> reduce_mean_3_keep_dims_0 = const()[name = tensor<string, []>("reduce_mean_3_keep_dims_0"), val = tensor<bool, []>(true)];
            tensor<fp16, [2, 32, 1, 1, 1]> reduce_mean_3_cast = reduce_mean(axes = reduce_mean_3_axes_0, keep_dims = reduce_mean_3_keep_dims_0, x = reshape_4_cast)[name = tensor<string, []>("reduce_mean_3_cast")];
            tensor<fp16, [2, 32, 10, 64, 64]> sub_2_cast = sub(x = reshape_4_cast, y = reduce_mean_3_cast)[name = tensor<string, []>("sub_2_cast")];
            tensor<fp16, [2, 32, 10, 64, 64]> square_1_cast = square(x = sub_2_cast)[name = tensor<string, []>("square_1_cast")];
            tensor<int32, [3]> reduce_mean_5_axes_0 = const()[name = tensor<string, []>("reduce_mean_5_axes_0"), val = tensor<int32, [3]>([2, 3, 4])];
            tensor<bool, []> reduce_mean_5_keep_dims_0 = const()[name = tensor<string, []>("reduce_mean_5_keep_dims_0"), val = tensor<bool, []>(true)];
            tensor<fp16, [2, 32, 1, 1, 1]> reduce_mean_5_cast = reduce_mean(axes = reduce_mean_5_axes_0, keep_dims = reduce_mean_5_keep_dims_0, x = square_1_cast)[name = tensor<string, []>("reduce_mean_5_cast")];
            tensor<fp16, []> add_2_y_0_to_fp16 = const()[name = tensor<string, []>("add_2_y_0_to_fp16"), val = tensor<fp16, []>(0x1.5p-17)];
            tensor<fp16, [2, 32, 1, 1, 1]> add_2_cast = add(x = reduce_mean_5_cast, y = add_2_y_0_to_fp16)[name = tensor<string, []>("add_2_cast")];
            tensor<fp16, [2, 32, 1, 1, 1]> sqrt_1_cast = sqrt(x = add_2_cast)[name = tensor<string, []>("sqrt_1_cast")];
            tensor<fp16, [2, 32, 10, 64, 64]> real_div_1_cast = real_div(x = sub_2_cast, y = sqrt_1_cast)[name = tensor<string, []>("real_div_1_cast")];
            tensor<int32, [4]> reshape_5_shape_0 = const()[name = tensor<string, []>("reshape_5_shape_0"), val = tensor<int32, [4]>([2, 320, 64, 64])];
            tensor<fp16, [2, 320, 64, 64]> reshape_5_cast = reshape(shape = reshape_5_shape_0, x = real_div_1_cast)[name = tensor<string, []>("reshape_5_cast")];
            tensor<fp16, [320]> add_3_gamma_0_to_fp16 = const()[name = tensor<string, []>("add_3_gamma_0_to_fp16"), val = tensor<fp16, [320]>(BLOBFILE(path = tensor<string, []>("@model_path/weights/weight.bin"), offset = tensor<uint64, []>(2554944)))];
            tensor<fp16, [320]> add_3_beta_0_to_fp16 = const()[name = tensor<string, []>("add_3_beta_0_to_fp16"), val = tensor<fp16, [320]>(BLOBFILE(path = tensor<string, []>("@model_path/weights/weight.bin"), offset = tensor<uint64, []>(2555648)))];
            tensor<fp16, []> add_3_epsilon_0_to_fp16 = const()[name = tensor<string, []>("add_3_epsilon_0_to_fp16"), val = tensor<fp16, []>(0x1.5p-17)];
            tensor<fp16, [2, 320, 64, 64]> add_3_cast = batch_norm(beta = add_3_beta_0_to_fp16, epsilon = add_3_epsilon_0_to_fp16, gamma = add_3_gamma_0_to_fp16, mean = add_1_mean_0_to_fp16, variance = add_1_variance_0_to_fp16, x = reshape_5_cast)[name = tensor<string, []>("add_3_cast")];
            tensor<fp16, [2, 320, 64, 64]> input_21_cast = silu(x = add_3_cast)[name = tensor<string, []>("input_21_cast")];
            tensor<int32, [2]> var_162 = const()[name = tensor<string, []>("op_162"), val = tensor<int32, [2]>([1, 1])];
            tensor<int32, [2]> var_164 = const()[name = tensor<string, []>("op_164"), val = tensor<int32, [2]>([1, 1])];
            tensor<string, []> hidden_states_3_pad_type_0 = const()[name = tensor<string, []>("hidden_states_3_pad_type_0"), val = tensor<string, []>("custom")];
            tensor<int32, [4]> hidden_states_3_pad_0 = const()[name = tensor<string, []>("hidden_states_3_pad_0"), val = tensor<int32, [4]>([1, 1, 1, 1])];
            tensor<fp16, [320, 320, 3, 3]> down_blocks_0_resnets_0_conv2_weight_to_fp16_palettized = constexpr_lut_to_dense()[indices = tensor<uint8, [691200]>(BLOBFILE(path = tensor<string, []>("@model_path/weights/weight.bin"), offset = tensor<uint64, []>(2556352))), lut = tensor<fp16, [64]>(BLOBFILE(path = tensor<string, []>("@model_path/weights/weight.bin"), offset = tensor<uint64, []>(3247616))), name = tensor<string, []>("down_blocks_0_resnets_0_conv2_weight_to_fp16_palettized"), shape = tensor<uint32, [4]>([320, 320, 3, 3])];
            tensor<fp16, [320]> down_blocks_0_resnets_0_conv2_bias_to_fp16 = const()[name = tensor<string, []>("down_blocks_0_resnets_0_conv2_bias_to_fp16"), val = tensor<fp16, [320]>(BLOBFILE(path = tensor<string, []>("@model_path/weights/weight.bin"), offset = tensor<uint64, []>(3247808)))];
            tensor<fp16, [2, 320, 64, 64]> hidden_states_3_cast = conv(bias = down_blocks_0_resnets_0_conv2_bias_to_fp16, dilations = var_164, groups = var_120, pad = hidden_states_3_pad_0, pad_type = hidden_states_3_pad_type_0, strides = var_162, weight = down_blocks_0_resnets_0_conv2_weight_to_fp16_palettized, x = input_21_cast)[name = tensor<string, []>("hidden_states_3_cast")];
            tensor<fp16, [2, 320, 64, 64]> hidden_states_5_cast = add(x = input_7_cast, y = hidden_states_3_cast)[name = tensor<string, []>("hidden_states_5_cast")];
            tensor<int32, [5]> reshape_8_shape_0 = const()[name = tensor<string, []>("reshape_8_shape_0"), val = tensor<int32, [5]>([2, 32, 10, 64, 64])];
            tensor<fp16, [2, 32, 10, 64, 64]> reshape_8_cast = reshape(shape = reshape_8_shape_0, x = hidden_states_5_cast)[name = tensor<string, []>("reshape_8_cast")];
            tensor<int32, [3]> reduce_mean_6_axes_0 = const()[name = tensor<string, []>("reduce_mean_6_axes_0"), val = tensor<int32, [3]>([2, 3, 4])];
            tensor<bool, []> reduce_mean_6_keep_dims_0 = const()[name = tensor<string, []>("reduce_mean_6_keep_dims_0"), val = tensor<bool, []>(true)];
            tensor<fp16, [2, 32, 1, 1, 1]> reduce_mean_6_cast = reduce_mean(axes = reduce_mean_6_axes_0, keep_dims = reduce_mean_6_keep_dims_0, x = reshape_8_cast)[name = tensor<string, []>("reduce_mean_6_cast")];
            tensor<fp16, [2, 32, 10, 64, 64]> sub_4_cast = sub(x = reshape_8_cast, y = reduce_mean_6_cast)[name = tensor<string, []>("sub_4_cast")];
            tensor<fp16, [2, 32, 10, 64, 64]> square_2_cast = square(x = sub_4_cast)[name = tensor<string, []>("square_2_cast")];
            tensor<int32, [3]> reduce_mean_8_axes_0 = const()[name = tensor<string, []>("reduce_mean_8_axes_0"), val = tensor<int32, [3]>([2, 3, 4])];
            tensor<bool, []> reduce_mean_8_keep_dims_0 = const()[name = tensor<string, []>("reduce_mean_8_keep_dims_0"), val = tensor<bool, []>(true)];
            tensor<fp16, [2, 32, 1, 1, 1]> reduce_mean_8_cast = reduce_mean(axes = reduce_mean_8_axes_0, keep_dims = reduce_mean_8_keep_dims_0, x = square_2_cast)[name = tensor<string, []>("reduce_mean_8_cast")];
            tensor<fp16, []> add_4_y_0_to_fp16 = const()[name = tensor<string, []>("add_4_y_0_to_fp16"), val = tensor<fp16, []>(0x1.1p-20)];
            tensor<fp16, [2, 32, 1, 1, 1]> add_4_cast = add(x = reduce_mean_8_cast, y = add_4_y_0_to_fp16)[name = tensor<string, []>("add_4_cast")];
            tensor<fp16, [2, 32, 1, 1, 1]> sqrt_2_cast = sqrt(x = add_4_cast)[name = tensor<string, []>("sqrt_2_cast")];
            tensor<fp16, [2, 32, 10, 64, 64]> real_div_2_cast = real_div(x = sub_4_cast, y = sqrt_2_cast)[name = tensor<string, []>("real_div_2_cast")];
            tensor<int32, [4]> reshape_9_shape_0 = const()[name = tensor<string, []>("reshape_9_shape_0"), val = tensor<int32, [4]>([2, 320, 64, 64])];
            tensor<fp16, [2, 320, 64, 64]> reshape_9_cast = reshape(shape = reshape_9_shape_0, x = real_div_2_cast)[name = tensor<string, []>("reshape_9_cast")];
            tensor<fp16, [320]> add_5_gamma_0_to_fp16 = const()[name = tensor<string, []>("add_5_gamma_0_to_fp16"), val = tensor<fp16, [320]>(BLOBFILE(path = tensor<string, []>("@model_path/weights/weight.bin"), offset = tensor<uint64, []>(3248512)))];
            tensor<fp16, [320]> add_5_beta_0_to_fp16 = const()[name = tensor<string, []>("add_5_beta_0_to_fp16"), val = tensor<fp16, [320]>(BLOBFILE(path = tensor<string, []>("@model_path/weights/weight.bin"), offset = tensor<uint64, []>(3249216)))];
            tensor<fp16, []> add_5_epsilon_0_to_fp16 = const()[name = tensor<string, []>("add_5_epsilon_0_to_fp16"), val = tensor<fp16, []>(0x1.5p-17)];
            tensor<fp16, [2, 320, 64, 64]> add_5_cast = batch_norm(beta = add_5_beta_0_to_fp16, epsilon = add_5_epsilon_0_to_fp16, gamma = add_5_gamma_0_to_fp16, mean = add_1_mean_0_to_fp16, variance = add_1_variance_0_to_fp16, x = reshape_9_cast)[name = tensor<string, []>("add_5_cast")];
            tensor<int32, [2]> var_184 = const()[name = tensor<string, []>("op_184"), val = tensor<int32, [2]>([1, 1])];
            tensor<int32, [2]> var_186 = const()[name = tensor<string, []>("op_186"), val = tensor<int32, [2]>([1, 1])];
            tensor<string, []> hidden_states_7_pad_type_0 = const()[name = tensor<string, []>("hidden_states_7_pad_type_0"), val = tensor<string, []>("custom")];
            tensor<int32, [4]> hidden_states_7_pad_0 = const()[name = tensor<string, []>("hidden_states_7_pad_0"), val = tensor<int32, [4]>([0, 0, 0, 0])];
            tensor<fp16, [320, 320, 1, 1]> down_blocks_0_attentions_0_proj_in_weight_to_fp16_palettized = constexpr_lut_to_dense()[indices = tensor<uint8, [76800]>(BLOBFILE(path = tensor<string, []>("@model_path/weights/weight.bin"), offset = tensor<uint64, []>(3249920))), lut = tensor<fp16, [64]>(BLOBFILE(path = tensor<string, []>("@model_path/weights/weight.bin"), offset = tensor<uint64, []>(3326784))), name = tensor<string, []>("down_blocks_0_attentions_0_proj_in_weight_to_fp16_palettized"), shape = tensor<uint32, [4]>([320, 320, 1, 1])];
            tensor<fp16, [320]> down_blocks_0_attentions_0_proj_in_bias_to_fp16 = const()[name = tensor<string, []>("down_blocks_0_attentions_0_proj_in_bias_to_fp16"), val = tensor<fp16, [320]>(BLOBFILE(path = tensor<string, []>("@model_path/weights/weight.bin"), offset = tensor<uint64, []>(3326976)))];
            tensor<fp16, [2, 320, 64, 64]> hidden_states_7_cast = conv(bias = down_blocks_0_attentions_0_proj_in_bias_to_fp16, dilations = var_186, groups = var_120, pad = hidden_states_7_pad_0, pad_type = hidden_states_7_pad_type_0, strides = var_184, weight = down_blocks_0_attentions_0_proj_in_weight_to_fp16_palettized, x = add_5_cast)[name = tensor<string, []>("hidden_states_7_cast")];
            tensor<int32, [4]> var_191 = const()[name = tensor<string, []>("op_191"), val = tensor<int32, [4]>([2, 320, 1, 4096])];
            tensor<fp16, [2, 320, 1, 4096]> inputs_1_cast = reshape(shape = var_191, x = hidden_states_7_cast)[name = tensor<string, []>("inputs_1_cast")];
            tensor<int32, [1]> var_201 = const()[name = tensor<string, []>("op_201"), val = tensor<int32, [1]>([1])];
            tensor<fp16, [2, 1, 1, 4096]> channels_mean_1_cast = reduce_mean(axes = var_201, keep_dims = var_115, x = inputs_1_cast)[name = tensor<string, []>("channels_mean_1_cast")];
            tensor<fp16, [2, 320, 1, 4096]> zero_mean_1_cast = sub(x = inputs_1_cast, y = channels_mean_1_cast)[name = tensor<string, []>("zero_mean_1_cast")];
            tensor<fp16, [2, 320, 1, 4096]> zero_mean_sq_1_cast = mul(x = zero_mean_1_cast, y = zero_mean_1_cast)[name = tensor<string, []>("zero_mean_sq_1_cast")];
            tensor<int32, [1]> var_205 = const()[name = tensor<string, []>("op_205"), val = tensor<int32, [1]>([1])];
            tensor<fp16, [2, 1, 1, 4096]> var_206_cast = reduce_mean(axes = var_205, keep_dims = var_115, x = zero_mean_sq_1_cast)[name = tensor<string, []>("op_206_cast")];
            tensor<fp16, []> var_207_to_fp16 = const()[name = tensor<string, []>("op_207_to_fp16"), val = tensor<fp16, []>(0x1.5p-17)];
            tensor<fp16, [2, 1, 1, 4096]> var_208_cast = add(x = var_206_cast, y = var_207_to_fp16)[name = tensor<string, []>("op_208_cast")];
            tensor<fp16, []> denom_1_epsilon_0_to_fp16 = const()[name = tensor<string, []>("denom_1_epsilon_0_to_fp16"), val = tensor<fp16, []>(0x1p-24)];
            tensor<fp16, [2, 1, 1, 4096]> denom_1_cast = rsqrt(epsilon = denom_1_epsilon_0_to_fp16, x = var_208_cast)[name = tensor<string, []>("denom_1_cast")];
            tensor<fp16, [2, 320, 1, 4096]> out_1_cast = mul(x = zero_mean_1_cast, y = denom_1_cast)[name = tensor<string, []>("out_1_cast")];
            tensor<fp16, [1, 320, 1, 1]> var_212_to_fp16 = const()[name = tensor<string, []>("op_212_to_fp16"), val = tensor<fp16, [1, 320, 1, 1]>(BLOBFILE(path = tensor<string, []>("@model_path/weights/weight.bin"), offset = tensor<uint64, []>(3327680)))];
            tensor<fp16, [2, 320, 1, 4096]> var_213_cast = add(x = out_1_cast, y = var_212_to_fp16)[name = tensor<string, []>("op_213_cast")];
            tensor<fp16, [1, 320, 1, 1]> var_215_to_fp16 = const()[name = tensor<string, []>("op_215_to_fp16"), val = tensor<fp16, [1, 320, 1, 1]>(BLOBFILE(path = tensor<string, []>("@model_path/weights/weight.bin"), offset = tensor<uint64, []>(3328384)))];
            tensor<fp16, [2, 320, 1, 4096]> hidden_states_9_cast = mul(x = var_213_cast, y = var_215_to_fp16)[name = tensor<string, []>("hidden_states_9_cast")];
            tensor<int32, [2]> var_222 = const()[name = tensor<string, []>("op_222"), val = tensor<int32, [2]>([1, 1])];
            tensor<int32, [2]> var_224 = const()[name = tensor<string, []>("op_224"), val = tensor<int32, [2]>([1, 1])];
            tensor<string, []> q_1_pad_type_0 = const()[name = tensor<string, []>("q_1_pad_type_0"), val = tensor<string, []>("custom")];
            tensor<int32, [4]> q_1_pad_0 = const()[name = tensor<string, []>("q_1_pad_0"), val = tensor<int32, [4]>([0, 0, 0, 0])];
            tensor<fp16, [320, 320, 1, 1]> down_blocks_0_attentions_0_transformer_blocks_0_attn1_to_q_weight_to_fp16_palettized = constexpr_lut_to_dense()[indices = tensor<uint8, [76800]>(BLOBFILE(path = tensor<string, []>("@model_path/weights/weight.bin"), offset = tensor<uint64, []>(3329088))), lut = tensor<fp16, [64]>(BLOBFILE(path = tensor<string, []>("@model_path/weights/weight.bin"), offset = tensor<uint64, []>(3405952))), name = tensor<string, []>("down_blocks_0_attentions_0_transformer_blocks_0_attn1_to_q_weight_to_fp16_palettized"), shape = tensor<uint32, [4]>([320, 320, 1, 1])];
            tensor<fp16, [2, 320, 1, 4096]> q_1_cast = conv(dilations = var_224, groups = var_120, pad = q_1_pad_0, pad_type = q_1_pad_type_0, strides = var_222, weight = down_blocks_0_attentions_0_transformer_blocks_0_attn1_to_q_weight_to_fp16_palettized, x = hidden_states_9_cast)[name = tensor<string, []>("q_1_cast")];
            tensor<int32, [2]> var_228 = const()[name = tensor<string, []>("op_228"), val = tensor<int32, [2]>([1, 1])];
            tensor<int32, [2]> var_230 = const()[name = tensor<string, []>("op_230"), val = tensor<int32, [2]>([1, 1])];
            tensor<string, []> k_1_pad_type_0 = const()[name = tensor<string, []>("k_1_pad_type_0"), val = tensor<string, []>("custom")];
            tensor<int32, [4]> k_1_pad_0 = const()[name = tensor<string, []>("k_1_pad_0"), val = tensor<int32, [4]>([0, 0, 0, 0])];
            tensor<fp16, [320, 320, 1, 1]> down_blocks_0_attentions_0_transformer_blocks_0_attn1_to_k_weight_to_fp16_palettized = constexpr_lut_to_dense()[indices = tensor<uint8, [76800]>(BLOBFILE(path = tensor<string, []>("@model_path/weights/weight.bin"), offset = tensor<uint64, []>(3406144))), lut = tensor<fp16, [64]>(BLOBFILE(path = tensor<string, []>("@model_path/weights/weight.bin"), offset = tensor<uint64, []>(3483008))), name = tensor<string, []>("down_blocks_0_attentions_0_transformer_blocks_0_attn1_to_k_weight_to_fp16_palettized"), shape = tensor<uint32, [4]>([320, 320, 1, 1])];
            tensor<fp16, [2, 320, 1, 4096]> k_1_cast = conv(dilations = var_230, groups = var_120, pad = k_1_pad_0, pad_type = k_1_pad_type_0, strides = var_228, weight = down_blocks_0_attentions_0_transformer_blocks_0_attn1_to_k_weight_to_fp16_palettized, x = hidden_states_9_cast)[name = tensor<string, []>("k_1_cast")];
            tensor<int32, [2]> var_234 = const()[name = tensor<string, []>("op_234"), val = tensor<int32, [2]>([1, 1])];
            tensor<int32, [2]> var_236 = const()[name = tensor<string, []>("op_236"), val = tensor<int32, [2]>([1, 1])];
            tensor<string, []> v_1_pad_type_0 = const()[name = tensor<string, []>("v_1_pad_type_0"), val = tensor<string, []>("custom")];
            tensor<int32, [4]> v_1_pad_0 = const()[name = tensor<string, []>("v_1_pad_0"), val = tensor<int32, [4]>([0, 0, 0, 0])];
            tensor<fp16, [320, 320, 1, 1]> down_blocks_0_attentions_0_transformer_blocks_0_attn1_to_v_weight_to_fp16_palettized = constexpr_lut_to_dense()[indices = tensor<uint8, [76800]>(BLOBFILE(path = tensor<string, []>("@model_path/weights/weight.bin"), offset = tensor<uint64, []>(3483200))), lut = tensor<fp16, [64]>(BLOBFILE(path = tensor<string, []>("@model_path/weights/weight.bin"), offset = tensor<uint64, []>(3560064))), name = tensor<string, []>("down_blocks_0_attentions_0_transformer_blocks_0_attn1_to_v_weight_to_fp16_palettized"), shape = tensor<uint32, [4]>([320, 320, 1, 1])];
            tensor<fp16, [2, 320, 1, 4096]> v_1_cast = conv(dilations = var_236, groups = var_120, pad = v_1_pad_0, pad_type = v_1_pad_type_0, strides = var_234, weight = down_blocks_0_attentions_0_transformer_blocks_0_attn1_to_v_weight_to_fp16_palettized, x = hidden_states_9_cast)[name = tensor<string, []>("v_1_cast")];
            tensor<int32, [4]> var_240_begin_0 = const()[name = tensor<string, []>("op_240_begin_0"), val = tensor<int32, [4]>([0, 0, 0, 0])];
            tensor<int32, [4]> var_240_end_0 = const()[name = tensor<string, []>("op_240_end_0"), val = tensor<int32, [4]>([2, 64, 1, 4096])];
            tensor<bool, [4]> var_240_end_mask_0 = const()[name = tensor<string, []>("op_240_end_mask_0"), val = tensor<bool, [4]>([true, false, true, true])];
            tensor<fp16, [2, 64, 1, 4096]> var_240_cast = slice_by_index(begin = var_240_begin_0, end = var_240_end_0, end_mask = var_240_end_mask_0, x = q_1_cast)[name = tensor<string, []>("op_240_cast")];
            tensor<int32, [4]> var_244_begin_0 = const()[name = tensor<string, []>("op_244_begin_0"), val = tensor<int32, [4]>([0, 64, 0, 0])];
            tensor<int32, [4]> var_244_end_0 = const()[name = tensor<string, []>("op_244_end_0"), val = tensor<int32, [4]>([2, 128, 1, 4096])];
            tensor<bool, [4]> var_244_end_mask_0 = const()[name = tensor<string, []>("op_244_end_mask_0"), val = tensor<bool, [4]>([true, false, true, true])];
            tensor<fp16, [2, 64, 1, 4096]> var_244_cast = slice_by_index(begin = var_244_begin_0, end = var_244_end_0, end_mask = var_244_end_mask_0, x = q_1_cast)[name = tensor<string, []>("op_244_cast")];
            tensor<int32, [4]> var_248_begin_0 = const()[name = tensor<string, []>("op_248_begin_0"), val = tensor<int32, [4]>([0, 128, 0, 0])];
            tensor<int32, [4]> var_248_end_0 = const()[name = tensor<string, []>("op_248_end_0"), val = tensor<int32, [4]>([2, 192, 1, 4096])];
            tensor<bool, [4]> var_248_end_mask_0 = const()[name = tensor<string, []>("op_248_end_mask_0"), val = tensor<bool, [4]>([true, false, true, true])];
            tensor<fp16, [2, 64, 1, 4096]> var_248_cast = slice_by_index(begin = var_248_begin_0, end = var_248_end_0, end_mask = var_248_end_mask_0, x = q_1_cast)[name = tensor<string, []>("op_248_cast")];
            tensor<int32, [4]> var_252_begin_0 = const()[name = tensor<string, []>("op_252_begin_0"), val = tensor<int32, [4]>([0, 192, 0, 0])];
            tensor<int32, [4]> var_252_end_0 = const()[name = tensor<string, []>("op_252_end_0"), val = tensor<int32, [4]>([2, 256, 1, 4096])];
            tensor<bool, [4]> var_252_end_mask_0 = const()[name = tensor<string, []>("op_252_end_mask_0"), val = tensor<bool, [4]>([true, false, true, true])];
            tensor<fp16, [2, 64, 1, 4096]> var_252_cast = slice_by_index(begin = var_252_begin_0, end = var_252_end_0, end_mask = var_252_end_mask_0, x = q_1_cast)[name = tensor<string, []>("op_252_cast")];
            tensor<int32, [4]> var_256_begin_0 = const()[name = tensor<string, []>("op_256_begin_0"), val = tensor<int32, [4]>([0, 256, 0, 0])];
            tensor<int32, [4]> var_256_end_0 = const()[name = tensor<string, []>("op_256_end_0"), val = tensor<int32, [4]>([2, 320, 1, 4096])];
            tensor<bool, [4]> var_256_end_mask_0 = const()[name = tensor<string, []>("op_256_end_mask_0"), val = tensor<bool, [4]>([true, false, true, true])];
            tensor<fp16, [2, 64, 1, 4096]> var_256_cast = slice_by_index(begin = var_256_begin_0, end = var_256_end_0, end_mask = var_256_end_mask_0, x = q_1_cast)[name = tensor<string, []>("op_256_cast")];
            tensor<int32, [4]> var_259_begin_0 = const()[name = tensor<string, []>("op_259_begin_0"), val = tensor<int32, [4]>([0, 0, 0, 0])];
            tensor<int32, [4]> var_259_end_0 = const()[name = tensor<string, []>("op_259_end_0"), val = tensor<int32, [4]>([2, 64, 1, 512])];
            tensor<bool, [4]> var_259_end_mask_0 = const()[name = tensor<string, []>("op_259_end_mask_0"), val = tensor<bool, [4]>([true, true, true, false])];
            tensor<fp16, [2, 64, 1, 512]> var_259_cast = slice_by_index(begin = var_259_begin_0, end = var_259_end_0, end_mask = var_259_end_mask_0, x = var_240_cast)[name = tensor<string, []>("op_259_cast")];
            tensor<int32, [4]> var_260_begin_0 = const()[name = tensor<string, []>("op_260_begin_0"), val = tensor<int32, [4]>([0, 0, 0, 512])];
            tensor<int32, [4]> var_260_end_0 = const()[name = tensor<string, []>("op_260_end_0"), val = tensor<int32, [4]>([2, 64, 1, 1024])];
            tensor<bool, [4]> var_260_end_mask_0 = const()[name = tensor<string, []>("op_260_end_mask_0"), val = tensor<bool, [4]>([true, true, true, false])];
            tensor<fp16, [2, 64, 1, 512]> var_260_cast = slice_by_index(begin = var_260_begin_0, end = var_260_end_0, end_mask = var_260_end_mask_0, x = var_240_cast)[name = tensor<string, []>("op_260_cast")];
            tensor<int32, [4]> var_261_begin_0 = const()[name = tensor<string, []>("op_261_begin_0"), val = tensor<int32, [4]>([0, 0, 0, 1024])];
            tensor<int32, [4]> var_261_end_0 = const()[name = tensor<string, []>("op_261_end_0"), val = tensor<int32, [4]>([2, 64, 1, 1536])];
            tensor<bool, [4]> var_261_end_mask_0 = const()[name = tensor<string, []>("op_261_end_mask_0"), val = tensor<bool, [4]>([true, true, true, false])];
            tensor<fp16, [2, 64, 1, 512]> var_261_cast = slice_by_index(begin = var_261_begin_0, end = var_261_end_0, end_mask = var_261_end_mask_0, x = var_240_cast)[name = tensor<string, []>("op_261_cast")];
            tensor<int32, [4]> var_262_begin_0 = const()[name = tensor<string, []>("op_262_begin_0"), val = tensor<int32, [4]>([0, 0, 0, 1536])];
            tensor<int32, [4]> var_262_end_0 = const()[name = tensor<string, []>("op_262_end_0"), val = tensor<int32, [4]>([2, 64, 1, 2048])];
            tensor<bool, [4]> var_262_end_mask_0 = const()[name = tensor<string, []>("op_262_end_mask_0"), val = tensor<bool, [4]>([true, true, true, false])];
            tensor<fp16, [2, 64, 1, 512]> var_262_cast = slice_by_index(begin = var_262_begin_0, end = var_262_end_0, end_mask = var_262_end_mask_0, x = var_240_cast)[name = tensor<string, []>("op_262_cast")];
            tensor<int32, [4]> var_263_begin_0 = const()[name = tensor<string, []>("op_263_begin_0"), val = tensor<int32, [4]>([0, 0, 0, 2048])];
            tensor<int32, [4]> var_263_end_0 = const()[name = tensor<string, []>("op_263_end_0"), val = tensor<int32, [4]>([2, 64, 1, 2560])];
            tensor<bool, [4]> var_263_end_mask_0 = const()[name = tensor<string, []>("op_263_end_mask_0"), val = tensor<bool, [4]>([true, true, true, false])];
            tensor<fp16, [2, 64, 1, 512]> var_263_cast = slice_by_index(begin = var_263_begin_0, end = var_263_end_0, end_mask = var_263_end_mask_0, x = var_240_cast)[name = tensor<string, []>("op_263_cast")];
            tensor<int32, [4]> var_264_begin_0 = const()[name = tensor<string, []>("op_264_begin_0"), val = tensor<int32, [4]>([0, 0, 0, 2560])];
            tensor<int32, [4]> var_264_end_0 = const()[name = tensor<string, []>("op_264_end_0"), val = tensor<int32, [4]>([2, 64, 1, 3072])];
            tensor<bool, [4]> var_264_end_mask_0 = const()[name = tensor<string, []>("op_264_end_mask_0"), val = tensor<bool, [4]>([true, true, true, false])];
            tensor<fp16, [2, 64, 1, 512]> var_264_cast = slice_by_index(begin = var_264_begin_0, end = var_264_end_0, end_mask = var_264_end_mask_0, x = var_240_cast)[name = tensor<string, []>("op_264_cast")];
            tensor<int32, [4]> var_265_begin_0 = const()[name = tensor<string, []>("op_265_begin_0"), val = tensor<int32, [4]>([0, 0, 0, 3072])];
            tensor<int32, [4]> var_265_end_0 = const()[name = tensor<string, []>("op_265_end_0"), val = tensor<int32, [4]>([2, 64, 1, 3584])];
            tensor<bool, [4]> var_265_end_mask_0 = const()[name = tensor<string, []>("op_265_end_mask_0"), val = tensor<bool, [4]>([true, true, true, false])];
            tensor<fp16, [2, 64, 1, 512]> var_265_cast = slice_by_index(begin = var_265_begin_0, end = var_265_end_0, end_mask = var_265_end_mask_0, x = var_240_cast)[name = tensor<string, []>("op_265_cast")];
            tensor<int32, [4]> var_266_begin_0 = const()[name = tensor<string, []>("op_266_begin_0"), val = tensor<int32, [4]>([0, 0, 0, 3584])];
            tensor<int32, [4]> var_266_end_0 = const()[name = tensor<string, []>("op_266_end_0"), val = tensor<int32, [4]>([2, 64, 1, 4096])];
            tensor<bool, [4]> var_266_end_mask_0 = const()[name = tensor<string, []>("op_266_end_mask_0"), val = tensor<bool, [4]>([true, true, true, false])];
            tensor<fp16, [2, 64, 1, 512]> var_266_cast = slice_by_index(begin = var_266_begin_0, end = var_266_end_0, end_mask = var_266_end_mask_0, x = var_240_cast)[name = tensor<string, []>("op_266_cast")];
            tensor<int32, [4]> var_267_begin_0 = const()[name = tensor<string, []>("op_267_begin_0"), val = tensor<int32, [4]>([0, 0, 0, 0])];
            tensor<int32, [4]> var_267_end_0 = const()[name = tensor<string, []>("op_267_end_0"), val = tensor<int32, [4]>([2, 64, 1, 512])];
            tensor<bool, [4]> var_267_end_mask_0 = const()[name = tensor<string, []>("op_267_end_mask_0"), val = tensor<bool, [4]>([true, true, true, false])];
            tensor<fp16, [2, 64, 1, 512]> var_267_cast = slice_by_index(begin = var_267_begin_0, end = var_267_end_0, end_mask = var_267_end_mask_0, x = var_244_cast)[name = tensor<string, []>("op_267_cast")];
            tensor<int32, [4]> var_268_begin_0 = const()[name = tensor<string, []>("op_268_begin_0"), val = tensor<int32, [4]>([0, 0, 0, 512])];
            tensor<int32, [4]> var_268_end_0 = const()[name = tensor<string, []>("op_268_end_0"), val = tensor<int32, [4]>([2, 64, 1, 1024])];
            tensor<bool, [4]> var_268_end_mask_0 = const()[name = tensor<string, []>("op_268_end_mask_0"), val = tensor<bool, [4]>([true, true, true, false])];
            tensor<fp16, [2, 64, 1, 512]> var_268_cast = slice_by_index(begin = var_268_begin_0, end = var_268_end_0, end_mask = var_268_end_mask_0, x = var_244_cast)[name = tensor<string, []>("op_268_cast")];
            tensor<int32, [4]> var_269_begin_0 = const()[name = tensor<string, []>("op_269_begin_0"), val = tensor<int32, [4]>([0, 0, 0, 1024])];
            tensor<int32, [4]> var_269_end_0 = const()[name = tensor<string, []>("op_269_end_0"), val = tensor<int32, [4]>([2, 64, 1, 1536])];
            tensor<bool, [4]> var_269_end_mask_0 = const()[name = tensor<string, []>("op_269_end_mask_0"), val = tensor<bool, [4]>([true, true, true, false])];
            tensor<fp16, [2, 64, 1, 512]> var_269_cast = slice_by_index(begin = var_269_begin_0, end = var_269_end_0, end_mask = var_269_end_mask_0, x = var_244_cast)[name = tensor<string, []>("op_269_cast")];
            tensor<int32, [4]> var_270_begin_0 = const()[name = tensor<string, []>("op_270_begin_0"), val = tensor<int32, [4]>([0, 0, 0, 1536])];
            tensor<int32, [4]> var_270_end_0 = const()[name = tensor<string, []>("op_270_end_0"), val = tensor<int32, [4]>([2, 64, 1, 2048])];
            tensor<bool, [4]> var_270_end_mask_0 = const()[name = tensor<string, []>("op_270_end_mask_0"), val = tensor<bool, [4]>([true, true, true, false])];
            tensor<fp16, [2, 64, 1, 512]> var_270_cast = slice_by_index(begin = var_270_begin_0, end = var_270_end_0, end_mask = var_270_end_mask_0, x = var_244_cast)[name = tensor<string, []>("op_270_cast")];
            tensor<int32, [4]> var_271_begin_0 = const()[name = tensor<string, []>("op_271_begin_0"), val = tensor<int32, [4]>([0, 0, 0, 2048])];
            tensor<int32, [4]> var_271_end_0 = const()[name = tensor<string, []>("op_271_end_0"), val = tensor<int32, [4]>([2, 64, 1, 2560])];
            tensor<bool, [4]> var_271_end_mask_0 = const()[name = tensor<string, []>("op_271_end_mask_0"), val = tensor<bool, [4]>([true, true, true, false])];
            tensor<fp16, [2, 64, 1, 512]> var_271_cast = slice_by_index(begin = var_271_begin_0, end = var_271_end_0, end_mask = var_271_end_mask_0, x = var_244_cast)[name = tensor<string, []>("op_271_cast")];
            tensor<int32, [4]> var_272_begin_0 = const()[name = tensor<string, []>("op_272_begin_0"), val = tensor<int32, [4]>([0, 0, 0, 2560])];
            tensor<int32, [4]> var_272_end_0 = const()[name = tensor<string, []>("op_272_end_0"), val = tensor<int32, [4]>([2, 64, 1, 3072])];
            tensor<bool, [4]> var_272_end_mask_0 = const()[name = tensor<string, []>("op_272_end_mask_0"), val = tensor<bool, [4]>([true, true, true, false])];
            tensor<fp16, [2, 64, 1, 512]> var_272_cast = slice_by_index(begin = var_272_begin_0, end = var_272_end_0, end_mask = var_272_end_mask_0, x = var_244_cast)[name = tensor<string, []>("op_272_cast")];
            tensor<int32, [4]> var_273_begin_0 = const()[name = tensor<string, []>("op_273_begin_0"), val = tensor<int32, [4]>([0, 0, 0, 3072])];
            tensor<int32, [4]> var_273_end_0 = const()[name = tensor<string, []>("op_273_end_0"), val = tensor<int32, [4]>([2, 64, 1, 3584])];
            tensor<bool, [4]> var_273_end_mask_0 = const()[name = tensor<string, []>("op_273_end_mask_0"), val = tensor<bool, [4]>([true, true, true, false])];
            tensor<fp16, [2, 64, 1, 512]> var_273_cast = slice_by_index(begin = var_273_begin_0, end = var_273_end_0, end_mask = var_273_end_mask_0, x = var_244_cast)[name = tensor<string, []>("op_273_cast")];
            tensor<int32, [4]> var_274_begin_0 = const()[name = tensor<string, []>("op_274_begin_0"), val = tensor<int32, [4]>([0, 0, 0, 3584])];
            tensor<int32, [4]> var_274_end_0 = const()[name = tensor<string, []>("op_274_end_0"), val = tensor<int32, [4]>([2, 64, 1, 4096])];
            tensor<bool, [4]> var_274_end_mask_0 = const()[name = tensor<string, []>("op_274_end_mask_0"), val = tensor<bool, [4]>([true, true, true, false])];
            tensor<fp16, [2, 64, 1, 512]> var_274_cast = slice_by_index(begin = var_274_begin_0, end = var_274_end_0, end_mask = var_274_end_mask_0, x = var_244_cast)[name = tensor<string, []>("op_274_cast")];
            tensor<int32, [4]> var_275_begin_0 = const()[name = tensor<string, []>("op_275_begin_0"), val = tensor<int32, [4]>([0, 0, 0, 0])];
            tensor<int32, [4]> var_275_end_0 = const()[name = tensor<string, []>("op_275_end_0"), val = tensor<int32, [4]>([2, 64, 1, 512])];
            tensor<bool, [4]> var_275_end_mask_0 = const()[name = tensor<string, []>("op_275_end_mask_0"), val = tensor<bool, [4]>([true, true, true, false])];
            tensor<fp16, [2, 64, 1, 512]> var_275_cast = slice_by_index(begin = var_275_begin_0, end = var_275_end_0, end_mask = var_275_end_mask_0, x = var_248_cast)[name = tensor<string, []>("op_275_cast")];
            tensor<int32, [4]> var_276_begin_0 = const()[name = tensor<string, []>("op_276_begin_0"), val = tensor<int32, [4]>([0, 0, 0, 512])];
            tensor<int32, [4]> var_276_end_0 = const()[name = tensor<string, []>("op_276_end_0"), val = tensor<int32, [4]>([2, 64, 1, 1024])];
            tensor<bool, [4]> var_276_end_mask_0 = const()[name = tensor<string, []>("op_276_end_mask_0"), val = tensor<bool, [4]>([true, true, true, false])];
            tensor<fp16, [2, 64, 1, 512]> var_276_cast = slice_by_index(begin = var_276_begin_0, end = var_276_end_0, end_mask = var_276_end_mask_0, x = var_248_cast)[name = tensor<string, []>("op_276_cast")];
            tensor<int32, [4]> var_277_begin_0 = const()[name = tensor<string, []>("op_277_begin_0"), val = tensor<int32, [4]>([0, 0, 0, 1024])];
            tensor<int32, [4]> var_277_end_0 = const()[name = tensor<string, []>("op_277_end_0"), val = tensor<int32, [4]>([2, 64, 1, 1536])];
            tensor<bool, [4]> var_277_end_mask_0 = const()[name = tensor<string, []>("op_277_end_mask_0"), val = tensor<bool, [4]>([true, true, true, false])];
            tensor<fp16, [2, 64, 1, 512]> var_277_cast = slice_by_index(begin = var_277_begin_0, end = var_277_end_0, end_mask = var_277_end_mask_0, x = var_248_cast)[name = tensor<string, []>("op_277_cast")];
            tensor<int32, [4]> var_278_begin_0 = const()[name = tensor<string, []>("op_278_begin_0"), val = tensor<int32, [4]>([0, 0, 0, 1536])];
            tensor<int32, [4]> var_278_end_0 = const()[name = tensor<string, []>("op_278_end_0"), val = tensor<int32, [4]>([2, 64, 1, 2048])];
            tensor<bool, [4]> var_278_end_mask_0 = const()[name = tensor<string, []>("op_278_end_mask_0"), val = tensor<bool, [4]>([true, true, true, false])];
            tensor<fp16, [2, 64, 1, 512]> var_278_cast = slice_by_index(begin = var_278_begin_0, end = var_278_end_0, end_mask = var_278_end_mask_0, x = var_248_cast)[name = tensor<string, []>("op_278_cast")];
            tensor<int32, [4]> var_279_begin_0 = const()[name = tensor<string, []>("op_279_begin_0"), val = tensor<int32, [4]>([0, 0, 0, 2048])];
            tensor<int32, [4]> var_279_end_0 = const()[name = tensor<string, []>("op_279_end_0"), val = tensor<int32, [4]>([2, 64, 1, 2560])];
            tensor<bool, [4]> var_279_end_mask_0 = const()[name = tensor<string, []>("op_279_end_mask_0"), val = tensor<bool, [4]>([true, true, true, false])];
            tensor<fp16, [2, 64, 1, 512]> var_279_cast = slice_by_index(begin = var_279_begin_0, end = var_279_end_0, end_mask = var_279_end_mask_0, x = var_248_cast)[name = tensor<string, []>("op_279_cast")];
            tensor<int32, [4]> var_280_begin_0 = const()[name = tensor<string, []>("op_280_begin_0"), val = tensor<int32, [4]>([0, 0, 0, 2560])];
            tensor<int32, [4]> var_280_end_0 = const()[name = tensor<string, []>("op_280_end_0"), val = tensor<int32, [4]>([2, 64, 1, 3072])];
            tensor<bool, [4]> var_280_end_mask_0 = const()[name = tensor<string, []>("op_280_end_mask_0"), val = tensor<bool, [4]>([true, true, true, false])];
            tensor<fp16, [2, 64, 1, 512]> var_280_cast = slice_by_index(begin = var_280_begin_0, end = var_280_end_0, end_mask = var_280_end_mask_0, x = var_248_cast)[name = tensor<string, []>("op_280_cast")];
            tensor<int32, [4]> var_281_begin_0 = const()[name = tensor<string, []>("op_281_begin_0"), val = tensor<int32, [4]>([0, 0, 0, 3072])];
            tensor<int32, [4]> var_281_end_0 = const()[name = tensor<string, []>("op_281_end_0"), val = tensor<int32, [4]>([2, 64, 1, 3584])];
            tensor<bool, [4]> var_281_end_mask_0 = const()[name = tensor<string, []>("op_281_end_mask_0"), val = tensor<bool, [4]>([true, true, true, false])];
            tensor<fp16, [2, 64, 1, 512]> var_281_cast = slice_by_index(begin = var_281_begin_0, end = var_281_end_0, end_mask = var_281_end_mask_0, x = var_248_cast)[name = tensor<string, []>("op_281_cast")];
            tensor<int32, [4]> var_282_begin_0 = const()[name = tensor<string, []>("op_282_begin_0"), val = tensor<int32, [4]>([0, 0, 0, 3584])];
            tensor<int32, [4]> var_282_end_0 = const()[name = tensor<string, []>("op_282_end_0"), val = tensor<int32, [4]>([2, 64, 1, 4096])];
            tensor<bool, [4]> var_282_end_mask_0 = const()[name = tensor<string, []>("op_282_end_mask_0"), val = tensor<bool, [4]>([true, true, true, false])];
            tensor<fp16, [2, 64, 1, 512]> var_282_cast = slice_by_index(begin = var_282_begin_0, end = var_282_end_0, end_mask = var_282_end_mask_0, x = var_248_cast)[name = tensor<string, []>("op_282_cast")];
            tensor<int32, [4]> var_283_begin_0 = const()[name = tensor<string, []>("op_283_begin_0"), val = tensor<int32, [4]>([0, 0, 0, 0])];
            tensor<int32, [4]> var_283_end_0 = const()[name = tensor<string, []>("op_283_end_0"), val = tensor<int32, [4]>([2, 64, 1, 512])];
            tensor<bool, [4]> var_283_end_mask_0 = const()[name = tensor<string, []>("op_283_end_mask_0"), val = tensor<bool, [4]>([true, true, true, false])];
            tensor<fp16, [2, 64, 1, 512]> var_283_cast = slice_by_index(begin = var_283_begin_0, end = var_283_end_0, end_mask = var_283_end_mask_0, x = var_252_cast)[name = tensor<string, []>("op_283_cast")];
            tensor<int32, [4]> var_284_begin_0 = const()[name = tensor<string, []>("op_284_begin_0"), val = tensor<int32, [4]>([0, 0, 0, 512])];
            tensor<int32, [4]> var_284_end_0 = const()[name = tensor<string, []>("op_284_end_0"), val = tensor<int32, [4]>([2, 64, 1, 1024])];
            tensor<bool, [4]> var_284_end_mask_0 = const()[name = tensor<string, []>("op_284_end_mask_0"), val = tensor<bool, [4]>([true, true, true, false])];
            tensor<fp16, [2, 64, 1, 512]> var_284_cast = slice_by_index(begin = var_284_begin_0, end = var_284_end_0, end_mask = var_284_end_mask_0, x = var_252_cast)[name = tensor<string, []>("op_284_cast")];
            tensor<int32, [4]> var_285_begin_0 = const()[name = tensor<string, []>("op_285_begin_0"), val = tensor<int32, [4]>([0, 0, 0, 1024])];
            tensor<int32, [4]> var_285_end_0 = const()[name = tensor<string, []>("op_285_end_0"), val = tensor<int32, [4]>([2, 64, 1, 1536])];
            tensor<bool, [4]> var_285_end_mask_0 = const()[name = tensor<string, []>("op_285_end_mask_0"), val = tensor<bool, [4]>([true, true, true, false])];
            tensor<fp16, [2, 64, 1, 512]> var_285_cast = slice_by_index(begin = var_285_begin_0, end = var_285_end_0, end_mask = var_285_end_mask_0, x = var_252_cast)[name = tensor<string, []>("op_285_cast")];
            tensor<int32, [4]> var_286_begin_0 = const()[name = tensor<string, []>("op_286_begin_0"), val = tensor<int32, [4]>([0, 0, 0, 1536])];
            tensor<int32, [4]> var_286_end_0 = const()[name = tensor<string, []>("op_286_end_0"), val = tensor<int32, [4]>([2, 64, 1, 2048])];
            tensor<bool, [4]> var_286_end_mask_0 = const()[name = tensor<string, []>("op_286_end_mask_0"), val = tensor<bool, [4]>([true, true, true, false])];
            tensor<fp16, [2, 64, 1, 512]> var_286_cast = slice_by_index(begin = var_286_begin_0, end = var_286_end_0, end_mask = var_286_end_mask_0, x = var_252_cast)[name = tensor<string, []>("op_286_cast")];
            tensor<int32, [4]> var_287_begin_0 = const()[name = tensor<string, []>("op_287_begin_0"), val = tensor<int32, [4]>([0, 0, 0, 2048])];
            tensor<int32, [4]> var_287_end_0 = const()[name = tensor<string, []>("op_287_end_0"), val = tensor<int32, [4]>([2, 64, 1, 2560])];
            tensor<bool, [4]> var_287_end_mask_0 = const()[name = tensor<string, []>("op_287_end_mask_0"), val = tensor<bool, [4]>([true, true, true, false])];
            tensor<fp16, [2, 64, 1, 512]> var_287_cast = slice_by_index(begin = var_287_begin_0, end = var_287_end_0, end_mask = var_287_end_mask_0, x = var_252_cast)[name = tensor<string, []>("op_287_cast")];
            tensor<int32, [4]> var_288_begin_0 = const()[name = tensor<string, []>("op_288_begin_0"), val = tensor<int32, [4]>([0, 0, 0, 2560])];
            tensor<int32, [4]> var_288_end_0 = const()[name = tensor<string, []>("op_288_end_0"), val = tensor<int32, [4]>([2, 64, 1, 3072])];
            tensor<bool, [4]> var_288_end_mask_0 = const()[name = tensor<string, []>("op_288_end_mask_0"), val = tensor<bool, [4]>([true, true, true, false])];
            tensor<fp16, [2, 64, 1, 512]> var_288_cast = slice_by_index(begin = var_288_begin_0, end = var_288_end_0, end_mask = var_288_end_mask_0, x = var_252_cast)[name = tensor<string, []>("op_288_cast")];
            tensor<int32, [4]> var_289_begin_0 = const()[name = tensor<string, []>("op_289_begin_0"), val = tensor<int32, [4]>([0, 0, 0, 3072])];
            tensor<int32, [4]> var_289_end_0 = const()[name = tensor<string, []>("op_289_end_0"), val = tensor<int32, [4]>([2, 64, 1, 3584])];
            tensor<bool, [4]> var_289_end_mask_0 = const()[name = tensor<string, []>("op_289_end_mask_0"), val = tensor<bool, [4]>([true, true, true, false])];
            tensor<fp16, [2, 64, 1, 512]> var_289_cast = slice_by_index(begin = var_289_begin_0, end = var_289_end_0, end_mask = var_289_end_mask_0, x = var_252_cast)[name = tensor<string, []>("op_289_cast")];
            tensor<int32, [4]> var_290_begin_0 = const()[name = tensor<string, []>("op_290_begin_0"), val = tensor<int32, [4]>([0, 0, 0, 3584])];
            tensor<int32, [4]> var_290_end_0 = const()[name = tensor<string, []>("op_290_end_0"), val = tensor<int32, [4]>([2, 64, 1, 4096])];
            tensor<bool, [4]> var_290_end_mask_0 = const()[name = tensor<string, []>("op_290_end_mask_0"), val = tensor<bool, [4]>([true, true, true, false])];
            tensor<fp16, [2, 64, 1, 512]> var_290_cast = slice_by_index(begin = var_290_begin_0, end = var_290_end_0, end_mask = var_290_end_mask_0, x = var_252_cast)[name = tensor<string, []>("op_290_cast")];
            tensor<int32, [4]> var_291_begin_0 = const()[name = tensor<string, []>("op_291_begin_0"), val = tensor<int32, [4]>([0, 0, 0, 0])];
            tensor<int32, [4]> var_291_end_0 = const()[name = tensor<string, []>("op_291_end_0"), val = tensor<int32, [4]>([2, 64, 1, 512])];
            tensor<bool, [4]> var_291_end_mask_0 = const()[name = tensor<string, []>("op_291_end_mask_0"), val = tensor<bool, [4]>([true, true, true, false])];
            tensor<fp16, [2, 64, 1, 512]> var_291_cast = slice_by_index(begin = var_291_begin_0, end = var_291_end_0, end_mask = var_291_end_mask_0, x = var_256_cast)[name = tensor<string, []>("op_291_cast")];
            tensor<int32, [4]> var_292_begin_0 = const()[name = tensor<string, []>("op_292_begin_0"), val = tensor<int32, [4]>([0, 0, 0, 512])];
            tensor<int32, [4]> var_292_end_0 = const()[name = tensor<string, []>("op_292_end_0"), val = tensor<int32, [4]>([2, 64, 1, 1024])];
            tensor<bool, [4]> var_292_end_mask_0 = const()[name = tensor<string, []>("op_292_end_mask_0"), val = tensor<bool, [4]>([true, true, true, false])];
            tensor<fp16, [2, 64, 1, 512]> var_292_cast = slice_by_index(begin = var_292_begin_0, end = var_292_end_0, end_mask = var_292_end_mask_0, x = var_256_cast)[name = tensor<string, []>("op_292_cast")];
            tensor<int32, [4]> var_293_begin_0 = const()[name = tensor<string, []>("op_293_begin_0"), val = tensor<int32, [4]>([0, 0, 0, 1024])];
            tensor<int32, [4]> var_293_end_0 = const()[name = tensor<string, []>("op_293_end_0"), val = tensor<int32, [4]>([2, 64, 1, 1536])];
            tensor<bool, [4]> var_293_end_mask_0 = const()[name = tensor<string, []>("op_293_end_mask_0"), val = tensor<bool, [4]>([true, true, true, false])];
            tensor<fp16, [2, 64, 1, 512]> var_293_cast = slice_by_index(begin = var_293_begin_0, end = var_293_end_0, end_mask = var_293_end_mask_0, x = var_256_cast)[name = tensor<string, []>("op_293_cast")];
            tensor<int32, [4]> var_294_begin_0 = const()[name = tensor<string, []>("op_294_begin_0"), val = tensor<int32, [4]>([0, 0, 0, 1536])];
            tensor<int32, [4]> var_294_end_0 = const()[name = tensor<string, []>("op_294_end_0"), val = tensor<int32, [4]>([2, 64, 1, 2048])];
            tensor<bool, [4]> var_294_end_mask_0 = const()[name = tensor<string, []>("op_294_end_mask_0"), val = tensor<bool, [4]>([true, true, true, false])];
            tensor<fp16, [2, 64, 1, 512]> var_294_cast = slice_by_index(begin = var_294_begin_0, end = var_294_end_0, end_mask = var_294_end_mask_0, x = var_256_cast)[name = tensor<string, []>("op_294_cast")];
            tensor<int32, [4]> var_295_begin_0 = const()[name = tensor<string, []>("op_295_begin_0"), val = tensor<int32, [4]>([0, 0, 0, 2048])];
            tensor<int32, [4]> var_295_end_0 = const()[name = tensor<string, []>("op_295_end_0"), val = tensor<int32, [4]>([2, 64, 1, 2560])];
            tensor<bool, [4]> var_295_end_mask_0 = const()[name = tensor<string, []>("op_295_end_mask_0"), val = tensor<bool, [4]>([true, true, true, false])];
            tensor<fp16, [2, 64, 1, 512]> var_295_cast = slice_by_index(begin = var_295_begin_0, end = var_295_end_0, end_mask = var_295_end_mask_0, x = var_256_cast)[name = tensor<string, []>("op_295_cast")];
            tensor<int32, [4]> var_296_begin_0 = const()[name = tensor<string, []>("op_296_begin_0"), val = tensor<int32, [4]>([0, 0, 0, 2560])];
            tensor<int32, [4]> var_296_end_0 = const()[name = tensor<string, []>("op_296_end_0"), val = tensor<int32, [4]>([2, 64, 1, 3072])];
            tensor<bool, [4]> var_296_end_mask_0 = const()[name = tensor<string, []>("op_296_end_mask_0"), val = tensor<bool, [4]>([true, true, true, false])];
            tensor<fp16, [2, 64, 1, 512]> var_296_cast = slice_by_index(begin = var_296_begin_0, end = var_296_end_0, end_mask = var_296_end_mask_0, x = var_256_cast)[name = tensor<string, []>("op_296_cast")];
            tensor<int32, [4]> var_297_begin_0 = const()[name = tensor<string, []>("op_297_begin_0"), val = tensor<int32, [4]>([0, 0, 0, 3072])];
            tensor<int32, [4]> var_297_end_0 = const()[name = tensor<string, []>("op_297_end_0"), val = tensor<int32, [4]>([2, 64, 1, 3584])];
            tensor<bool, [4]> var_297_end_mask_0 = const()[name = tensor<string, []>("op_297_end_mask_0"), val = tensor<bool, [4]>([true, true, true, false])];
            tensor<fp16, [2, 64, 1, 512]> var_297_cast = slice_by_index(begin = var_297_begin_0, end = var_297_end_0, end_mask = var_297_end_mask_0, x = var_256_cast)[name = tensor<string, []>("op_297_cast")];
            tensor<int32, [4]> var_298_begin_0 = const()[name = tensor<string, []>("op_298_begin_0"), val = tensor<int32, [4]>([0, 0, 0, 3584])];
            tensor<int32, [4]> var_298_end_0 = const()[name = tensor<string, []>("op_298_end_0"), val = tensor<int32, [4]>([2, 64, 1, 4096])];
            tensor<bool, [4]> var_298_end_mask_0 = const()[name = tensor<string, []>("op_298_end_mask_0"), val = tensor<bool, [4]>([true, true, true, false])];
            tensor<fp16, [2, 64, 1, 512]> var_298_cast = slice_by_index(begin = var_298_begin_0, end = var_298_end_0, end_mask = var_298_end_mask_0, x = var_256_cast)[name = tensor<string, []>("op_298_cast")];
            tensor<int32, [4]> k_3_perm_0 = const()[name = tensor<string, []>("k_3_perm_0"), val = tensor<int32, [4]>([0, 3, 2, 1])];
            tensor<int32, [4]> var_303_begin_0 = const()[name = tensor<string, []>("op_303_begin_0"), val = tensor<int32, [4]>([0, 0, 0, 0])];
            tensor<int32, [4]> var_303_end_0 = const()[name = tensor<string, []>("op_303_end_0"), val = tensor<int32, [4]>([2, 4096, 1, 64])];
            tensor<bool, [4]> var_303_end_mask_0 = const()[name = tensor<string, []>("op_303_end_mask_0"), val = tensor<bool, [4]>([true, true, true, false])];
            tensor<fp16, [2, 4096, 1, 320]> transpose_31 = transpose(perm = k_3_perm_0, x = k_1_cast)[name = tensor<string, []>("transpose_31")];
            tensor<fp16, [2, 4096, 1, 64]> var_303_cast = slice_by_index(begin = var_303_begin_0, end = var_303_end_0, end_mask = var_303_end_mask_0, x = transpose_31)[name = tensor<string, []>("op_303_cast")];
            tensor<int32, [4]> var_307_begin_0 = const()[name = tensor<string, []>("op_307_begin_0"), val = tensor<int32, [4]>([0, 0, 0, 64])];
            tensor<int32, [4]> var_307_end_0 = const()[name = tensor<string, []>("op_307_end_0"), val = tensor<int32, [4]>([2, 4096, 1, 128])];
            tensor<bool, [4]> var_307_end_mask_0 = const()[name = tensor<string, []>("op_307_end_mask_0"), val = tensor<bool, [4]>([true, true, true, false])];
            tensor<fp16, [2, 4096, 1, 64]> var_307_cast = slice_by_index(begin = var_307_begin_0, end = var_307_end_0, end_mask = var_307_end_mask_0, x = transpose_31)[name = tensor<string, []>("op_307_cast")];
            tensor<int32, [4]> var_311_begin_0 = const()[name = tensor<string, []>("op_311_begin_0"), val = tensor<int32, [4]>([0, 0, 0, 128])];
            tensor<int32, [4]> var_311_end_0 = const()[name = tensor<string, []>("op_311_end_0"), val = tensor<int32, [4]>([2, 4096, 1, 192])];
            tensor<bool, [4]> var_311_end_mask_0 = const()[name = tensor<string, []>("op_311_end_mask_0"), val = tensor<bool, [4]>([true, true, true, false])];
            tensor<fp16, [2, 4096, 1, 64]> var_311_cast = slice_by_index(begin = var_311_begin_0, end = var_311_end_0, end_mask = var_311_end_mask_0, x = transpose_31)[name = tensor<string, []>("op_311_cast")];
            tensor<int32, [4]> var_315_begin_0 = const()[name = tensor<string, []>("op_315_begin_0"), val = tensor<int32, [4]>([0, 0, 0, 192])];
            tensor<int32, [4]> var_315_end_0 = const()[name = tensor<string, []>("op_315_end_0"), val = tensor<int32, [4]>([2, 4096, 1, 256])];
            tensor<bool, [4]> var_315_end_mask_0 = const()[name = tensor<string, []>("op_315_end_mask_0"), val = tensor<bool, [4]>([true, true, true, false])];
            tensor<fp16, [2, 4096, 1, 64]> var_315_cast = slice_by_index(begin = var_315_begin_0, end = var_315_end_0, end_mask = var_315_end_mask_0, x = transpose_31)[name = tensor<string, []>("op_315_cast")];
            tensor<int32, [4]> var_319_begin_0 = const()[name = tensor<string, []>("op_319_begin_0"), val = tensor<int32, [4]>([0, 0, 0, 256])];
            tensor<int32, [4]> var_319_end_0 = const()[name = tensor<string, []>("op_319_end_0"), val = tensor<int32, [4]>([2, 4096, 1, 320])];
            tensor<bool, [4]> var_319_end_mask_0 = const()[name = tensor<string, []>("op_319_end_mask_0"), val = tensor<bool, [4]>([true, true, true, false])];
            tensor<fp16, [2, 4096, 1, 64]> var_319_cast = slice_by_index(begin = var_319_begin_0, end = var_319_end_0, end_mask = var_319_end_mask_0, x = transpose_31)[name = tensor<string, []>("op_319_cast")];
            tensor<int32, [4]> var_321_begin_0 = const()[name = tensor<string, []>("op_321_begin_0"), val = tensor<int32, [4]>([0, 0, 0, 0])];
            tensor<int32, [4]> var_321_end_0 = const()[name = tensor<string, []>("op_321_end_0"), val = tensor<int32, [4]>([2, 64, 1, 4096])];
            tensor<bool, [4]> var_321_end_mask_0 = const()[name = tensor<string, []>("op_321_end_mask_0"), val = tensor<bool, [4]>([true, false, true, true])];
            tensor<fp16, [2, 64, 1, 4096]> var_321_cast = slice_by_index(begin = var_321_begin_0, end = var_321_end_0, end_mask = var_321_end_mask_0, x = v_1_cast)[name = tensor<string, []>("op_321_cast")];
            tensor<int32, [4]> var_325_begin_0 = const()[name = tensor<string, []>("op_325_begin_0"), val = tensor<int32, [4]>([0, 64, 0, 0])];
            tensor<int32, [4]> var_325_end_0 = const()[name = tensor<string, []>("op_325_end_0"), val = tensor<int32, [4]>([2, 128, 1, 4096])];
            tensor<bool, [4]> var_325_end_mask_0 = const()[name = tensor<string, []>("op_325_end_mask_0"), val = tensor<bool, [4]>([true, false, true, true])];
            tensor<fp16, [2, 64, 1, 4096]> var_325_cast = slice_by_index(begin = var_325_begin_0, end = var_325_end_0, end_mask = var_325_end_mask_0, x = v_1_cast)[name = tensor<string, []>("op_325_cast")];
            tensor<int32, [4]> var_329_begin_0 = const()[name = tensor<string, []>("op_329_begin_0"), val = tensor<int32, [4]>([0, 128, 0, 0])];
            tensor<int32, [4]> var_329_end_0 = const()[name = tensor<string, []>("op_329_end_0"), val = tensor<int32, [4]>([2, 192, 1, 4096])];
            tensor<bool, [4]> var_329_end_mask_0 = const()[name = tensor<string, []>("op_329_end_mask_0"), val = tensor<bool, [4]>([true, false, true, true])];
            tensor<fp16, [2, 64, 1, 4096]> var_329_cast = slice_by_index(begin = var_329_begin_0, end = var_329_end_0, end_mask = var_329_end_mask_0, x = v_1_cast)[name = tensor<string, []>("op_329_cast")];
            tensor<int32, [4]> var_333_begin_0 = const()[name = tensor<string, []>("op_333_begin_0"), val = tensor<int32, [4]>([0, 192, 0, 0])];
            tensor<int32, [4]> var_333_end_0 = const()[name = tensor<string, []>("op_333_end_0"), val = tensor<int32, [4]>([2, 256, 1, 4096])];
            tensor<bool, [4]> var_333_end_mask_0 = const()[name = tensor<string, []>("op_333_end_mask_0"), val = tensor<bool, [4]>([true, false, true, true])];
            tensor<fp16, [2, 64, 1, 4096]> var_333_cast = slice_by_index(begin = var_333_begin_0, end = var_333_end_0, end_mask = var_333_end_mask_0, x = v_1_cast)[name = tensor<string, []>("op_333_cast")];
            tensor<int32, [4]> var_337_begin_0 = const()[name = tensor<string, []>("op_337_begin_0"), val = tensor<int32, [4]>([0, 256, 0, 0])];
            tensor<int32, [4]> var_337_end_0 = const()[name = tensor<string, []>("op_337_end_0"), val = tensor<int32, [4]>([2, 320, 1, 4096])];
            tensor<bool, [4]> var_337_end_mask_0 = const()[name = tensor<string, []>("op_337_end_mask_0"), val = tensor<bool, [4]>([true, false, true, true])];
            tensor<fp16, [2, 64, 1, 4096]> var_337_cast = slice_by_index(begin = var_337_begin_0, end = var_337_end_0, end_mask = var_337_end_mask_0, x = v_1_cast)[name = tensor<string, []>("op_337_cast")];
            tensor<string, []> var_341_equation_0 = const()[name = tensor<string, []>("op_341_equation_0"), val = tensor<string, []>("bkhc,bchq->bkhq")];
            tensor<fp16, [2, 4096, 1, 512]> var_341_cast = einsum(equation = var_341_equation_0, values = (var_303_cast, var_259_cast))[name = tensor<string, []>("op_341_cast")];
            tensor<fp16, []> var_342_to_fp16 = const()[name = tensor<string, []>("op_342_to_fp16"), val = tensor<fp16, []>(0x1p-3)];
            tensor<fp16, [2, 4096, 1, 512]> aw_chunk_1_cast = mul(x = var_341_cast, y = var_342_to_fp16)[name = tensor<string, []>("aw_chunk_1_cast")];
            tensor<string, []> var_345_equation_0 = const()[name = tensor<string, []>("op_345_equation_0"), val = tensor<string, []>("bkhc,bchq->bkhq")];
            tensor<fp16, [2, 4096, 1, 512]> var_345_cast = einsum(equation = var_345_equation_0, values = (var_303_cast, var_260_cast))[name = tensor<string, []>("op_345_cast")];
            tensor<fp16, []> var_346_to_fp16 = const()[name = tensor<string, []>("op_346_to_fp16"), val = tensor<fp16, []>(0x1p-3)];
            tensor<fp16, [2, 4096, 1, 512]> aw_chunk_3_cast = mul(x = var_345_cast, y = var_346_to_fp16)[name = tensor<string, []>("aw_chunk_3_cast")];
            tensor<string, []> var_349_equation_0 = const()[name = tensor<string, []>("op_349_equation_0"), val = tensor<string, []>("bkhc,bchq->bkhq")];
            tensor<fp16, [2, 4096, 1, 512]> var_349_cast = einsum(equation = var_349_equation_0, values = (var_303_cast, var_261_cast))[name = tensor<string, []>("op_349_cast")];
            tensor<fp16, []> var_350_to_fp16 = const()[name = tensor<string, []>("op_350_to_fp16"), val = tensor<fp16, []>(0x1p-3)];
            tensor<fp16, [2, 4096, 1, 512]> aw_chunk_5_cast = mul(x = var_349_cast, y = var_350_to_fp16)[name = tensor<string, []>("aw_chunk_5_cast")];
            tensor<string, []> var_353_equation_0 = const()[name = tensor<string, []>("op_353_equation_0"), val = tensor<string, []>("bkhc,bchq->bkhq")];
            tensor<fp16, [2, 4096, 1, 512]> var_353_cast = einsum(equation = var_353_equation_0, values = (var_303_cast, var_262_cast))[name = tensor<string, []>("op_353_cast")];
            tensor<fp16, []> var_354_to_fp16 = const()[name = tensor<string, []>("op_354_to_fp16"), val = tensor<fp16, []>(0x1p-3)];
            tensor<fp16, [2, 4096, 1, 512]> aw_chunk_7_cast = mul(x = var_353_cast, y = var_354_to_fp16)[name = tensor<string, []>("aw_chunk_7_cast")];
            tensor<string, []> var_357_equation_0 = const()[name = tensor<string, []>("op_357_equation_0"), val = tensor<string, []>("bkhc,bchq->bkhq")];
            tensor<fp16, [2, 4096, 1, 512]> var_357_cast = einsum(equation = var_357_equation_0, values = (var_303_cast, var_263_cast))[name = tensor<string, []>("op_357_cast")];
            tensor<fp16, []> var_358_to_fp16 = const()[name = tensor<string, []>("op_358_to_fp16"), val = tensor<fp16, []>(0x1p-3)];
            tensor<fp16, [2, 4096, 1, 512]> aw_chunk_9_cast = mul(x = var_357_cast, y = var_358_to_fp16)[name = tensor<string, []>("aw_chunk_9_cast")];
            tensor<string, []> var_361_equation_0 = const()[name = tensor<string, []>("op_361_equation_0"), val = tensor<string, []>("bkhc,bchq->bkhq")];
            tensor<fp16, [2, 4096, 1, 512]> var_361_cast = einsum(equation = var_361_equation_0, values = (var_303_cast, var_264_cast))[name = tensor<string, []>("op_361_cast")];
            tensor<fp16, []> var_362_to_fp16 = const()[name = tensor<string, []>("op_362_to_fp16"), val = tensor<fp16, []>(0x1p-3)];
            tensor<fp16, [2, 4096, 1, 512]> aw_chunk_11_cast = mul(x = var_361_cast, y = var_362_to_fp16)[name = tensor<string, []>("aw_chunk_11_cast")];
            tensor<string, []> var_365_equation_0 = const()[name = tensor<string, []>("op_365_equation_0"), val = tensor<string, []>("bkhc,bchq->bkhq")];
            tensor<fp16, [2, 4096, 1, 512]> var_365_cast = einsum(equation = var_365_equation_0, values = (var_303_cast, var_265_cast))[name = tensor<string, []>("op_365_cast")];
            tensor<fp16, []> var_366_to_fp16 = const()[name = tensor<string, []>("op_366_to_fp16"), val = tensor<fp16, []>(0x1p-3)];
            tensor<fp16, [2, 4096, 1, 512]> aw_chunk_13_cast = mul(x = var_365_cast, y = var_366_to_fp16)[name = tensor<string, []>("aw_chunk_13_cast")];
            tensor<string, []> var_369_equation_0 = const()[name = tensor<string, []>("op_369_equation_0"), val = tensor<string, []>("bkhc,bchq->bkhq")];
            tensor<fp16, [2, 4096, 1, 512]> var_369_cast = einsum(equation = var_369_equation_0, values = (var_303_cast, var_266_cast))[name = tensor<string, []>("op_369_cast")];
            tensor<fp16, []> var_370_to_fp16 = const()[name = tensor<string, []>("op_370_to_fp16"), val = tensor<fp16, []>(0x1p-3)];
            tensor<fp16, [2, 4096, 1, 512]> aw_chunk_15_cast = mul(x = var_369_cast, y = var_370_to_fp16)[name = tensor<string, []>("aw_chunk_15_cast")];
            tensor<string, []> var_373_equation_0 = const()[name = tensor<string, []>("op_373_equation_0"), val = tensor<string, []>("bkhc,bchq->bkhq")];
            tensor<fp16, [2, 4096, 1, 512]> var_373_cast = einsum(equation = var_373_equation_0, values = (var_307_cast, var_267_cast))[name = tensor<string, []>("op_373_cast")];
            tensor<fp16, []> var_374_to_fp16 = const()[name = tensor<string, []>("op_374_to_fp16"), val = tensor<fp16, []>(0x1p-3)];
            tensor<fp16, [2, 4096, 1, 512]> aw_chunk_17_cast = mul(x = var_373_cast, y = var_374_to_fp16)[name = tensor<string, []>("aw_chunk_17_cast")];
            tensor<string, []> var_377_equation_0 = const()[name = tensor<string, []>("op_377_equation_0"), val = tensor<string, []>("bkhc,bchq->bkhq")];
            tensor<fp16, [2, 4096, 1, 512]> var_377_cast = einsum(equation = var_377_equation_0, values = (var_307_cast, var_268_cast))[name = tensor<string, []>("op_377_cast")];
            tensor<fp16, []> var_378_to_fp16 = const()[name = tensor<string, []>("op_378_to_fp16"), val = tensor<fp16, []>(0x1p-3)];
            tensor<fp16, [2, 4096, 1, 512]> aw_chunk_19_cast = mul(x = var_377_cast, y = var_378_to_fp16)[name = tensor<string, []>("aw_chunk_19_cast")];
            tensor<string, []> var_381_equation_0 = const()[name = tensor<string, []>("op_381_equation_0"), val = tensor<string, []>("bkhc,bchq->bkhq")];
            tensor<fp16, [2, 4096, 1, 512]> var_381_cast = einsum(equation = var_381_equation_0, values = (var_307_cast, var_269_cast))[name = tensor<string, []>("op_381_cast")];
            tensor<fp16, []> var_382_to_fp16 = const()[name = tensor<string, []>("op_382_to_fp16"), val = tensor<fp16, []>(0x1p-3)];
            tensor<fp16, [2, 4096, 1, 512]> aw_chunk_21_cast = mul(x = var_381_cast, y = var_382_to_fp16)[name = tensor<string, []>("aw_chunk_21_cast")];
            tensor<string, []> var_385_equation_0 = const()[name = tensor<string, []>("op_385_equation_0"), val = tensor<string, []>("bkhc,bchq->bkhq")];
            tensor<fp16, [2, 4096, 1, 512]> var_385_cast = einsum(equation = var_385_equation_0, values = (var_307_cast, var_270_cast))[name = tensor<string, []>("op_385_cast")];
            tensor<fp16, []> var_386_to_fp16 = const()[name = tensor<string, []>("op_386_to_fp16"), val = tensor<fp16, []>(0x1p-3)];
            tensor<fp16, [2, 4096, 1, 512]> aw_chunk_23_cast = mul(x = var_385_cast, y = var_386_to_fp16)[name = tensor<string, []>("aw_chunk_23_cast")];
            tensor<string, []> var_389_equation_0 = const()[name = tensor<string, []>("op_389_equation_0"), val = tensor<string, []>("bkhc,bchq->bkhq")];
            tensor<fp16, [2, 4096, 1, 512]> var_389_cast = einsum(equation = var_389_equation_0, values = (var_307_cast, var_271_cast))[name = tensor<string, []>("op_389_cast")];
            tensor<fp16, []> var_390_to_fp16 = const()[name = tensor<string, []>("op_390_to_fp16"), val = tensor<fp16, []>(0x1p-3)];
            tensor<fp16, [2, 4096, 1, 512]> aw_chunk_25_cast = mul(x = var_389_cast, y = var_390_to_fp16)[name = tensor<string, []>("aw_chunk_25_cast")];
            tensor<string, []> var_393_equation_0 = const()[name = tensor<string, []>("op_393_equation_0"), val = tensor<string, []>("bkhc,bchq->bkhq")];
            tensor<fp16, [2, 4096, 1, 512]> var_393_cast = einsum(equation = var_393_equation_0, values = (var_307_cast, var_272_cast))[name = tensor<string, []>("op_393_cast")];
            tensor<fp16, []> var_394_to_fp16 = const()[name = tensor<string, []>("op_394_to_fp16"), val = tensor<fp16, []>(0x1p-3)];
            tensor<fp16, [2, 4096, 1, 512]> aw_chunk_27_cast = mul(x = var_393_cast, y = var_394_to_fp16)[name = tensor<string, []>("aw_chunk_27_cast")];
            tensor<string, []> var_397_equation_0 = const()[name = tensor<string, []>("op_397_equation_0"), val = tensor<string, []>("bkhc,bchq->bkhq")];
            tensor<fp16, [2, 4096, 1, 512]> var_397_cast = einsum(equation = var_397_equation_0, values = (var_307_cast, var_273_cast))[name = tensor<string, []>("op_397_cast")];
            tensor<fp16, []> var_398_to_fp16 = const()[name = tensor<string, []>("op_398_to_fp16"), val = tensor<fp16, []>(0x1p-3)];
            tensor<fp16, [2, 4096, 1, 512]> aw_chunk_29_cast = mul(x = var_397_cast, y = var_398_to_fp16)[name = tensor<string, []>("aw_chunk_29_cast")];
            tensor<string, []> var_401_equation_0 = const()[name = tensor<string, []>("op_401_equation_0"), val = tensor<string, []>("bkhc,bchq->bkhq")];
            tensor<fp16, [2, 4096, 1, 512]> var_401_cast = einsum(equation = var_401_equation_0, values = (var_307_cast, var_274_cast))[name = tensor<string, []>("op_401_cast")];
            tensor<fp16, []> var_402_to_fp16 = const()[name = tensor<string, []>("op_402_to_fp16"), val = tensor<fp16, []>(0x1p-3)];
            tensor<fp16, [2, 4096, 1, 512]> aw_chunk_31_cast = mul(x = var_401_cast, y = var_402_to_fp16)[name = tensor<string, []>("aw_chunk_31_cast")];
            tensor<string, []> var_405_equation_0 = const()[name = tensor<string, []>("op_405_equation_0"), val = tensor<string, []>("bkhc,bchq->bkhq")];
            tensor<fp16, [2, 4096, 1, 512]> var_405_cast = einsum(equation = var_405_equation_0, values = (var_311_cast, var_275_cast))[name = tensor<string, []>("op_405_cast")];
            tensor<fp16, []> var_406_to_fp16 = const()[name = tensor<string, []>("op_406_to_fp16"), val = tensor<fp16, []>(0x1p-3)];
            tensor<fp16, [2, 4096, 1, 512]> aw_chunk_33_cast = mul(x = var_405_cast, y = var_406_to_fp16)[name = tensor<string, []>("aw_chunk_33_cast")];
            tensor<string, []> var_409_equation_0 = const()[name = tensor<string, []>("op_409_equation_0"), val = tensor<string, []>("bkhc,bchq->bkhq")];
            tensor<fp16, [2, 4096, 1, 512]> var_409_cast = einsum(equation = var_409_equation_0, values = (var_311_cast, var_276_cast))[name = tensor<string, []>("op_409_cast")];
            tensor<fp16, []> var_410_to_fp16 = const()[name = tensor<string, []>("op_410_to_fp16"), val = tensor<fp16, []>(0x1p-3)];
            tensor<fp16, [2, 4096, 1, 512]> aw_chunk_35_cast = mul(x = var_409_cast, y = var_410_to_fp16)[name = tensor<string, []>("aw_chunk_35_cast")];
            tensor<string, []> var_413_equation_0 = const()[name = tensor<string, []>("op_413_equation_0"), val = tensor<string, []>("bkhc,bchq->bkhq")];
            tensor<fp16, [2, 4096, 1, 512]> var_413_cast = einsum(equation = var_413_equation_0, values = (var_311_cast, var_277_cast))[name = tensor<string, []>("op_413_cast")];
            tensor<fp16, []> var_414_to_fp16 = const()[name = tensor<string, []>("op_414_to_fp16"), val = tensor<fp16, []>(0x1p-3)];
            tensor<fp16, [2, 4096, 1, 512]> aw_chunk_37_cast = mul(x = var_413_cast, y = var_414_to_fp16)[name = tensor<string, []>("aw_chunk_37_cast")];
            tensor<string, []> var_417_equation_0 = const()[name = tensor<string, []>("op_417_equation_0"), val = tensor<string, []>("bkhc,bchq->bkhq")];
            tensor<fp16, [2, 4096, 1, 512]> var_417_cast = einsum(equation = var_417_equation_0, values = (var_311_cast, var_278_cast))[name = tensor<string, []>("op_417_cast")];
            tensor<fp16, []> var_418_to_fp16 = const()[name = tensor<string, []>("op_418_to_fp16"), val = tensor<fp16, []>(0x1p-3)];
            tensor<fp16, [2, 4096, 1, 512]> aw_chunk_39_cast = mul(x = var_417_cast, y = var_418_to_fp16)[name = tensor<string, []>("aw_chunk_39_cast")];
            tensor<string, []> var_421_equation_0 = const()[name = tensor<string, []>("op_421_equation_0"), val = tensor<string, []>("bkhc,bchq->bkhq")];
            tensor<fp16, [2, 4096, 1, 512]> var_421_cast = einsum(equation = var_421_equation_0, values = (var_311_cast, var_279_cast))[name = tensor<string, []>("op_421_cast")];
            tensor<fp16, []> var_422_to_fp16 = const()[name = tensor<string, []>("op_422_to_fp16"), val = tensor<fp16, []>(0x1p-3)];
            tensor<fp16, [2, 4096, 1, 512]> aw_chunk_41_cast = mul(x = var_421_cast, y = var_422_to_fp16)[name = tensor<string, []>("aw_chunk_41_cast")];
            tensor<string, []> var_425_equation_0 = const()[name = tensor<string, []>("op_425_equation_0"), val = tensor<string, []>("bkhc,bchq->bkhq")];
            tensor<fp16, [2, 4096, 1, 512]> var_425_cast = einsum(equation = var_425_equation_0, values = (var_311_cast, var_280_cast))[name = tensor<string, []>("op_425_cast")];
            tensor<fp16, []> var_426_to_fp16 = const()[name = tensor<string, []>("op_426_to_fp16"), val = tensor<fp16, []>(0x1p-3)];
            tensor<fp16, [2, 4096, 1, 512]> aw_chunk_43_cast = mul(x = var_425_cast, y = var_426_to_fp16)[name = tensor<string, []>("aw_chunk_43_cast")];
            tensor<string, []> var_429_equation_0 = const()[name = tensor<string, []>("op_429_equation_0"), val = tensor<string, []>("bkhc,bchq->bkhq")];
            tensor<fp16, [2, 4096, 1, 512]> var_429_cast = einsum(equation = var_429_equation_0, values = (var_311_cast, var_281_cast))[name = tensor<string, []>("op_429_cast")];
            tensor<fp16, []> var_430_to_fp16 = const()[name = tensor<string, []>("op_430_to_fp16"), val = tensor<fp16, []>(0x1p-3)];
            tensor<fp16, [2, 4096, 1, 512]> aw_chunk_45_cast = mul(x = var_429_cast, y = var_430_to_fp16)[name = tensor<string, []>("aw_chunk_45_cast")];
            tensor<string, []> var_433_equation_0 = const()[name = tensor<string, []>("op_433_equation_0"), val = tensor<string, []>("bkhc,bchq->bkhq")];
            tensor<fp16, [2, 4096, 1, 512]> var_433_cast = einsum(equation = var_433_equation_0, values = (var_311_cast, var_282_cast))[name = tensor<string, []>("op_433_cast")];
            tensor<fp16, []> var_434_to_fp16 = const()[name = tensor<string, []>("op_434_to_fp16"), val = tensor<fp16, []>(0x1p-3)];
            tensor<fp16, [2, 4096, 1, 512]> aw_chunk_47_cast = mul(x = var_433_cast, y = var_434_to_fp16)[name = tensor<string, []>("aw_chunk_47_cast")];
            tensor<string, []> var_437_equation_0 = const()[name = tensor<string, []>("op_437_equation_0"), val = tensor<string, []>("bkhc,bchq->bkhq")];
            tensor<fp16, [2, 4096, 1, 512]> var_437_cast = einsum(equation = var_437_equation_0, values = (var_315_cast, var_283_cast))[name = tensor<string, []>("op_437_cast")];
            tensor<fp16, []> var_438_to_fp16 = const()[name = tensor<string, []>("op_438_to_fp16"), val = tensor<fp16, []>(0x1p-3)];
            tensor<fp16, [2, 4096, 1, 512]> aw_chunk_49_cast = mul(x = var_437_cast, y = var_438_to_fp16)[name = tensor<string, []>("aw_chunk_49_cast")];
            tensor<string, []> var_441_equation_0 = const()[name = tensor<string, []>("op_441_equation_0"), val = tensor<string, []>("bkhc,bchq->bkhq")];
            tensor<fp16, [2, 4096, 1, 512]> var_441_cast = einsum(equation = var_441_equation_0, values = (var_315_cast, var_284_cast))[name = tensor<string, []>("op_441_cast")];
            tensor<fp16, []> var_442_to_fp16 = const()[name = tensor<string, []>("op_442_to_fp16"), val = tensor<fp16, []>(0x1p-3)];
            tensor<fp16, [2, 4096, 1, 512]> aw_chunk_51_cast = mul(x = var_441_cast, y = var_442_to_fp16)[name = tensor<string, []>("aw_chunk_51_cast")];
            tensor<string, []> var_445_equation_0 = const()[name = tensor<string, []>("op_445_equation_0"), val = tensor<string, []>("bkhc,bchq->bkhq")];
            tensor<fp16, [2, 4096, 1, 512]> var_445_cast = einsum(equation = var_445_equation_0, values = (var_315_cast, var_285_cast))[name = tensor<string, []>("op_445_cast")];
            tensor<fp16, []> var_446_to_fp16 = const()[name = tensor<string, []>("op_446_to_fp16"), val = tensor<fp16, []>(0x1p-3)];
            tensor<fp16, [2, 4096, 1, 512]> aw_chunk_53_cast = mul(x = var_445_cast, y = var_446_to_fp16)[name = tensor<string, []>("aw_chunk_53_cast")];
            tensor<string, []> var_449_equation_0 = const()[name = tensor<string, []>("op_449_equation_0"), val = tensor<string, []>("bkhc,bchq->bkhq")];
            tensor<fp16, [2, 4096, 1, 512]> var_449_cast = einsum(equation = var_449_equation_0, values = (var_315_cast, var_286_cast))[name = tensor<string, []>("op_449_cast")];
            tensor<fp16, []> var_450_to_fp16 = const()[name = tensor<string, []>("op_450_to_fp16"), val = tensor<fp16, []>(0x1p-3)];
            tensor<fp16, [2, 4096, 1, 512]> aw_chunk_55_cast = mul(x = var_449_cast, y = var_450_to_fp16)[name = tensor<string, []>("aw_chunk_55_cast")];
            tensor<string, []> var_453_equation_0 = const()[name = tensor<string, []>("op_453_equation_0"), val = tensor<string, []>("bkhc,bchq->bkhq")];
            tensor<fp16, [2, 4096, 1, 512]> var_453_cast = einsum(equation = var_453_equation_0, values = (var_315_cast, var_287_cast))[name = tensor<string, []>("op_453_cast")];
            tensor<fp16, []> var_454_to_fp16 = const()[name = tensor<string, []>("op_454_to_fp16"), val = tensor<fp16, []>(0x1p-3)];
            tensor<fp16, [2, 4096, 1, 512]> aw_chunk_57_cast = mul(x = var_453_cast, y = var_454_to_fp16)[name = tensor<string, []>("aw_chunk_57_cast")];
            tensor<string, []> var_457_equation_0 = const()[name = tensor<string, []>("op_457_equation_0"), val = tensor<string, []>("bkhc,bchq->bkhq")];
            tensor<fp16, [2, 4096, 1, 512]> var_457_cast = einsum(equation = var_457_equation_0, values = (var_315_cast, var_288_cast))[name = tensor<string, []>("op_457_cast")];
            tensor<fp16, []> var_458_to_fp16 = const()[name = tensor<string, []>("op_458_to_fp16"), val = tensor<fp16, []>(0x1p-3)];
            tensor<fp16, [2, 4096, 1, 512]> aw_chunk_59_cast = mul(x = var_457_cast, y = var_458_to_fp16)[name = tensor<string, []>("aw_chunk_59_cast")];
            tensor<string, []> var_461_equation_0 = const()[name = tensor<string, []>("op_461_equation_0"), val = tensor<string, []>("bkhc,bchq->bkhq")];
            tensor<fp16, [2, 4096, 1, 512]> var_461_cast = einsum(equation = var_461_equation_0, values = (var_315_cast, var_289_cast))[name = tensor<string, []>("op_461_cast")];
            tensor<fp16, []> var_462_to_fp16 = const()[name = tensor<string, []>("op_462_to_fp16"), val = tensor<fp16, []>(0x1p-3)];
            tensor<fp16, [2, 4096, 1, 512]> aw_chunk_61_cast = mul(x = var_461_cast, y = var_462_to_fp16)[name = tensor<string, []>("aw_chunk_61_cast")];
            tensor<string, []> var_465_equation_0 = const()[name = tensor<string, []>("op_465_equation_0"), val = tensor<string, []>("bkhc,bchq->bkhq")];
            tensor<fp16, [2, 4096, 1, 512]> var_465_cast = einsum(equation = var_465_equation_0, values = (var_315_cast, var_290_cast))[name = tensor<string, []>("op_465_cast")];
            tensor<fp16, []> var_466_to_fp16 = const()[name = tensor<string, []>("op_466_to_fp16"), val = tensor<fp16, []>(0x1p-3)];
            tensor<fp16, [2, 4096, 1, 512]> aw_chunk_63_cast = mul(x = var_465_cast, y = var_466_to_fp16)[name = tensor<string, []>("aw_chunk_63_cast")];
            tensor<string, []> var_469_equation_0 = const()[name = tensor<string, []>("op_469_equation_0"), val = tensor<string, []>("bkhc,bchq->bkhq")];
            tensor<fp16, [2, 4096, 1, 512]> var_469_cast = einsum(equation = var_469_equation_0, values = (var_319_cast, var_291_cast))[name = tensor<string, []>("op_469_cast")];
            tensor<fp16, []> var_470_to_fp16 = const()[name = tensor<string, []>("op_470_to_fp16"), val = tensor<fp16, []>(0x1p-3)];
            tensor<fp16, [2, 4096, 1, 512]> aw_chunk_65_cast = mul(x = var_469_cast, y = var_470_to_fp16)[name = tensor<string, []>("aw_chunk_65_cast")];
            tensor<string, []> var_473_equation_0 = const()[name = tensor<string, []>("op_473_equation_0"), val = tensor<string, []>("bkhc,bchq->bkhq")];
            tensor<fp16, [2, 4096, 1, 512]> var_473_cast = einsum(equation = var_473_equation_0, values = (var_319_cast, var_292_cast))[name = tensor<string, []>("op_473_cast")];
            tensor<fp16, []> var_474_to_fp16 = const()[name = tensor<string, []>("op_474_to_fp16"), val = tensor<fp16, []>(0x1p-3)];
            tensor<fp16, [2, 4096, 1, 512]> aw_chunk_67_cast = mul(x = var_473_cast, y = var_474_to_fp16)[name = tensor<string, []>("aw_chunk_67_cast")];
            tensor<string, []> var_477_equation_0 = const()[name = tensor<string, []>("op_477_equation_0"), val = tensor<string, []>("bkhc,bchq->bkhq")];
            tensor<fp16, [2, 4096, 1, 512]> var_477_cast = einsum(equation = var_477_equation_0, values = (var_319_cast, var_293_cast))[name = tensor<string, []>("op_477_cast")];
            tensor<fp16, []> var_478_to_fp16 = const()[name = tensor<string, []>("op_478_to_fp16"), val = tensor<fp16, []>(0x1p-3)];
            tensor<fp16, [2, 4096, 1, 512]> aw_chunk_69_cast = mul(x = var_477_cast, y = var_478_to_fp16)[name = tensor<string, []>("aw_chunk_69_cast")];
            tensor<string, []> var_481_equation_0 = const()[name = tensor<string, []>("op_481_equation_0"), val = tensor<string, []>("bkhc,bchq->bkhq")];
            tensor<fp16, [2, 4096, 1, 512]> var_481_cast = einsum(equation = var_481_equation_0, values = (var_319_cast, var_294_cast))[name = tensor<string, []>("op_481_cast")];
            tensor<fp16, []> var_482_to_fp16 = const()[name = tensor<string, []>("op_482_to_fp16"), val = tensor<fp16, []>(0x1p-3)];
            tensor<fp16, [2, 4096, 1, 512]> aw_chunk_71_cast = mul(x = var_481_cast, y = var_482_to_fp16)[name = tensor<string, []>("aw_chunk_71_cast")];
            tensor<string, []> var_485_equation_0 = const()[name = tensor<string, []>("op_485_equation_0"), val = tensor<string, []>("bkhc,bchq->bkhq")];
            tensor<fp16, [2, 4096, 1, 512]> var_485_cast = einsum(equation = var_485_equation_0, values = (var_319_cast, var_295_cast))[name = tensor<string, []>("op_485_cast")];
            tensor<fp16, []> var_486_to_fp16 = const()[name = tensor<string, []>("op_486_to_fp16"), val = tensor<fp16, []>(0x1p-3)];
            tensor<fp16, [2, 4096, 1, 512]> aw_chunk_73_cast = mul(x = var_485_cast, y = var_486_to_fp16)[name = tensor<string, []>("aw_chunk_73_cast")];
            tensor<string, []> var_489_equation_0 = const()[name = tensor<string, []>("op_489_equation_0"), val = tensor<string, []>("bkhc,bchq->bkhq")];
            tensor<fp16, [2, 4096, 1, 512]> var_489_cast = einsum(equation = var_489_equation_0, values = (var_319_cast, var_296_cast))[name = tensor<string, []>("op_489_cast")];
            tensor<fp16, []> var_490_to_fp16 = const()[name = tensor<string, []>("op_490_to_fp16"), val = tensor<fp16, []>(0x1p-3)];
            tensor<fp16, [2, 4096, 1, 512]> aw_chunk_75_cast = mul(x = var_489_cast, y = var_490_to_fp16)[name = tensor<string, []>("aw_chunk_75_cast")];
            tensor<string, []> var_493_equation_0 = const()[name = tensor<string, []>("op_493_equation_0"), val = tensor<string, []>("bkhc,bchq->bkhq")];
            tensor<fp16, [2, 4096, 1, 512]> var_493_cast = einsum(equation = var_493_equation_0, values = (var_319_cast, var_297_cast))[name = tensor<string, []>("op_493_cast")];
            tensor<fp16, []> var_494_to_fp16 = const()[name = tensor<string, []>("op_494_to_fp16"), val = tensor<fp16, []>(0x1p-3)];
            tensor<fp16, [2, 4096, 1, 512]> aw_chunk_77_cast = mul(x = var_493_cast, y = var_494_to_fp16)[name = tensor<string, []>("aw_chunk_77_cast")];
            tensor<string, []> var_497_equation_0 = const()[name = tensor<string, []>("op_497_equation_0"), val = tensor<string, []>("bkhc,bchq->bkhq")];
            tensor<fp16, [2, 4096, 1, 512]> var_497_cast = einsum(equation = var_497_equation_0, values = (var_319_cast, var_298_cast))[name = tensor<string, []>("op_497_cast")];
            tensor<fp16, []> var_498_to_fp16 = const()[name = tensor<string, []>("op_498_to_fp16"), val = tensor<fp16, []>(0x1p-3)];
            tensor<fp16, [2, 4096, 1, 512]> aw_chunk_79_cast = mul(x = var_497_cast, y = var_498_to_fp16)[name = tensor<string, []>("aw_chunk_79_cast")];
            tensor<fp16, [2, 4096, 1, 512]> var_500_cast = softmax(axis = var_120, x = aw_chunk_1_cast)[name = tensor<string, []>("op_500_cast")];
            tensor<fp16, [2, 4096, 1, 512]> var_501_cast = softmax(axis = var_120, x = aw_chunk_3_cast)[name = tensor<string, []>("op_501_cast")];
            tensor<fp16, [2, 4096, 1, 512]> var_502_cast = softmax(axis = var_120, x = aw_chunk_5_cast)[name = tensor<string, []>("op_502_cast")];
            tensor<fp16, [2, 4096, 1, 512]> var_503_cast = softmax(axis = var_120, x = aw_chunk_7_cast)[name = tensor<string, []>("op_503_cast")];
            tensor<fp16, [2, 4096, 1, 512]> var_504_cast = softmax(axis = var_120, x = aw_chunk_9_cast)[name = tensor<string, []>("op_504_cast")];
            tensor<fp16, [2, 4096, 1, 512]> var_505_cast = softmax(axis = var_120, x = aw_chunk_11_cast)[name = tensor<string, []>("op_505_cast")];
            tensor<fp16, [2, 4096, 1, 512]> var_506_cast = softmax(axis = var_120, x = aw_chunk_13_cast)[name = tensor<string, []>("op_506_cast")];
            tensor<fp16, [2, 4096, 1, 512]> var_507_cast = softmax(axis = var_120, x = aw_chunk_15_cast)[name = tensor<string, []>("op_507_cast")];
            tensor<fp16, [2, 4096, 1, 512]> var_508_cast = softmax(axis = var_120, x = aw_chunk_17_cast)[name = tensor<string, []>("op_508_cast")];
            tensor<fp16, [2, 4096, 1, 512]> var_509_cast = softmax(axis = var_120, x = aw_chunk_19_cast)[name = tensor<string, []>("op_509_cast")];
            tensor<fp16, [2, 4096, 1, 512]> var_510_cast = softmax(axis = var_120, x = aw_chunk_21_cast)[name = tensor<string, []>("op_510_cast")];
            tensor<fp16, [2, 4096, 1, 512]> var_511_cast = softmax(axis = var_120, x = aw_chunk_23_cast)[name = tensor<string, []>("op_511_cast")];
            tensor<fp16, [2, 4096, 1, 512]> var_512_cast = softmax(axis = var_120, x = aw_chunk_25_cast)[name = tensor<string, []>("op_512_cast")];
            tensor<fp16, [2, 4096, 1, 512]> var_513_cast = softmax(axis = var_120, x = aw_chunk_27_cast)[name = tensor<string, []>("op_513_cast")];
            tensor<fp16, [2, 4096, 1, 512]> var_514_cast = softmax(axis = var_120, x = aw_chunk_29_cast)[name = tensor<string, []>("op_514_cast")];
            tensor<fp16, [2, 4096, 1, 512]> var_515_cast = softmax(axis = var_120, x = aw_chunk_31_cast)[name = tensor<string, []>("op_515_cast")];
            tensor<fp16, [2, 4096, 1, 512]> var_516_cast = softmax(axis = var_120, x = aw_chunk_33_cast)[name = tensor<string, []>("op_516_cast")];
            tensor<fp16, [2, 4096, 1, 512]> var_517_cast = softmax(axis = var_120, x = aw_chunk_35_cast)[name = tensor<string, []>("op_517_cast")];
            tensor<fp16, [2, 4096, 1, 512]> var_518_cast = softmax(axis = var_120, x = aw_chunk_37_cast)[name = tensor<string, []>("op_518_cast")];
            tensor<fp16, [2, 4096, 1, 512]> var_519_cast = softmax(axis = var_120, x = aw_chunk_39_cast)[name = tensor<string, []>("op_519_cast")];
            tensor<fp16, [2, 4096, 1, 512]> var_520_cast = softmax(axis = var_120, x = aw_chunk_41_cast)[name = tensor<string, []>("op_520_cast")];
            tensor<fp16, [2, 4096, 1, 512]> var_521_cast = softmax(axis = var_120, x = aw_chunk_43_cast)[name = tensor<string, []>("op_521_cast")];
            tensor<fp16, [2, 4096, 1, 512]> var_522_cast = softmax(axis = var_120, x = aw_chunk_45_cast)[name = tensor<string, []>("op_522_cast")];
            tensor<fp16, [2, 4096, 1, 512]> var_523_cast = softmax(axis = var_120, x = aw_chunk_47_cast)[name = tensor<string, []>("op_523_cast")];
            tensor<fp16, [2, 4096, 1, 512]> var_524_cast = softmax(axis = var_120, x = aw_chunk_49_cast)[name = tensor<string, []>("op_524_cast")];
            tensor<fp16, [2, 4096, 1, 512]> var_525_cast = softmax(axis = var_120, x = aw_chunk_51_cast)[name = tensor<string, []>("op_525_cast")];
            tensor<fp16, [2, 4096, 1, 512]> var_526_cast = softmax(axis = var_120, x = aw_chunk_53_cast)[name = tensor<string, []>("op_526_cast")];
            tensor<fp16, [2, 4096, 1, 512]> var_527_cast = softmax(axis = var_120, x = aw_chunk_55_cast)[name = tensor<string, []>("op_527_cast")];
            tensor<fp16, [2, 4096, 1, 512]> var_528_cast = softmax(axis = var_120, x = aw_chunk_57_cast)[name = tensor<string, []>("op_528_cast")];
            tensor<fp16, [2, 4096, 1, 512]> var_529_cast = softmax(axis = var_120, x = aw_chunk_59_cast)[name = tensor<string, []>("op_529_cast")];
            tensor<fp16, [2, 4096, 1, 512]> var_530_cast = softmax(axis = var_120, x = aw_chunk_61_cast)[name = tensor<string, []>("op_530_cast")];
            tensor<fp16, [2, 4096, 1, 512]> var_531_cast = softmax(axis = var_120, x = aw_chunk_63_cast)[name = tensor<string, []>("op_531_cast")];
            tensor<fp16, [2, 4096, 1, 512]> var_532_cast = softmax(axis = var_120, x = aw_chunk_65_cast)[name = tensor<string, []>("op_532_cast")];
            tensor<fp16, [2, 4096, 1, 512]> var_533_cast = softmax(axis = var_120, x = aw_chunk_67_cast)[name = tensor<string, []>("op_533_cast")];
            tensor<fp16, [2, 4096, 1, 512]> var_534_cast = softmax(axis = var_120, x = aw_chunk_69_cast)[name = tensor<string, []>("op_534_cast")];
            tensor<fp16, [2, 4096, 1, 512]> var_535_cast = softmax(axis = var_120, x = aw_chunk_71_cast)[name = tensor<string, []>("op_535_cast")];
            tensor<fp16, [2, 4096, 1, 512]> var_536_cast = softmax(axis = var_120, x = aw_chunk_73_cast)[name = tensor<string, []>("op_536_cast")];
            tensor<fp16, [2, 4096, 1, 512]> var_537_cast = softmax(axis = var_120, x = aw_chunk_75_cast)[name = tensor<string, []>("op_537_cast")];
            tensor<fp16, [2, 4096, 1, 512]> var_538_cast = softmax(axis = var_120, x = aw_chunk_77_cast)[name = tensor<string, []>("op_538_cast")];
            tensor<fp16, [2, 4096, 1, 512]> var_539_cast = softmax(axis = var_120, x = aw_chunk_79_cast)[name = tensor<string, []>("op_539_cast")];
            tensor<string, []> var_541_equation_0 = const()[name = tensor<string, []>("op_541_equation_0"), val = tensor<string, []>("bchk,bkhq->bchq")];
            tensor<fp16, [2, 64, 1, 512]> var_541_cast = einsum(equation = var_541_equation_0, values = (var_321_cast, var_500_cast))[name = tensor<string, []>("op_541_cast")];
            tensor<string, []> var_543_equation_0 = const()[name = tensor<string, []>("op_543_equation_0"), val = tensor<string, []>("bchk,bkhq->bchq")];
            tensor<fp16, [2, 64, 1, 512]> var_543_cast = einsum(equation = var_543_equation_0, values = (var_321_cast, var_501_cast))[name = tensor<string, []>("op_543_cast")];
            tensor<string, []> var_545_equation_0 = const()[name = tensor<string, []>("op_545_equation_0"), val = tensor<string, []>("bchk,bkhq->bchq")];
            tensor<fp16, [2, 64, 1, 512]> var_545_cast = einsum(equation = var_545_equation_0, values = (var_321_cast, var_502_cast))[name = tensor<string, []>("op_545_cast")];
            tensor<string, []> var_547_equation_0 = const()[name = tensor<string, []>("op_547_equation_0"), val = tensor<string, []>("bchk,bkhq->bchq")];
            tensor<fp16, [2, 64, 1, 512]> var_547_cast = einsum(equation = var_547_equation_0, values = (var_321_cast, var_503_cast))[name = tensor<string, []>("op_547_cast")];
            tensor<string, []> var_549_equation_0 = const()[name = tensor<string, []>("op_549_equation_0"), val = tensor<string, []>("bchk,bkhq->bchq")];
            tensor<fp16, [2, 64, 1, 512]> var_549_cast = einsum(equation = var_549_equation_0, values = (var_321_cast, var_504_cast))[name = tensor<string, []>("op_549_cast")];
            tensor<string, []> var_551_equation_0 = const()[name = tensor<string, []>("op_551_equation_0"), val = tensor<string, []>("bchk,bkhq->bchq")];
            tensor<fp16, [2, 64, 1, 512]> var_551_cast = einsum(equation = var_551_equation_0, values = (var_321_cast, var_505_cast))[name = tensor<string, []>("op_551_cast")];
            tensor<string, []> var_553_equation_0 = const()[name = tensor<string, []>("op_553_equation_0"), val = tensor<string, []>("bchk,bkhq->bchq")];
            tensor<fp16, [2, 64, 1, 512]> var_553_cast = einsum(equation = var_553_equation_0, values = (var_321_cast, var_506_cast))[name = tensor<string, []>("op_553_cast")];
            tensor<string, []> var_555_equation_0 = const()[name = tensor<string, []>("op_555_equation_0"), val = tensor<string, []>("bchk,bkhq->bchq")];
            tensor<fp16, [2, 64, 1, 512]> var_555_cast = einsum(equation = var_555_equation_0, values = (var_321_cast, var_507_cast))[name = tensor<string, []>("op_555_cast")];
            tensor<string, []> var_557_equation_0 = const()[name = tensor<string, []>("op_557_equation_0"), val = tensor<string, []>("bchk,bkhq->bchq")];
            tensor<fp16, [2, 64, 1, 512]> var_557_cast = einsum(equation = var_557_equation_0, values = (var_325_cast, var_508_cast))[name = tensor<string, []>("op_557_cast")];
            tensor<string, []> var_559_equation_0 = const()[name = tensor<string, []>("op_559_equation_0"), val = tensor<string, []>("bchk,bkhq->bchq")];
            tensor<fp16, [2, 64, 1, 512]> var_559_cast = einsum(equation = var_559_equation_0, values = (var_325_cast, var_509_cast))[name = tensor<string, []>("op_559_cast")];
            tensor<string, []> var_561_equation_0 = const()[name = tensor<string, []>("op_561_equation_0"), val = tensor<string, []>("bchk,bkhq->bchq")];
            tensor<fp16, [2, 64, 1, 512]> var_561_cast = einsum(equation = var_561_equation_0, values = (var_325_cast, var_510_cast))[name = tensor<string, []>("op_561_cast")];
            tensor<string, []> var_563_equation_0 = const()[name = tensor<string, []>("op_563_equation_0"), val = tensor<string, []>("bchk,bkhq->bchq")];
            tensor<fp16, [2, 64, 1, 512]> var_563_cast = einsum(equation = var_563_equation_0, values = (var_325_cast, var_511_cast))[name = tensor<string, []>("op_563_cast")];
            tensor<string, []> var_565_equation_0 = const()[name = tensor<string, []>("op_565_equation_0"), val = tensor<string, []>("bchk,bkhq->bchq")];
            tensor<fp16, [2, 64, 1, 512]> var_565_cast = einsum(equation = var_565_equation_0, values = (var_325_cast, var_512_cast))[name = tensor<string, []>("op_565_cast")];
            tensor<string, []> var_567_equation_0 = const()[name = tensor<string, []>("op_567_equation_0"), val = tensor<string, []>("bchk,bkhq->bchq")];
            tensor<fp16, [2, 64, 1, 512]> var_567_cast = einsum(equation = var_567_equation_0, values = (var_325_cast, var_513_cast))[name = tensor<string, []>("op_567_cast")];
            tensor<string, []> var_569_equation_0 = const()[name = tensor<string, []>("op_569_equation_0"), val = tensor<string, []>("bchk,bkhq->bchq")];
            tensor<fp16, [2, 64, 1, 512]> var_569_cast = einsum(equation = var_569_equation_0, values = (var_325_cast, var_514_cast))[name = tensor<string, []>("op_569_cast")];
            tensor<string, []> var_571_equation_0 = const()[name = tensor<string, []>("op_571_equation_0"), val = tensor<string, []>("bchk,bkhq->bchq")];
            tensor<fp16, [2, 64, 1, 512]> var_571_cast = einsum(equation = var_571_equation_0, values = (var_325_cast, var_515_cast))[name = tensor<string, []>("op_571_cast")];
            tensor<string, []> var_573_equation_0 = const()[name = tensor<string, []>("op_573_equation_0"), val = tensor<string, []>("bchk,bkhq->bchq")];
            tensor<fp16, [2, 64, 1, 512]> var_573_cast = einsum(equation = var_573_equation_0, values = (var_329_cast, var_516_cast))[name = tensor<string, []>("op_573_cast")];
            tensor<string, []> var_575_equation_0 = const()[name = tensor<string, []>("op_575_equation_0"), val = tensor<string, []>("bchk,bkhq->bchq")];
            tensor<fp16, [2, 64, 1, 512]> var_575_cast = einsum(equation = var_575_equation_0, values = (var_329_cast, var_517_cast))[name = tensor<string, []>("op_575_cast")];
            tensor<string, []> var_577_equation_0 = const()[name = tensor<string, []>("op_577_equation_0"), val = tensor<string, []>("bchk,bkhq->bchq")];
            tensor<fp16, [2, 64, 1, 512]> var_577_cast = einsum(equation = var_577_equation_0, values = (var_329_cast, var_518_cast))[name = tensor<string, []>("op_577_cast")];
            tensor<string, []> var_579_equation_0 = const()[name = tensor<string, []>("op_579_equation_0"), val = tensor<string, []>("bchk,bkhq->bchq")];
            tensor<fp16, [2, 64, 1, 512]> var_579_cast = einsum(equation = var_579_equation_0, values = (var_329_cast, var_519_cast))[name = tensor<string, []>("op_579_cast")];
            tensor<string, []> var_581_equation_0 = const()[name = tensor<string, []>("op_581_equation_0"), val = tensor<string, []>("bchk,bkhq->bchq")];
            tensor<fp16, [2, 64, 1, 512]> var_581_cast = einsum(equation = var_581_equation_0, values = (var_329_cast, var_520_cast))[name = tensor<string, []>("op_581_cast")];
            tensor<string, []> var_583_equation_0 = const()[name = tensor<string, []>("op_583_equation_0"), val = tensor<string, []>("bchk,bkhq->bchq")];
            tensor<fp16, [2, 64, 1, 512]> var_583_cast = einsum(equation = var_583_equation_0, values = (var_329_cast, var_521_cast))[name = tensor<string, []>("op_583_cast")];
            tensor<string, []> var_585_equation_0 = const()[name = tensor<string, []>("op_585_equation_0"), val = tensor<string, []>("bchk,bkhq->bchq")];
            tensor<fp16, [2, 64, 1, 512]> var_585_cast = einsum(equation = var_585_equation_0, values = (var_329_cast, var_522_cast))[name = tensor<string, []>("op_585_cast")];
            tensor<string, []> var_587_equation_0 = const()[name = tensor<string, []>("op_587_equation_0"), val = tensor<string, []>("bchk,bkhq->bchq")];
            tensor<fp16, [2, 64, 1, 512]> var_587_cast = einsum(equation = var_587_equation_0, values = (var_329_cast, var_523_cast))[name = tensor<string, []>("op_587_cast")];
            tensor<string, []> var_589_equation_0 = const()[name = tensor<string, []>("op_589_equation_0"), val = tensor<string, []>("bchk,bkhq->bchq")];
            tensor<fp16, [2, 64, 1, 512]> var_589_cast = einsum(equation = var_589_equation_0, values = (var_333_cast, var_524_cast))[name = tensor<string, []>("op_589_cast")];
            tensor<string, []> var_591_equation_0 = const()[name = tensor<string, []>("op_591_equation_0"), val = tensor<string, []>("bchk,bkhq->bchq")];
            tensor<fp16, [2, 64, 1, 512]> var_591_cast = einsum(equation = var_591_equation_0, values = (var_333_cast, var_525_cast))[name = tensor<string, []>("op_591_cast")];
            tensor<string, []> var_593_equation_0 = const()[name = tensor<string, []>("op_593_equation_0"), val = tensor<string, []>("bchk,bkhq->bchq")];
            tensor<fp16, [2, 64, 1, 512]> var_593_cast = einsum(equation = var_593_equation_0, values = (var_333_cast, var_526_cast))[name = tensor<string, []>("op_593_cast")];
            tensor<string, []> var_595_equation_0 = const()[name = tensor<string, []>("op_595_equation_0"), val = tensor<string, []>("bchk,bkhq->bchq")];
            tensor<fp16, [2, 64, 1, 512]> var_595_cast = einsum(equation = var_595_equation_0, values = (var_333_cast, var_527_cast))[name = tensor<string, []>("op_595_cast")];
            tensor<string, []> var_597_equation_0 = const()[name = tensor<string, []>("op_597_equation_0"), val = tensor<string, []>("bchk,bkhq->bchq")];
            tensor<fp16, [2, 64, 1, 512]> var_597_cast = einsum(equation = var_597_equation_0, values = (var_333_cast, var_528_cast))[name = tensor<string, []>("op_597_cast")];
            tensor<string, []> var_599_equation_0 = const()[name = tensor<string, []>("op_599_equation_0"), val = tensor<string, []>("bchk,bkhq->bchq")];
            tensor<fp16, [2, 64, 1, 512]> var_599_cast = einsum(equation = var_599_equation_0, values = (var_333_cast, var_529_cast))[name = tensor<string, []>("op_599_cast")];
            tensor<string, []> var_601_equation_0 = const()[name = tensor<string, []>("op_601_equation_0"), val = tensor<string, []>("bchk,bkhq->bchq")];
            tensor<fp16, [2, 64, 1, 512]> var_601_cast = einsum(equation = var_601_equation_0, values = (var_333_cast, var_530_cast))[name = tensor<string, []>("op_601_cast")];
            tensor<string, []> var_603_equation_0 = const()[name = tensor<string, []>("op_603_equation_0"), val = tensor<string, []>("bchk,bkhq->bchq")];
            tensor<fp16, [2, 64, 1, 512]> var_603_cast = einsum(equation = var_603_equation_0, values = (var_333_cast, var_531_cast))[name = tensor<string, []>("op_603_cast")];
            tensor<string, []> var_605_equation_0 = const()[name = tensor<string, []>("op_605_equation_0"), val = tensor<string, []>("bchk,bkhq->bchq")];
            tensor<fp16, [2, 64, 1, 512]> var_605_cast = einsum(equation = var_605_equation_0, values = (var_337_cast, var_532_cast))[name = tensor<string, []>("op_605_cast")];
            tensor<string, []> var_607_equation_0 = const()[name = tensor<string, []>("op_607_equation_0"), val = tensor<string, []>("bchk,bkhq->bchq")];
            tensor<fp16, [2, 64, 1, 512]> var_607_cast = einsum(equation = var_607_equation_0, values = (var_337_cast, var_533_cast))[name = tensor<string, []>("op_607_cast")];
            tensor<string, []> var_609_equation_0 = const()[name = tensor<string, []>("op_609_equation_0"), val = tensor<string, []>("bchk,bkhq->bchq")];
            tensor<fp16, [2, 64, 1, 512]> var_609_cast = einsum(equation = var_609_equation_0, values = (var_337_cast, var_534_cast))[name = tensor<string, []>("op_609_cast")];
            tensor<string, []> var_611_equation_0 = const()[name = tensor<string, []>("op_611_equation_0"), val = tensor<string, []>("bchk,bkhq->bchq")];
            tensor<fp16, [2, 64, 1, 512]> var_611_cast = einsum(equation = var_611_equation_0, values = (var_337_cast, var_535_cast))[name = tensor<string, []>("op_611_cast")];
            tensor<string, []> var_613_equation_0 = const()[name = tensor<string, []>("op_613_equation_0"), val = tensor<string, []>("bchk,bkhq->bchq")];
            tensor<fp16, [2, 64, 1, 512]> var_613_cast = einsum(equation = var_613_equation_0, values = (var_337_cast, var_536_cast))[name = tensor<string, []>("op_613_cast")];
            tensor<string, []> var_615_equation_0 = const()[name = tensor<string, []>("op_615_equation_0"), val = tensor<string, []>("bchk,bkhq->bchq")];
            tensor<fp16, [2, 64, 1, 512]> var_615_cast = einsum(equation = var_615_equation_0, values = (var_337_cast, var_537_cast))[name = tensor<string, []>("op_615_cast")];
            tensor<string, []> var_617_equation_0 = const()[name = tensor<string, []>("op_617_equation_0"), val = tensor<string, []>("bchk,bkhq->bchq")];
            tensor<fp16, [2, 64, 1, 512]> var_617_cast = einsum(equation = var_617_equation_0, values = (var_337_cast, var_538_cast))[name = tensor<string, []>("op_617_cast")];
            tensor<string, []> var_619_equation_0 = const()[name = tensor<string, []>("op_619_equation_0"), val = tensor<string, []>("bchk,bkhq->bchq")];
            tensor<fp16, [2, 64, 1, 512]> var_619_cast = einsum(equation = var_619_equation_0, values = (var_337_cast, var_539_cast))[name = tensor<string, []>("op_619_cast")];
            tensor<bool, []> var_621_interleave_0 = const()[name = tensor<string, []>("op_621_interleave_0"), val = tensor<bool, []>(false)];
            tensor<fp16, [2, 64, 1, 4096]> var_621_cast = concat(axis = var_95, interleave = var_621_interleave_0, values = (var_541_cast, var_543_cast, var_545_cast, var_547_cast, var_549_cast, var_551_cast, var_553_cast, var_555_cast))[name = tensor<string, []>("op_621_cast")];
            tensor<bool, []> var_623_interleave_0 = const()[name = tensor<string, []>("op_623_interleave_0"), val = tensor<bool, []>(false)];
            tensor<fp16, [2, 64, 1, 4096]> var_623_cast = concat(axis = var_95, interleave = var_623_interleave_0, values = (var_557_cast, var_559_cast, var_561_cast, var_563_cast, var_565_cast, var_567_cast, var_569_cast, var_571_cast))[name = tensor<string, []>("op_623_cast")];
            tensor<bool, []> var_625_interleave_0 = const()[name = tensor<string, []>("op_625_interleave_0"), val = tensor<bool, []>(false)];
            tensor<fp16, [2, 64, 1, 4096]> var_625_cast = concat(axis = var_95, interleave = var_625_interleave_0, values = (var_573_cast, var_575_cast, var_577_cast, var_579_cast, var_581_cast, var_583_cast, var_585_cast, var_587_cast))[name = tensor<string, []>("op_625_cast")];
            tensor<bool, []> var_627_interleave_0 = const()[name = tensor<string, []>("op_627_interleave_0"), val = tensor<bool, []>(false)];
            tensor<fp16, [2, 64, 1, 4096]> var_627_cast = concat(axis = var_95, interleave = var_627_interleave_0, values = (var_589_cast, var_591_cast, var_593_cast, var_595_cast, var_597_cast, var_599_cast, var_601_cast, var_603_cast))[name = tensor<string, []>("op_627_cast")];
            tensor<bool, []> var_629_interleave_0 = const()[name = tensor<string, []>("op_629_interleave_0"), val = tensor<bool, []>(false)];
            tensor<fp16, [2, 64, 1, 4096]> var_629_cast = concat(axis = var_95, interleave = var_629_interleave_0, values = (var_605_cast, var_607_cast, var_609_cast, var_611_cast, var_613_cast, var_615_cast, var_617_cast, var_619_cast))[name = tensor<string, []>("op_629_cast")];
            tensor<bool, []> input_25_interleave_0 = const()[name = tensor<string, []>("input_25_interleave_0"), val = tensor<bool, []>(false)];
            tensor<fp16, [2, 320, 1, 4096]> input_25_cast = concat(axis = var_120, interleave = input_25_interleave_0, values = (var_621_cast, var_623_cast, var_625_cast, var_627_cast, var_629_cast))[name = tensor<string, []>("input_25_cast")];
            tensor<int32, [2]> var_635 = const()[name = tensor<string, []>("op_635"), val = tensor<int32, [2]>([1, 1])];
            tensor<int32, [2]> var_637 = const()[name = tensor<string, []>("op_637"), val = tensor<int32, [2]>([1, 1])];
            tensor<string, []> var_639_pad_type_0 = const()[name = tensor<string, []>("op_639_pad_type_0"), val = tensor<string, []>("custom")];
            tensor<int32, [4]> var_639_pad_0 = const()[name = tensor<string, []>("op_639_pad_0"), val = tensor<int32, [4]>([0, 0, 0, 0])];
            tensor<fp16, [320, 320, 1, 1]> down_blocks_0_attentions_0_transformer_blocks_0_attn1_to_out_0_weight_to_fp16_palettized = constexpr_lut_to_dense()[indices = tensor<uint8, [76800]>(BLOBFILE(path = tensor<string, []>("@model_path/weights/weight.bin"), offset = tensor<uint64, []>(3560256))), lut = tensor<fp16, [64]>(BLOBFILE(path = tensor<string, []>("@model_path/weights/weight.bin"), offset = tensor<uint64, []>(3637120))), name = tensor<string, []>("down_blocks_0_attentions_0_transformer_blocks_0_attn1_to_out_0_weight_to_fp16_palettized"), shape = tensor<uint32, [4]>([320, 320, 1, 1])];
            tensor<fp16, [320]> down_blocks_0_attentions_0_transformer_blocks_0_attn1_to_out_0_bias_to_fp16 = const()[name = tensor<string, []>("down_blocks_0_attentions_0_transformer_blocks_0_attn1_to_out_0_bias_to_fp16"), val = tensor<fp16, [320]>(BLOBFILE(path = tensor<string, []>("@model_path/weights/weight.bin"), offset = tensor<uint64, []>(3637312)))];
            tensor<fp16, [2, 320, 1, 4096]> var_639_cast = conv(bias = down_blocks_0_attentions_0_transformer_blocks_0_attn1_to_out_0_bias_to_fp16, dilations = var_637, groups = var_120, pad = var_639_pad_0, pad_type = var_639_pad_type_0, strides = var_635, weight = down_blocks_0_attentions_0_transformer_blocks_0_attn1_to_out_0_weight_to_fp16_palettized, x = input_25_cast)[name = tensor<string, []>("op_639_cast")];
            tensor<fp16, [2, 320, 1, 4096]> inputs_3_cast = add(x = var_639_cast, y = inputs_1_cast)[name = tensor<string, []>("inputs_3_cast")];
            tensor<int32, [1]> var_643 = const()[name = tensor<string, []>("op_643"), val = tensor<int32, [1]>([1])];
            tensor<fp16, [2, 1, 1, 4096]> channels_mean_3_cast = reduce_mean(axes = var_643, keep_dims = var_115, x = inputs_3_cast)[name = tensor<string, []>("channels_mean_3_cast")];
            tensor<fp16, [2, 320, 1, 4096]> zero_mean_3_cast = sub(x = inputs_3_cast, y = channels_mean_3_cast)[name = tensor<string, []>("zero_mean_3_cast")];
            tensor<fp16, [2, 320, 1, 4096]> zero_mean_sq_3_cast = mul(x = zero_mean_3_cast, y = zero_mean_3_cast)[name = tensor<string, []>("zero_mean_sq_3_cast")];
            tensor<int32, [1]> var_647 = const()[name = tensor<string, []>("op_647"), val = tensor<int32, [1]>([1])];
            tensor<fp16, [2, 1, 1, 4096]> var_648_cast = reduce_mean(axes = var_647, keep_dims = var_115, x = zero_mean_sq_3_cast)[name = tensor<string, []>("op_648_cast")];
            tensor<fp16, []> var_649_to_fp16 = const()[name = tensor<string, []>("op_649_to_fp16"), val = tensor<fp16, []>(0x1.5p-17)];
            tensor<fp16, [2, 1, 1, 4096]> var_650_cast = add(x = var_648_cast, y = var_649_to_fp16)[name = tensor<string, []>("op_650_cast")];
            tensor<fp16, []> denom_3_epsilon_0_to_fp16 = const()[name = tensor<string, []>("denom_3_epsilon_0_to_fp16"), val = tensor<fp16, []>(0x1p-24)];
            tensor<fp16, [2, 1, 1, 4096]> denom_3_cast = rsqrt(epsilon = denom_3_epsilon_0_to_fp16, x = var_650_cast)[name = tensor<string, []>("denom_3_cast")];
            tensor<fp16, [2, 320, 1, 4096]> out_3_cast = mul(x = zero_mean_3_cast, y = denom_3_cast)[name = tensor<string, []>("out_3_cast")];
            tensor<fp16, [1, 320, 1, 1]> var_654_to_fp16 = const()[name = tensor<string, []>("op_654_to_fp16"), val = tensor<fp16, [1, 320, 1, 1]>(BLOBFILE(path = tensor<string, []>("@model_path/weights/weight.bin"), offset = tensor<uint64, []>(3638016)))];
            tensor<fp16, [2, 320, 1, 4096]> var_655_cast = add(x = out_3_cast, y = var_654_to_fp16)[name = tensor<string, []>("op_655_cast")];
            tensor<fp16, [1, 320, 1, 1]> var_657_to_fp16 = const()[name = tensor<string, []>("op_657_to_fp16"), val = tensor<fp16, [1, 320, 1, 1]>(BLOBFILE(path = tensor<string, []>("@model_path/weights/weight.bin"), offset = tensor<uint64, []>(3638720)))];
            tensor<fp16, [2, 320, 1, 4096]> hidden_states_11_cast = mul(x = var_655_cast, y = var_657_to_fp16)[name = tensor<string, []>("hidden_states_11_cast")];
            tensor<int32, [2]> var_664 = const()[name = tensor<string, []>("op_664"), val = tensor<int32, [2]>([1, 1])];
            tensor<int32, [2]> var_666 = const()[name = tensor<string, []>("op_666"), val = tensor<int32, [2]>([1, 1])];
            tensor<string, []> q_3_pad_type_0 = const()[name = tensor<string, []>("q_3_pad_type_0"), val = tensor<string, []>("custom")];
            tensor<int32, [4]> q_3_pad_0 = const()[name = tensor<string, []>("q_3_pad_0"), val = tensor<int32, [4]>([0, 0, 0, 0])];
            tensor<fp16, [320, 320, 1, 1]> down_blocks_0_attentions_0_transformer_blocks_0_attn2_to_q_weight_to_fp16_palettized = constexpr_lut_to_dense()[indices = tensor<uint8, [76800]>(BLOBFILE(path = tensor<string, []>("@model_path/weights/weight.bin"), offset = tensor<uint64, []>(3639424))), lut = tensor<fp16, [64]>(BLOBFILE(path = tensor<string, []>("@model_path/weights/weight.bin"), offset = tensor<uint64, []>(3716288))), name = tensor<string, []>("down_blocks_0_attentions_0_transformer_blocks_0_attn2_to_q_weight_to_fp16_palettized"), shape = tensor<uint32, [4]>([320, 320, 1, 1])];
            tensor<fp16, [2, 320, 1, 4096]> q_3_cast = conv(dilations = var_666, groups = var_120, pad = q_3_pad_0, pad_type = q_3_pad_type_0, strides = var_664, weight = down_blocks_0_attentions_0_transformer_blocks_0_attn2_to_q_weight_to_fp16_palettized, x = hidden_states_11_cast)[name = tensor<string, []>("q_3_cast")];
            tensor<int32, [2]> var_670 = const()[name = tensor<string, []>("op_670"), val = tensor<int32, [2]>([1, 1])];
            tensor<int32, [2]> var_672 = const()[name = tensor<string, []>("op_672"), val = tensor<int32, [2]>([1, 1])];
            tensor<string, []> k_5_pad_type_0 = const()[name = tensor<string, []>("k_5_pad_type_0"), val = tensor<string, []>("custom")];
            tensor<int32, [4]> k_5_pad_0 = const()[name = tensor<string, []>("k_5_pad_0"), val = tensor<int32, [4]>([0, 0, 0, 0])];
            tensor<fp16, [320, 1024, 1, 1]> down_blocks_0_attentions_0_transformer_blocks_0_attn2_to_k_weight_to_fp16_palettized = constexpr_lut_to_dense()[indices = tensor<uint8, [245760]>(BLOBFILE(path = tensor<string, []>("@model_path/weights/weight.bin"), offset = tensor<uint64, []>(3716480))), lut = tensor<fp16, [64]>(BLOBFILE(path = tensor<string, []>("@model_path/weights/weight.bin"), offset = tensor<uint64, []>(3962304))), name = tensor<string, []>("down_blocks_0_attentions_0_transformer_blocks_0_attn2_to_k_weight_to_fp16_palettized"), shape = tensor<uint32, [4]>([320, 1024, 1, 1])];
            tensor<fp16, [2, 320, 1, 77]> k_5_cast = conv(dilations = var_672, groups = var_120, pad = k_5_pad_0, pad_type = k_5_pad_type_0, strides = var_670, weight = down_blocks_0_attentions_0_transformer_blocks_0_attn2_to_k_weight_to_fp16_palettized, x = encoder_hidden_states)[name = tensor<string, []>("k_5_cast")];
            tensor<int32, [2]> var_676 = const()[name = tensor<string, []>("op_676"), val = tensor<int32, [2]>([1, 1])];
            tensor<int32, [2]> var_678 = const()[name = tensor<string, []>("op_678"), val = tensor<int32, [2]>([1, 1])];
            tensor<string, []> v_3_pad_type_0 = const()[name = tensor<string, []>("v_3_pad_type_0"), val = tensor<string, []>("custom")];
            tensor<int32, [4]> v_3_pad_0 = const()[name = tensor<string, []>("v_3_pad_0"), val = tensor<int32, [4]>([0, 0, 0, 0])];
            tensor<fp16, [320, 1024, 1, 1]> down_blocks_0_attentions_0_transformer_blocks_0_attn2_to_v_weight_to_fp16_palettized = constexpr_lut_to_dense()[indices = tensor<uint8, [245760]>(BLOBFILE(path = tensor<string, []>("@model_path/weights/weight.bin"), offset = tensor<uint64, []>(3962496))), lut = tensor<fp16, [64]>(BLOBFILE(path = tensor<string, []>("@model_path/weights/weight.bin"), offset = tensor<uint64, []>(4208320))), name = tensor<string, []>("down_blocks_0_attentions_0_transformer_blocks_0_attn2_to_v_weight_to_fp16_palettized"), shape = tensor<uint32, [4]>([320, 1024, 1, 1])];
            tensor<fp16, [2, 320, 1, 77]> v_3_cast = conv(dilations = var_678, groups = var_120, pad = v_3_pad_0, pad_type = v_3_pad_type_0, strides = var_676, weight = down_blocks_0_attentions_0_transformer_blocks_0_attn2_to_v_weight_to_fp16_palettized, x = encoder_hidden_states)[name = tensor<string, []>("v_3_cast")];
            tensor<int32, [4]> var_682_begin_0 = const()[name = tensor<string, []>("op_682_begin_0"), val = tensor<int32, [4]>([0, 0, 0, 0])];
            tensor<int32, [4]> var_682_end_0 = const()[name = tensor<string, []>("op_682_end_0"), val = tensor<int32, [4]>([2, 64, 1, 4096])];
            tensor<bool, [4]> var_682_end_mask_0 = const()[name = tensor<string, []>("op_682_end_mask_0"), val = tensor<bool, [4]>([true, false, true, true])];
            tensor<fp16, [2, 64, 1, 4096]> var_682_cast = slice_by_index(begin = var_682_begin_0, end = var_682_end_0, end_mask = var_682_end_mask_0, x = q_3_cast)[name = tensor<string, []>("op_682_cast")];
            tensor<int32, [4]> var_686_begin_0 = const()[name = tensor<string, []>("op_686_begin_0"), val = tensor<int32, [4]>([0, 64, 0, 0])];
            tensor<int32, [4]> var_686_end_0 = const()[name = tensor<string, []>("op_686_end_0"), val = tensor<int32, [4]>([2, 128, 1, 4096])];
            tensor<bool, [4]> var_686_end_mask_0 = const()[name = tensor<string, []>("op_686_end_mask_0"), val = tensor<bool, [4]>([true, false, true, true])];
            tensor<fp16, [2, 64, 1, 4096]> var_686_cast = slice_by_index(begin = var_686_begin_0, end = var_686_end_0, end_mask = var_686_end_mask_0, x = q_3_cast)[name = tensor<string, []>("op_686_cast")];
            tensor<int32, [4]> var_690_begin_0 = const()[name = tensor<string, []>("op_690_begin_0"), val = tensor<int32, [4]>([0, 128, 0, 0])];
            tensor<int32, [4]> var_690_end_0 = const()[name = tensor<string, []>("op_690_end_0"), val = tensor<int32, [4]>([2, 192, 1, 4096])];
            tensor<bool, [4]> var_690_end_mask_0 = const()[name = tensor<string, []>("op_690_end_mask_0"), val = tensor<bool, [4]>([true, false, true, true])];
            tensor<fp16, [2, 64, 1, 4096]> var_690_cast = slice_by_index(begin = var_690_begin_0, end = var_690_end_0, end_mask = var_690_end_mask_0, x = q_3_cast)[name = tensor<string, []>("op_690_cast")];
            tensor<int32, [4]> var_694_begin_0 = const()[name = tensor<string, []>("op_694_begin_0"), val = tensor<int32, [4]>([0, 192, 0, 0])];
            tensor<int32, [4]> var_694_end_0 = const()[name = tensor<string, []>("op_694_end_0"), val = tensor<int32, [4]>([2, 256, 1, 4096])];
            tensor<bool, [4]> var_694_end_mask_0 = const()[name = tensor<string, []>("op_694_end_mask_0"), val = tensor<bool, [4]>([true, false, true, true])];
            tensor<fp16, [2, 64, 1, 4096]> var_694_cast = slice_by_index(begin = var_694_begin_0, end = var_694_end_0, end_mask = var_694_end_mask_0, x = q_3_cast)[name = tensor<string, []>("op_694_cast")];
            tensor<int32, [4]> var_698_begin_0 = const()[name = tensor<string, []>("op_698_begin_0"), val = tensor<int32, [4]>([0, 256, 0, 0])];
            tensor<int32, [4]> var_698_end_0 = const()[name = tensor<string, []>("op_698_end_0"), val = tensor<int32, [4]>([2, 320, 1, 4096])];
            tensor<bool, [4]> var_698_end_mask_0 = const()[name = tensor<string, []>("op_698_end_mask_0"), val = tensor<bool, [4]>([true, false, true, true])];
            tensor<fp16, [2, 64, 1, 4096]> var_698_cast = slice_by_index(begin = var_698_begin_0, end = var_698_end_0, end_mask = var_698_end_mask_0, x = q_3_cast)[name = tensor<string, []>("op_698_cast")];
            tensor<int32, [4]> var_701_begin_0 = const()[name = tensor<string, []>("op_701_begin_0"), val = tensor<int32, [4]>([0, 0, 0, 0])];
            tensor<int32, [4]> var_701_end_0 = const()[name = tensor<string, []>("op_701_end_0"), val = tensor<int32, [4]>([2, 64, 1, 512])];
            tensor<bool, [4]> var_701_end_mask_0 = const()[name = tensor<string, []>("op_701_end_mask_0"), val = tensor<bool, [4]>([true, true, true, false])];
            tensor<fp16, [2, 64, 1, 512]> var_701_cast = slice_by_index(begin = var_701_begin_0, end = var_701_end_0, end_mask = var_701_end_mask_0, x = var_682_cast)[name = tensor<string, []>("op_701_cast")];
            tensor<int32, [4]> var_702_begin_0 = const()[name = tensor<string, []>("op_702_begin_0"), val = tensor<int32, [4]>([0, 0, 0, 512])];
            tensor<int32, [4]> var_702_end_0 = const()[name = tensor<string, []>("op_702_end_0"), val = tensor<int32, [4]>([2, 64, 1, 1024])];
            tensor<bool, [4]> var_702_end_mask_0 = const()[name = tensor<string, []>("op_702_end_mask_0"), val = tensor<bool, [4]>([true, true, true, false])];
            tensor<fp16, [2, 64, 1, 512]> var_702_cast = slice_by_index(begin = var_702_begin_0, end = var_702_end_0, end_mask = var_702_end_mask_0, x = var_682_cast)[name = tensor<string, []>("op_702_cast")];
            tensor<int32, [4]> var_703_begin_0 = const()[name = tensor<string, []>("op_703_begin_0"), val = tensor<int32, [4]>([0, 0, 0, 1024])];
            tensor<int32, [4]> var_703_end_0 = const()[name = tensor<string, []>("op_703_end_0"), val = tensor<int32, [4]>([2, 64, 1, 1536])];
            tensor<bool, [4]> var_703_end_mask_0 = const()[name = tensor<string, []>("op_703_end_mask_0"), val = tensor<bool, [4]>([true, true, true, false])];
            tensor<fp16, [2, 64, 1, 512]> var_703_cast = slice_by_index(begin = var_703_begin_0, end = var_703_end_0, end_mask = var_703_end_mask_0, x = var_682_cast)[name = tensor<string, []>("op_703_cast")];
            tensor<int32, [4]> var_704_begin_0 = const()[name = tensor<string, []>("op_704_begin_0"), val = tensor<int32, [4]>([0, 0, 0, 1536])];
            tensor<int32, [4]> var_704_end_0 = const()[name = tensor<string, []>("op_704_end_0"), val = tensor<int32, [4]>([2, 64, 1, 2048])];
            tensor<bool, [4]> var_704_end_mask_0 = const()[name = tensor<string, []>("op_704_end_mask_0"), val = tensor<bool, [4]>([true, true, true, false])];
            tensor<fp16, [2, 64, 1, 512]> var_704_cast = slice_by_index(begin = var_704_begin_0, end = var_704_end_0, end_mask = var_704_end_mask_0, x = var_682_cast)[name = tensor<string, []>("op_704_cast")];
            tensor<int32, [4]> var_705_begin_0 = const()[name = tensor<string, []>("op_705_begin_0"), val = tensor<int32, [4]>([0, 0, 0, 2048])];
            tensor<int32, [4]> var_705_end_0 = const()[name = tensor<string, []>("op_705_end_0"), val = tensor<int32, [4]>([2, 64, 1, 2560])];
            tensor<bool, [4]> var_705_end_mask_0 = const()[name = tensor<string, []>("op_705_end_mask_0"), val = tensor<bool, [4]>([true, true, true, false])];
            tensor<fp16, [2, 64, 1, 512]> var_705_cast = slice_by_index(begin = var_705_begin_0, end = var_705_end_0, end_mask = var_705_end_mask_0, x = var_682_cast)[name = tensor<string, []>("op_705_cast")];
            tensor<int32, [4]> var_706_begin_0 = const()[name = tensor<string, []>("op_706_begin_0"), val = tensor<int32, [4]>([0, 0, 0, 2560])];
            tensor<int32, [4]> var_706_end_0 = const()[name = tensor<string, []>("op_706_end_0"), val = tensor<int32, [4]>([2, 64, 1, 3072])];
            tensor<bool, [4]> var_706_end_mask_0 = const()[name = tensor<string, []>("op_706_end_mask_0"), val = tensor<bool, [4]>([true, true, true, false])];
            tensor<fp16, [2, 64, 1, 512]> var_706_cast = slice_by_index(begin = var_706_begin_0, end = var_706_end_0, end_mask = var_706_end_mask_0, x = var_682_cast)[name = tensor<string, []>("op_706_cast")];
            tensor<int32, [4]> var_707_begin_0 = const()[name = tensor<string, []>("op_707_begin_0"), val = tensor<int32, [4]>([0, 0, 0, 3072])];
            tensor<int32, [4]> var_707_end_0 = const()[name = tensor<string, []>("op_707_end_0"), val = tensor<int32, [4]>([2, 64, 1, 3584])];
            tensor<bool, [4]> var_707_end_mask_0 = const()[name = tensor<string, []>("op_707_end_mask_0"), val = tensor<bool, [4]>([true, true, true, false])];
            tensor<fp16, [2, 64, 1, 512]> var_707_cast = slice_by_index(begin = var_707_begin_0, end = var_707_end_0, end_mask = var_707_end_mask_0, x = var_682_cast)[name = tensor<string, []>("op_707_cast")];
            tensor<int32, [4]> var_708_begin_0 = const()[name = tensor<string, []>("op_708_begin_0"), val = tensor<int32, [4]>([0, 0, 0, 3584])];
            tensor<int32, [4]> var_708_end_0 = const()[name = tensor<string, []>("op_708_end_0"), val = tensor<int32, [4]>([2, 64, 1, 4096])];
            tensor<bool, [4]> var_708_end_mask_0 = const()[name = tensor<string, []>("op_708_end_mask_0"), val = tensor<bool, [4]>([true, true, true, false])];
            tensor<fp16, [2, 64, 1, 512]> var_708_cast = slice_by_index(begin = var_708_begin_0, end = var_708_end_0, end_mask = var_708_end_mask_0, x = var_682_cast)[name = tensor<string, []>("op_708_cast")];
            tensor<int32, [4]> var_709_begin_0 = const()[name = tensor<string, []>("op_709_begin_0"), val = tensor<int32, [4]>([0, 0, 0, 0])];
            tensor<int32, [4]> var_709_end_0 = const()[name = tensor<string, []>("op_709_end_0"), val = tensor<int32, [4]>([2, 64, 1, 512])];
            tensor<bool, [4]> var_709_end_mask_0 = const()[name = tensor<string, []>("op_709_end_mask_0"), val = tensor<bool, [4]>([true, true, true, false])];
            tensor<fp16, [2, 64, 1, 512]> var_709_cast = slice_by_index(begin = var_709_begin_0, end = var_709_end_0, end_mask = var_709_end_mask_0, x = var_686_cast)[name = tensor<string, []>("op_709_cast")];
            tensor<int32, [4]> var_710_begin_0 = const()[name = tensor<string, []>("op_710_begin_0"), val = tensor<int32, [4]>([0, 0, 0, 512])];
            tensor<int32, [4]> var_710_end_0 = const()[name = tensor<string, []>("op_710_end_0"), val = tensor<int32, [4]>([2, 64, 1, 1024])];
            tensor<bool, [4]> var_710_end_mask_0 = const()[name = tensor<string, []>("op_710_end_mask_0"), val = tensor<bool, [4]>([true, true, true, false])];
            tensor<fp16, [2, 64, 1, 512]> var_710_cast = slice_by_index(begin = var_710_begin_0, end = var_710_end_0, end_mask = var_710_end_mask_0, x = var_686_cast)[name = tensor<string, []>("op_710_cast")];
            tensor<int32, [4]> var_711_begin_0 = const()[name = tensor<string, []>("op_711_begin_0"), val = tensor<int32, [4]>([0, 0, 0, 1024])];
            tensor<int32, [4]> var_711_end_0 = const()[name = tensor<string, []>("op_711_end_0"), val = tensor<int32, [4]>([2, 64, 1, 1536])];
            tensor<bool, [4]> var_711_end_mask_0 = const()[name = tensor<string, []>("op_711_end_mask_0"), val = tensor<bool, [4]>([true, true, true, false])];
            tensor<fp16, [2, 64, 1, 512]> var_711_cast = slice_by_index(begin = var_711_begin_0, end = var_711_end_0, end_mask = var_711_end_mask_0, x = var_686_cast)[name = tensor<string, []>("op_711_cast")];
            tensor<int32, [4]> var_712_begin_0 = const()[name = tensor<string, []>("op_712_begin_0"), val = tensor<int32, [4]>([0, 0, 0, 1536])];
            tensor<int32, [4]> var_712_end_0 = const()[name = tensor<string, []>("op_712_end_0"), val = tensor<int32, [4]>([2, 64, 1, 2048])];
            tensor<bool, [4]> var_712_end_mask_0 = const()[name = tensor<string, []>("op_712_end_mask_0"), val = tensor<bool, [4]>([true, true, true, false])];
            tensor<fp16, [2, 64, 1, 512]> var_712_cast = slice_by_index(begin = var_712_begin_0, end = var_712_end_0, end_mask = var_712_end_mask_0, x = var_686_cast)[name = tensor<string, []>("op_712_cast")];
            tensor<int32, [4]> var_713_begin_0 = const()[name = tensor<string, []>("op_713_begin_0"), val = tensor<int32, [4]>([0, 0, 0, 2048])];
            tensor<int32, [4]> var_713_end_0 = const()[name = tensor<string, []>("op_713_end_0"), val = tensor<int32, [4]>([2, 64, 1, 2560])];
            tensor<bool, [4]> var_713_end_mask_0 = const()[name = tensor<string, []>("op_713_end_mask_0"), val = tensor<bool, [4]>([true, true, true, false])];
            tensor<fp16, [2, 64, 1, 512]> var_713_cast = slice_by_index(begin = var_713_begin_0, end = var_713_end_0, end_mask = var_713_end_mask_0, x = var_686_cast)[name = tensor<string, []>("op_713_cast")];
            tensor<int32, [4]> var_714_begin_0 = const()[name = tensor<string, []>("op_714_begin_0"), val = tensor<int32, [4]>([0, 0, 0, 2560])];
            tensor<int32, [4]> var_714_end_0 = const()[name = tensor<string, []>("op_714_end_0"), val = tensor<int32, [4]>([2, 64, 1, 3072])];
            tensor<bool, [4]> var_714_end_mask_0 = const()[name = tensor<string, []>("op_714_end_mask_0"), val = tensor<bool, [4]>([true, true, true, false])];
            tensor<fp16, [2, 64, 1, 512]> var_714_cast = slice_by_index(begin = var_714_begin_0, end = var_714_end_0, end_mask = var_714_end_mask_0, x = var_686_cast)[name = tensor<string, []>("op_714_cast")];
            tensor<int32, [4]> var_715_begin_0 = const()[name = tensor<string, []>("op_715_begin_0"), val = tensor<int32, [4]>([0, 0, 0, 3072])];
            tensor<int32, [4]> var_715_end_0 = const()[name = tensor<string, []>("op_715_end_0"), val = tensor<int32, [4]>([2, 64, 1, 3584])];
            tensor<bool, [4]> var_715_end_mask_0 = const()[name = tensor<string, []>("op_715_end_mask_0"), val = tensor<bool, [4]>([true, true, true, false])];
            tensor<fp16, [2, 64, 1, 512]> var_715_cast = slice_by_index(begin = var_715_begin_0, end = var_715_end_0, end_mask = var_715_end_mask_0, x = var_686_cast)[name = tensor<string, []>("op_715_cast")];
            tensor<int32, [4]> var_716_begin_0 = const()[name = tensor<string, []>("op_716_begin_0"), val = tensor<int32, [4]>([0, 0, 0, 3584])];
            tensor<int32, [4]> var_716_end_0 = const()[name = tensor<string, []>("op_716_end_0"), val = tensor<int32, [4]>([2, 64, 1, 4096])];
            tensor<bool, [4]> var_716_end_mask_0 = const()[name = tensor<string, []>("op_716_end_mask_0"), val = tensor<bool, [4]>([true, true, true, false])];
            tensor<fp16, [2, 64, 1, 512]> var_716_cast = slice_by_index(begin = var_716_begin_0, end = var_716_end_0, end_mask = var_716_end_mask_0, x = var_686_cast)[name = tensor<string, []>("op_716_cast")];
            tensor<int32, [4]> var_717_begin_0 = const()[name = tensor<string, []>("op_717_begin_0"), val = tensor<int32, [4]>([0, 0, 0, 0])];
            tensor<int32, [4]> var_717_end_0 = const()[name = tensor<string, []>("op_717_end_0"), val = tensor<int32, [4]>([2, 64, 1, 512])];
            tensor<bool, [4]> var_717_end_mask_0 = const()[name = tensor<string, []>("op_717_end_mask_0"), val = tensor<bool, [4]>([true, true, true, false])];
            tensor<fp16, [2, 64, 1, 512]> var_717_cast = slice_by_index(begin = var_717_begin_0, end = var_717_end_0, end_mask = var_717_end_mask_0, x = var_690_cast)[name = tensor<string, []>("op_717_cast")];
            tensor<int32, [4]> var_718_begin_0 = const()[name = tensor<string, []>("op_718_begin_0"), val = tensor<int32, [4]>([0, 0, 0, 512])];
            tensor<int32, [4]> var_718_end_0 = const()[name = tensor<string, []>("op_718_end_0"), val = tensor<int32, [4]>([2, 64, 1, 1024])];
            tensor<bool, [4]> var_718_end_mask_0 = const()[name = tensor<string, []>("op_718_end_mask_0"), val = tensor<bool, [4]>([true, true, true, false])];
            tensor<fp16, [2, 64, 1, 512]> var_718_cast = slice_by_index(begin = var_718_begin_0, end = var_718_end_0, end_mask = var_718_end_mask_0, x = var_690_cast)[name = tensor<string, []>("op_718_cast")];
            tensor<int32, [4]> var_719_begin_0 = const()[name = tensor<string, []>("op_719_begin_0"), val = tensor<int32, [4]>([0, 0, 0, 1024])];
            tensor<int32, [4]> var_719_end_0 = const()[name = tensor<string, []>("op_719_end_0"), val = tensor<int32, [4]>([2, 64, 1, 1536])];
            tensor<bool, [4]> var_719_end_mask_0 = const()[name = tensor<string, []>("op_719_end_mask_0"), val = tensor<bool, [4]>([true, true, true, false])];
            tensor<fp16, [2, 64, 1, 512]> var_719_cast = slice_by_index(begin = var_719_begin_0, end = var_719_end_0, end_mask = var_719_end_mask_0, x = var_690_cast)[name = tensor<string, []>("op_719_cast")];
            tensor<int32, [4]> var_720_begin_0 = const()[name = tensor<string, []>("op_720_begin_0"), val = tensor<int32, [4]>([0, 0, 0, 1536])];
            tensor<int32, [4]> var_720_end_0 = const()[name = tensor<string, []>("op_720_end_0"), val = tensor<int32, [4]>([2, 64, 1, 2048])];
            tensor<bool, [4]> var_720_end_mask_0 = const()[name = tensor<string, []>("op_720_end_mask_0"), val = tensor<bool, [4]>([true, true, true, false])];
            tensor<fp16, [2, 64, 1, 512]> var_720_cast = slice_by_index(begin = var_720_begin_0, end = var_720_end_0, end_mask = var_720_end_mask_0, x = var_690_cast)[name = tensor<string, []>("op_720_cast")];
            tensor<int32, [4]> var_721_begin_0 = const()[name = tensor<string, []>("op_721_begin_0"), val = tensor<int32, [4]>([0, 0, 0, 2048])];
            tensor<int32, [4]> var_721_end_0 = const()[name = tensor<string, []>("op_721_end_0"), val = tensor<int32, [4]>([2, 64, 1, 2560])];
            tensor<bool, [4]> var_721_end_mask_0 = const()[name = tensor<string, []>("op_721_end_mask_0"), val = tensor<bool, [4]>([true, true, true, false])];
            tensor<fp16, [2, 64, 1, 512]> var_721_cast = slice_by_index(begin = var_721_begin_0, end = var_721_end_0, end_mask = var_721_end_mask_0, x = var_690_cast)[name = tensor<string, []>("op_721_cast")];
            tensor<int32, [4]> var_722_begin_0 = const()[name = tensor<string, []>("op_722_begin_0"), val = tensor<int32, [4]>([0, 0, 0, 2560])];
            tensor<int32, [4]> var_722_end_0 = const()[name = tensor<string, []>("op_722_end_0"), val = tensor<int32, [4]>([2, 64, 1, 3072])];
            tensor<bool, [4]> var_722_end_mask_0 = const()[name = tensor<string, []>("op_722_end_mask_0"), val = tensor<bool, [4]>([true, true, true, false])];
            tensor<fp16, [2, 64, 1, 512]> var_722_cast = slice_by_index(begin = var_722_begin_0, end = var_722_end_0, end_mask = var_722_end_mask_0, x = var_690_cast)[name = tensor<string, []>("op_722_cast")];
            tensor<int32, [4]> var_723_begin_0 = const()[name = tensor<string, []>("op_723_begin_0"), val = tensor<int32, [4]>([0, 0, 0, 3072])];
            tensor<int32, [4]> var_723_end_0 = const()[name = tensor<string, []>("op_723_end_0"), val = tensor<int32, [4]>([2, 64, 1, 3584])];
            tensor<bool, [4]> var_723_end_mask_0 = const()[name = tensor<string, []>("op_723_end_mask_0"), val = tensor<bool, [4]>([true, true, true, false])];
            tensor<fp16, [2, 64, 1, 512]> var_723_cast = slice_by_index(begin = var_723_begin_0, end = var_723_end_0, end_mask = var_723_end_mask_0, x = var_690_cast)[name = tensor<string, []>("op_723_cast")];
            tensor<int32, [4]> var_724_begin_0 = const()[name = tensor<string, []>("op_724_begin_0"), val = tensor<int32, [4]>([0, 0, 0, 3584])];
            tensor<int32, [4]> var_724_end_0 = const()[name = tensor<string, []>("op_724_end_0"), val = tensor<int32, [4]>([2, 64, 1, 4096])];
            tensor<bool, [4]> var_724_end_mask_0 = const()[name = tensor<string, []>("op_724_end_mask_0"), val = tensor<bool, [4]>([true, true, true, false])];
            tensor<fp16, [2, 64, 1, 512]> var_724_cast = slice_by_index(begin = var_724_begin_0, end = var_724_end_0, end_mask = var_724_end_mask_0, x = var_690_cast)[name = tensor<string, []>("op_724_cast")];
            tensor<int32, [4]> var_725_begin_0 = const()[name = tensor<string, []>("op_725_begin_0"), val = tensor<int32, [4]>([0, 0, 0, 0])];
            tensor<int32, [4]> var_725_end_0 = const()[name = tensor<string, []>("op_725_end_0"), val = tensor<int32, [4]>([2, 64, 1, 512])];
            tensor<bool, [4]> var_725_end_mask_0 = const()[name = tensor<string, []>("op_725_end_mask_0"), val = tensor<bool, [4]>([true, true, true, false])];
            tensor<fp16, [2, 64, 1, 512]> var_725_cast = slice_by_index(begin = var_725_begin_0, end = var_725_end_0, end_mask = var_725_end_mask_0, x = var_694_cast)[name = tensor<string, []>("op_725_cast")];
            tensor<int32, [4]> var_726_begin_0 = const()[name = tensor<string, []>("op_726_begin_0"), val = tensor<int32, [4]>([0, 0, 0, 512])];
            tensor<int32, [4]> var_726_end_0 = const()[name = tensor<string, []>("op_726_end_0"), val = tensor<int32, [4]>([2, 64, 1, 1024])];
            tensor<bool, [4]> var_726_end_mask_0 = const()[name = tensor<string, []>("op_726_end_mask_0"), val = tensor<bool, [4]>([true, true, true, false])];
            tensor<fp16, [2, 64, 1, 512]> var_726_cast = slice_by_index(begin = var_726_begin_0, end = var_726_end_0, end_mask = var_726_end_mask_0, x = var_694_cast)[name = tensor<string, []>("op_726_cast")];
            tensor<int32, [4]> var_727_begin_0 = const()[name = tensor<string, []>("op_727_begin_0"), val = tensor<int32, [4]>([0, 0, 0, 1024])];
            tensor<int32, [4]> var_727_end_0 = const()[name = tensor<string, []>("op_727_end_0"), val = tensor<int32, [4]>([2, 64, 1, 1536])];
            tensor<bool, [4]> var_727_end_mask_0 = const()[name = tensor<string, []>("op_727_end_mask_0"), val = tensor<bool, [4]>([true, true, true, false])];
            tensor<fp16, [2, 64, 1, 512]> var_727_cast = slice_by_index(begin = var_727_begin_0, end = var_727_end_0, end_mask = var_727_end_mask_0, x = var_694_cast)[name = tensor<string, []>("op_727_cast")];
            tensor<int32, [4]> var_728_begin_0 = const()[name = tensor<string, []>("op_728_begin_0"), val = tensor<int32, [4]>([0, 0, 0, 1536])];
            tensor<int32, [4]> var_728_end_0 = const()[name = tensor<string, []>("op_728_end_0"), val = tensor<int32, [4]>([2, 64, 1, 2048])];
            tensor<bool, [4]> var_728_end_mask_0 = const()[name = tensor<string, []>("op_728_end_mask_0"), val = tensor<bool, [4]>([true, true, true, false])];
            tensor<fp16, [2, 64, 1, 512]> var_728_cast = slice_by_index(begin = var_728_begin_0, end = var_728_end_0, end_mask = var_728_end_mask_0, x = var_694_cast)[name = tensor<string, []>("op_728_cast")];
            tensor<int32, [4]> var_729_begin_0 = const()[name = tensor<string, []>("op_729_begin_0"), val = tensor<int32, [4]>([0, 0, 0, 2048])];
            tensor<int32, [4]> var_729_end_0 = const()[name = tensor<string, []>("op_729_end_0"), val = tensor<int32, [4]>([2, 64, 1, 2560])];
            tensor<bool, [4]> var_729_end_mask_0 = const()[name = tensor<string, []>("op_729_end_mask_0"), val = tensor<bool, [4]>([true, true, true, false])];
            tensor<fp16, [2, 64, 1, 512]> var_729_cast = slice_by_index(begin = var_729_begin_0, end = var_729_end_0, end_mask = var_729_end_mask_0, x = var_694_cast)[name = tensor<string, []>("op_729_cast")];
            tensor<int32, [4]> var_730_begin_0 = const()[name = tensor<string, []>("op_730_begin_0"), val = tensor<int32, [4]>([0, 0, 0, 2560])];
            tensor<int32, [4]> var_730_end_0 = const()[name = tensor<string, []>("op_730_end_0"), val = tensor<int32, [4]>([2, 64, 1, 3072])];
            tensor<bool, [4]> var_730_end_mask_0 = const()[name = tensor<string, []>("op_730_end_mask_0"), val = tensor<bool, [4]>([true, true, true, false])];
            tensor<fp16, [2, 64, 1, 512]> var_730_cast = slice_by_index(begin = var_730_begin_0, end = var_730_end_0, end_mask = var_730_end_mask_0, x = var_694_cast)[name = tensor<string, []>("op_730_cast")];
            tensor<int32, [4]> var_731_begin_0 = const()[name = tensor<string, []>("op_731_begin_0"), val = tensor<int32, [4]>([0, 0, 0, 3072])];
…
            tensor<string, []> var_15608_equation_0 = const()[name = tensor<string, []>("op_15608_equation_0"), val = tensor<string, []>("bkhc,bchq->bkhq")];
            tensor<fp16, [2, 77, 1, 512]> var_15608_cast = einsum(equation = var_15608_equation_0, values = (var_15482_cast, var_15451_cast))[name = tensor<string, []>("op_15608_cast")];
            tensor<fp16, []> var_15609_to_fp16 = const()[name = tensor<string, []>("op_15609_to_fp16"), val = tensor<fp16, []>(0x1p-3)];
            tensor<fp16, [2, 77, 1, 512]> aw_chunk_1171_cast = mul(x = var_15608_cast, y = var_15609_to_fp16)[name = tensor<string, []>("aw_chunk_1171_cast")];
            tensor<string, []> var_15612_equation_0 = const()[name = tensor<string, []>("op_15612_equation_0"), val = tensor<string, []>("bkhc,bchq->bkhq")];
            tensor<fp16, [2, 77, 1, 512]> var_15612_cast = einsum(equation = var_15612_equation_0, values = (var_15482_cast, var_15452_cast))[name = tensor<string, []>("op_15612_cast")];
            tensor<fp16, []> var_15613_to_fp16 = const()[name = tensor<string, []>("op_15613_to_fp16"), val = tensor<fp16, []>(0x1p-3)];
            tensor<fp16, [2, 77, 1, 512]> aw_chunk_1173_cast = mul(x = var_15612_cast, y = var_15613_to_fp16)[name = tensor<string, []>("aw_chunk_1173_cast")];
            tensor<string, []> var_15616_equation_0 = const()[name = tensor<string, []>("op_15616_equation_0"), val = tensor<string, []>("bkhc,bchq->bkhq")];
            tensor<fp16, [2, 77, 1, 512]> var_15616_cast = einsum(equation = var_15616_equation_0, values = (var_15482_cast, var_15453_cast))[name = tensor<string, []>("op_15616_cast")];
            tensor<fp16, []> var_15617_to_fp16 = const()[name = tensor<string, []>("op_15617_to_fp16"), val = tensor<fp16, []>(0x1p-3)];
            tensor<fp16, [2, 77, 1, 512]> aw_chunk_1175_cast = mul(x = var_15616_cast, y = var_15617_to_fp16)[name = tensor<string, []>("aw_chunk_1175_cast")];
            tensor<string, []> var_15620_equation_0 = const()[name = tensor<string, []>("op_15620_equation_0"), val = tensor<string, []>("bkhc,bchq->bkhq")];
            tensor<fp16, [2, 77, 1, 512]> var_15620_cast = einsum(equation = var_15620_equation_0, values = (var_15482_cast, var_15454_cast))[name = tensor<string, []>("op_15620_cast")];
            tensor<fp16, []> var_15621_to_fp16 = const()[name = tensor<string, []>("op_15621_to_fp16"), val = tensor<fp16, []>(0x1p-3)];
            tensor<fp16, [2, 77, 1, 512]> aw_chunk_1177_cast = mul(x = var_15620_cast, y = var_15621_to_fp16)[name = tensor<string, []>("aw_chunk_1177_cast")];
            tensor<string, []> var_15624_equation_0 = const()[name = tensor<string, []>("op_15624_equation_0"), val = tensor<string, []>("bkhc,bchq->bkhq")];
            tensor<fp16, [2, 77, 1, 512]> var_15624_cast = einsum(equation = var_15624_equation_0, values = (var_15482_cast, var_15455_cast))[name = tensor<string, []>("op_15624_cast")];
            tensor<fp16, []> var_15625_to_fp16 = const()[name = tensor<string, []>("op_15625_to_fp16"), val = tensor<fp16, []>(0x1p-3)];
            tensor<fp16, [2, 77, 1, 512]> aw_chunk_1179_cast = mul(x = var_15624_cast, y = var_15625_to_fp16)[name = tensor<string, []>("aw_chunk_1179_cast")];
            tensor<string, []> var_15628_equation_0 = const()[name = tensor<string, []>("op_15628_equation_0"), val = tensor<string, []>("bkhc,bchq->bkhq")];
            tensor<fp16, [2, 77, 1, 512]> var_15628_cast = einsum(equation = var_15628_equation_0, values = (var_15482_cast, var_15456_cast))[name = tensor<string, []>("op_15628_cast")];
            tensor<fp16, []> var_15629_to_fp16 = const()[name = tensor<string, []>("op_15629_to_fp16"), val = tensor<fp16, []>(0x1p-3)];
            tensor<fp16, [2, 77, 1, 512]> aw_chunk_1181_cast = mul(x = var_15628_cast, y = var_15629_to_fp16)[name = tensor<string, []>("aw_chunk_1181_cast")];
            tensor<string, []> var_15632_equation_0 = const()[name = tensor<string, []>("op_15632_equation_0"), val = tensor<string, []>("bkhc,bchq->bkhq")];
            tensor<fp16, [2, 77, 1, 512]> var_15632_cast = einsum(equation = var_15632_equation_0, values = (var_15482_cast, var_15457_cast))[name = tensor<string, []>("op_15632_cast")];
            tensor<fp16, []> var_15633_to_fp16 = const()[name = tensor<string, []>("op_15633_to_fp16"), val = tensor<fp16, []>(0x1p-3)];
            tensor<fp16, [2, 77, 1, 512]> aw_chunk_1183_cast = mul(x = var_15632_cast, y = var_15633_to_fp16)[name = tensor<string, []>("aw_chunk_1183_cast")];
            tensor<string, []> var_15636_equation_0 = const()[name = tensor<string, []>("op_15636_equation_0"), val = tensor<string, []>("bkhc,bchq->bkhq")];
            tensor<fp16, [2, 77, 1, 512]> var_15636_cast = einsum(equation = var_15636_equation_0, values = (var_15486_cast, var_15458_cast))[name = tensor<string, []>("op_15636_cast")];
            tensor<fp16, []> var_15637_to_fp16 = const()[name = tensor<string, []>("op_15637_to_fp16"), val = tensor<fp16, []>(0x1p-3)];
            tensor<fp16, [2, 77, 1, 512]> aw_chunk_1185_cast = mul(x = var_15636_cast, y = var_15637_to_fp16)[name = tensor<string, []>("aw_chunk_1185_cast")];
            tensor<string, []> var_15640_equation_0 = const()[name = tensor<string, []>("op_15640_equation_0"), val = tensor<string, []>("bkhc,bchq->bkhq")];
            tensor<fp16, [2, 77, 1, 512]> var_15640_cast = einsum(equation = var_15640_equation_0, values = (var_15486_cast, var_15459_cast))[name = tensor<string, []>("op_15640_cast")];
            tensor<fp16, []> var_15641_to_fp16 = const()[name = tensor<string, []>("op_15641_to_fp16"), val = tensor<fp16, []>(0x1p-3)];
            tensor<fp16, [2, 77, 1, 512]> aw_chunk_1187_cast = mul(x = var_15640_cast, y = var_15641_to_fp16)[name = tensor<string, []>("aw_chunk_1187_cast")];
            tensor<string, []> var_15644_equation_0 = const()[name = tensor<string, []>("op_15644_equation_0"), val = tensor<string, []>("bkhc,bchq->bkhq")];
            tensor<fp16, [2, 77, 1, 512]> var_15644_cast = einsum(equation = var_15644_equation_0, values = (var_15486_cast, var_15460_cast))[name = tensor<string, []>("op_15644_cast")];
            tensor<fp16, []> var_15645_to_fp16 = const()[name = tensor<string, []>("op_15645_to_fp16"), val = tensor<fp16, []>(0x1p-3)];
            tensor<fp16, [2, 77, 1, 512]> aw_chunk_1189_cast = mul(x = var_15644_cast, y = var_15645_to_fp16)[name = tensor<string, []>("aw_chunk_1189_cast")];
            tensor<string, []> var_15648_equation_0 = const()[name = tensor<string, []>("op_15648_equation_0"), val = tensor<string, []>("bkhc,bchq->bkhq")];
            tensor<fp16, [2, 77, 1, 512]> var_15648_cast = einsum(equation = var_15648_equation_0, values = (var_15486_cast, var_15461_cast))[name = tensor<string, []>("op_15648_cast")];
            tensor<fp16, []> var_15649_to_fp16 = const()[name = tensor<string, []>("op_15649_to_fp16"), val = tensor<fp16, []>(0x1p-3)];
            tensor<fp16, [2, 77, 1, 512]> aw_chunk_1191_cast = mul(x = var_15648_cast, y = var_15649_to_fp16)[name = tensor<string, []>("aw_chunk_1191_cast")];
            tensor<string, []> var_15652_equation_0 = const()[name = tensor<string, []>("op_15652_equation_0"), val = tensor<string, []>("bkhc,bchq->bkhq")];
            tensor<fp16, [2, 77, 1, 512]> var_15652_cast = einsum(equation = var_15652_equation_0, values = (var_15486_cast, var_15462_cast))[name = tensor<string, []>("op_15652_cast")];
            tensor<fp16, []> var_15653_to_fp16 = const()[name = tensor<string, []>("op_15653_to_fp16"), val = tensor<fp16, []>(0x1p-3)];
            tensor<fp16, [2, 77, 1, 512]> aw_chunk_1193_cast = mul(x = var_15652_cast, y = var_15653_to_fp16)[name = tensor<string, []>("aw_chunk_1193_cast")];
            tensor<string, []> var_15656_equation_0 = const()[name = tensor<string, []>("op_15656_equation_0"), val = tensor<string, []>("bkhc,bchq->bkhq")];
            tensor<fp16, [2, 77, 1, 512]> var_15656_cast = einsum(equation = var_15656_equation_0, values = (var_15486_cast, var_15463_cast))[name = tensor<string, []>("op_15656_cast")];
            tensor<fp16, []> var_15657_to_fp16 = const()[name = tensor<string, []>("op_15657_to_fp16"), val = tensor<fp16, []>(0x1p-3)];
            tensor<fp16, [2, 77, 1, 512]> aw_chunk_1195_cast = mul(x = var_15656_cast, y = var_15657_to_fp16)[name = tensor<string, []>("aw_chunk_1195_cast")];
            tensor<string, []> var_15660_equation_0 = const()[name = tensor<string, []>("op_15660_equation_0"), val = tensor<string, []>("bkhc,bchq->bkhq")];
            tensor<fp16, [2, 77, 1, 512]> var_15660_cast = einsum(equation = var_15660_equation_0, values = (var_15486_cast, var_15464_cast))[name = tensor<string, []>("op_15660_cast")];
            tensor<fp16, []> var_15661_to_fp16 = const()[name = tensor<string, []>("op_15661_to_fp16"), val = tensor<fp16, []>(0x1p-3)];
            tensor<fp16, [2, 77, 1, 512]> aw_chunk_1197_cast = mul(x = var_15660_cast, y = var_15661_to_fp16)[name = tensor<string, []>("aw_chunk_1197_cast")];
            tensor<string, []> var_15664_equation_0 = const()[name = tensor<string, []>("op_15664_equation_0"), val = tensor<string, []>("bkhc,bchq->bkhq")];
            tensor<fp16, [2, 77, 1, 512]> var_15664_cast = einsum(equation = var_15664_equation_0, values = (var_15486_cast, var_15465_cast))[name = tensor<string, []>("op_15664_cast")];
            tensor<fp16, []> var_15665_to_fp16 = const()[name = tensor<string, []>("op_15665_to_fp16"), val = tensor<fp16, []>(0x1p-3)];
            tensor<fp16, [2, 77, 1, 512]> aw_chunk_cast = mul(x = var_15664_cast, y = var_15665_to_fp16)[name = tensor<string, []>("aw_chunk_cast")];
            tensor<fp16, [2, 77, 1, 512]> var_15667_cast = softmax(axis = var_12807, x = aw_chunk_1121_cast)[name = tensor<string, []>("op_15667_cast")];
            tensor<fp16, [2, 77, 1, 512]> var_15668_cast = softmax(axis = var_12807, x = aw_chunk_1123_cast)[name = tensor<string, []>("op_15668_cast")];
            tensor<fp16, [2, 77, 1, 512]> var_15669_cast = softmax(axis = var_12807, x = aw_chunk_1125_cast)[name = tensor<string, []>("op_15669_cast")];
            tensor<fp16, [2, 77, 1, 512]> var_15670_cast = softmax(axis = var_12807, x = aw_chunk_1127_cast)[name = tensor<string, []>("op_15670_cast")];
            tensor<fp16, [2, 77, 1, 512]> var_15671_cast = softmax(axis = var_12807, x = aw_chunk_1129_cast)[name = tensor<string, []>("op_15671_cast")];
            tensor<fp16, [2, 77, 1, 512]> var_15672_cast = softmax(axis = var_12807, x = aw_chunk_1131_cast)[name = tensor<string, []>("op_15672_cast")];
            tensor<fp16, [2, 77, 1, 512]> var_15673_cast = softmax(axis = var_12807, x = aw_chunk_1133_cast)[name = tensor<string, []>("op_15673_cast")];
            tensor<fp16, [2, 77, 1, 512]> var_15674_cast = softmax(axis = var_12807, x = aw_chunk_1135_cast)[name = tensor<string, []>("op_15674_cast")];
            tensor<fp16, [2, 77, 1, 512]> var_15675_cast = softmax(axis = var_12807, x = aw_chunk_1137_cast)[name = tensor<string, []>("op_15675_cast")];
            tensor<fp16, [2, 77, 1, 512]> var_15676_cast = softmax(axis = var_12807, x = aw_chunk_1139_cast)[name = tensor<string, []>("op_15676_cast")];
            tensor<fp16, [2, 77, 1, 512]> var_15677_cast = softmax(axis = var_12807, x = aw_chunk_1141_cast)[name = tensor<string, []>("op_15677_cast")];
            tensor<fp16, [2, 77, 1, 512]> var_15678_cast = softmax(axis = var_12807, x = aw_chunk_1143_cast)[name = tensor<string, []>("op_15678_cast")];
            tensor<fp16, [2, 77, 1, 512]> var_15679_cast = softmax(axis = var_12807, x = aw_chunk_1145_cast)[name = tensor<string, []>("op_15679_cast")];
            tensor<fp16, [2, 77, 1, 512]> var_15680_cast = softmax(axis = var_12807, x = aw_chunk_1147_cast)[name = tensor<string, []>("op_15680_cast")];
            tensor<fp16, [2, 77, 1, 512]> var_15681_cast = softmax(axis = var_12807, x = aw_chunk_1149_cast)[name = tensor<string, []>("op_15681_cast")];
            tensor<fp16, [2, 77, 1, 512]> var_15682_cast = softmax(axis = var_12807, x = aw_chunk_1151_cast)[name = tensor<string, []>("op_15682_cast")];
            tensor<fp16, [2, 77, 1, 512]> var_15683_cast = softmax(axis = var_12807, x = aw_chunk_1153_cast)[name = tensor<string, []>("op_15683_cast")];
            tensor<fp16, [2, 77, 1, 512]> var_15684_cast = softmax(axis = var_12807, x = aw_chunk_1155_cast)[name = tensor<string, []>("op_15684_cast")];
            tensor<fp16, [2, 77, 1, 512]> var_15685_cast = softmax(axis = var_12807, x = aw_chunk_1157_cast)[name = tensor<string, []>("op_15685_cast")];
            tensor<fp16, [2, 77, 1, 512]> var_15686_cast = softmax(axis = var_12807, x = aw_chunk_1159_cast)[name = tensor<string, []>("op_15686_cast")];
            tensor<fp16, [2, 77, 1, 512]> var_15687_cast = softmax(axis = var_12807, x = aw_chunk_1161_cast)[name = tensor<string, []>("op_15687_cast")];
            tensor<fp16, [2, 77, 1, 512]> var_15688_cast = softmax(axis = var_12807, x = aw_chunk_1163_cast)[name = tensor<string, []>("op_15688_cast")];
            tensor<fp16, [2, 77, 1, 512]> var_15689_cast = softmax(axis = var_12807, x = aw_chunk_1165_cast)[name = tensor<string, []>("op_15689_cast")];
            tensor<fp16, [2, 77, 1, 512]> var_15690_cast = softmax(axis = var_12807, x = aw_chunk_1167_cast)[name = tensor<string, []>("op_15690_cast")];
            tensor<fp16, [2, 77, 1, 512]> var_15691_cast = softmax(axis = var_12807, x = aw_chunk_1169_cast)[name = tensor<string, []>("op_15691_cast")];
            tensor<fp16, [2, 77, 1, 512]> var_15692_cast = softmax(axis = var_12807, x = aw_chunk_1171_cast)[name = tensor<string, []>("op_15692_cast")];
            tensor<fp16, [2, 77, 1, 512]> var_15693_cast = softmax(axis = var_12807, x = aw_chunk_1173_cast)[name = tensor<string, []>("op_15693_cast")];
            tensor<fp16, [2, 77, 1, 512]> var_15694_cast = softmax(axis = var_12807, x = aw_chunk_1175_cast)[name = tensor<string, []>("op_15694_cast")];
            tensor<fp16, [2, 77, 1, 512]> var_15695_cast = softmax(axis = var_12807, x = aw_chunk_1177_cast)[name = tensor<string, []>("op_15695_cast")];
            tensor<fp16, [2, 77, 1, 512]> var_15696_cast = softmax(axis = var_12807, x = aw_chunk_1179_cast)[name = tensor<string, []>("op_15696_cast")];
            tensor<fp16, [2, 77, 1, 512]> var_15697_cast = softmax(axis = var_12807, x = aw_chunk_1181_cast)[name = tensor<string, []>("op_15697_cast")];
            tensor<fp16, [2, 77, 1, 512]> var_15698_cast = softmax(axis = var_12807, x = aw_chunk_1183_cast)[name = tensor<string, []>("op_15698_cast")];
            tensor<fp16, [2, 77, 1, 512]> var_15699_cast = softmax(axis = var_12807, x = aw_chunk_1185_cast)[name = tensor<string, []>("op_15699_cast")];
            tensor<fp16, [2, 77, 1, 512]> var_15700_cast = softmax(axis = var_12807, x = aw_chunk_1187_cast)[name = tensor<string, []>("op_15700_cast")];
            tensor<fp16, [2, 77, 1, 512]> var_15701_cast = softmax(axis = var_12807, x = aw_chunk_1189_cast)[name = tensor<string, []>("op_15701_cast")];
            tensor<fp16, [2, 77, 1, 512]> var_15702_cast = softmax(axis = var_12807, x = aw_chunk_1191_cast)[name = tensor<string, []>("op_15702_cast")];
            tensor<fp16, [2, 77, 1, 512]> var_15703_cast = softmax(axis = var_12807, x = aw_chunk_1193_cast)[name = tensor<string, []>("op_15703_cast")];
            tensor<fp16, [2, 77, 1, 512]> var_15704_cast = softmax(axis = var_12807, x = aw_chunk_1195_cast)[name = tensor<string, []>("op_15704_cast")];
            tensor<fp16, [2, 77, 1, 512]> var_15705_cast = softmax(axis = var_12807, x = aw_chunk_1197_cast)[name = tensor<string, []>("op_15705_cast")];
            tensor<fp16, [2, 77, 1, 512]> var_15706_cast = softmax(axis = var_12807, x = aw_chunk_cast)[name = tensor<string, []>("op_15706_cast")];
            tensor<string, []> var_15708_equation_0 = const()[name = tensor<string, []>("op_15708_equation_0"), val = tensor<string, []>("bchk,bkhq->bchq")];
            tensor<fp16, [2, 64, 1, 512]> var_15708_cast = einsum(equation = var_15708_equation_0, values = (var_15488_cast, var_15667_cast))[name = tensor<string, []>("op_15708_cast")];
            tensor<string, []> var_15710_equation_0 = const()[name = tensor<string, []>("op_15710_equation_0"), val = tensor<string, []>("bchk,bkhq->bchq")];
            tensor<fp16, [2, 64, 1, 512]> var_15710_cast = einsum(equation = var_15710_equation_0, values = (var_15488_cast, var_15668_cast))[name = tensor<string, []>("op_15710_cast")];
            tensor<string, []> var_15712_equation_0 = const()[name = tensor<string, []>("op_15712_equation_0"), val = tensor<string, []>("bchk,bkhq->bchq")];
            tensor<fp16, [2, 64, 1, 512]> var_15712_cast = einsum(equation = var_15712_equation_0, values = (var_15488_cast, var_15669_cast))[name = tensor<string, []>("op_15712_cast")];
            tensor<string, []> var_15714_equation_0 = const()[name = tensor<string, []>("op_15714_equation_0"), val = tensor<string, []>("bchk,bkhq->bchq")];
            tensor<fp16, [2, 64, 1, 512]> var_15714_cast = einsum(equation = var_15714_equation_0, values = (var_15488_cast, var_15670_cast))[name = tensor<string, []>("op_15714_cast")];
            tensor<string, []> var_15716_equation_0 = const()[name = tensor<string, []>("op_15716_equation_0"), val = tensor<string, []>("bchk,bkhq->bchq")];
            tensor<fp16, [2, 64, 1, 512]> var_15716_cast = einsum(equation = var_15716_equation_0, values = (var_15488_cast, var_15671_cast))[name = tensor<string, []>("op_15716_cast")];
            tensor<string, []> var_15718_equation_0 = const()[name = tensor<string, []>("op_15718_equation_0"), val = tensor<string, []>("bchk,bkhq->bchq")];
            tensor<fp16, [2, 64, 1, 512]> var_15718_cast = einsum(equation = var_15718_equation_0, values = (var_15488_cast, var_15672_cast))[name = tensor<string, []>("op_15718_cast")];
            tensor<string, []> var_15720_equation_0 = const()[name = tensor<string, []>("op_15720_equation_0"), val = tensor<string, []>("bchk,bkhq->bchq")];
            tensor<fp16, [2, 64, 1, 512]> var_15720_cast = einsum(equation = var_15720_equation_0, values = (var_15488_cast, var_15673_cast))[name = tensor<string, []>("op_15720_cast")];
            tensor<string, []> var_15722_equation_0 = const()[name = tensor<string, []>("op_15722_equation_0"), val = tensor<string, []>("bchk,bkhq->bchq")];
            tensor<fp16, [2, 64, 1, 512]> var_15722_cast = einsum(equation = var_15722_equation_0, values = (var_15488_cast, var_15674_cast))[name = tensor<string, []>("op_15722_cast")];
            tensor<string, []> var_15724_equation_0 = const()[name = tensor<string, []>("op_15724_equation_0"), val = tensor<string, []>("bchk,bkhq->bchq")];
            tensor<fp16, [2, 64, 1, 512]> var_15724_cast = einsum(equation = var_15724_equation_0, values = (var_15492_cast, var_15675_cast))[name = tensor<string, []>("op_15724_cast")];
            tensor<string, []> var_15726_equation_0 = const()[name = tensor<string, []>("op_15726_equation_0"), val = tensor<string, []>("bchk,bkhq->bchq")];
            tensor<fp16, [2, 64, 1, 512]> var_15726_cast = einsum(equation = var_15726_equation_0, values = (var_15492_cast, var_15676_cast))[name = tensor<string, []>("op_15726_cast")];
            tensor<string, []> var_15728_equation_0 = const()[name = tensor<string, []>("op_15728_equation_0"), val = tensor<string, []>("bchk,bkhq->bchq")];
            tensor<fp16, [2, 64, 1, 512]> var_15728_cast = einsum(equation = var_15728_equation_0, values = (var_15492_cast, var_15677_cast))[name = tensor<string, []>("op_15728_cast")];
            tensor<string, []> var_15730_equation_0 = const()[name = tensor<string, []>("op_15730_equation_0"), val = tensor<string, []>("bchk,bkhq->bchq")];
            tensor<fp16, [2, 64, 1, 512]> var_15730_cast = einsum(equation = var_15730_equation_0, values = (var_15492_cast, var_15678_cast))[name = tensor<string, []>("op_15730_cast")];
            tensor<string, []> var_15732_equation_0 = const()[name = tensor<string, []>("op_15732_equation_0"), val = tensor<string, []>("bchk,bkhq->bchq")];
            tensor<fp16, [2, 64, 1, 512]> var_15732_cast = einsum(equation = var_15732_equation_0, values = (var_15492_cast, var_15679_cast))[name = tensor<string, []>("op_15732_cast")];
            tensor<string, []> var_15734_equation_0 = const()[name = tensor<string, []>("op_15734_equation_0"), val = tensor<string, []>("bchk,bkhq->bchq")];
            tensor<fp16, [2, 64, 1, 512]> var_15734_cast = einsum(equation = var_15734_equation_0, values = (var_15492_cast, var_15680_cast))[name = tensor<string, []>("op_15734_cast")];
            tensor<string, []> var_15736_equation_0 = const()[name = tensor<string, []>("op_15736_equation_0"), val = tensor<string, []>("bchk,bkhq->bchq")];
            tensor<fp16, [2, 64, 1, 512]> var_15736_cast = einsum(equation = var_15736_equation_0, values = (var_15492_cast, var_15681_cast))[name = tensor<string, []>("op_15736_cast")];
            tensor<string, []> var_15738_equation_0 = const()[name = tensor<string, []>("op_15738_equation_0"), val = tensor<string, []>("bchk,bkhq->bchq")];
            tensor<fp16, [2, 64, 1, 512]> var_15738_cast = einsum(equation = var_15738_equation_0, values = (var_15492_cast, var_15682_cast))[name = tensor<string, []>("op_15738_cast")];
            tensor<string, []> var_15740_equation_0 = const()[name = tensor<string, []>("op_15740_equation_0"), val = tensor<string, []>("bchk,bkhq->bchq")];
            tensor<fp16, [2, 64, 1, 512]> var_15740_cast = einsum(equation = var_15740_equation_0, values = (var_15496_cast, var_15683_cast))[name = tensor<string, []>("op_15740_cast")];
            tensor<string, []> var_15742_equation_0 = const()[name = tensor<string, []>("op_15742_equation_0"), val = tensor<string, []>("bchk,bkhq->bchq")];
            tensor<fp16, [2, 64, 1, 512]> var_15742_cast = einsum(equation = var_15742_equation_0, values = (var_15496_cast, var_15684_cast))[name = tensor<string, []>("op_15742_cast")];
            tensor<string, []> var_15744_equation_0 = const()[name = tensor<string, []>("op_15744_equation_0"), val = tensor<string, []>("bchk,bkhq->bchq")];
            tensor<fp16, [2, 64, 1, 512]> var_15744_cast = einsum(equation = var_15744_equation_0, values = (var_15496_cast, var_15685_cast))[name = tensor<string, []>("op_15744_cast")];
            tensor<string, []> var_15746_equation_0 = const()[name = tensor<string, []>("op_15746_equation_0"), val = tensor<string, []>("bchk,bkhq->bchq")];
            tensor<fp16, [2, 64, 1, 512]> var_15746_cast = einsum(equation = var_15746_equation_0, values = (var_15496_cast, var_15686_cast))[name = tensor<string, []>("op_15746_cast")];
            tensor<string, []> var_15748_equation_0 = const()[name = tensor<string, []>("op_15748_equation_0"), val = tensor<string, []>("bchk,bkhq->bchq")];
            tensor<fp16, [2, 64, 1, 512]> var_15748_cast = einsum(equation = var_15748_equation_0, values = (var_15496_cast, var_15687_cast))[name = tensor<string, []>("op_15748_cast")];
            tensor<string, []> var_15750_equation_0 = const()[name = tensor<string, []>("op_15750_equation_0"), val = tensor<string, []>("bchk,bkhq->bchq")];
            tensor<fp16, [2, 64, 1, 512]> var_15750_cast = einsum(equation = var_15750_equation_0, values = (var_15496_cast, var_15688_cast))[name = tensor<string, []>("op_15750_cast")];
            tensor<string, []> var_15752_equation_0 = const()[name = tensor<string, []>("op_15752_equation_0"), val = tensor<string, []>("bchk,bkhq->bchq")];
            tensor<fp16, [2, 64, 1, 512]> var_15752_cast = einsum(equation = var_15752_equation_0, values = (var_15496_cast, var_15689_cast))[name = tensor<string, []>("op_15752_cast")];
            tensor<string, []> var_15754_equation_0 = const()[name = tensor<string, []>("op_15754_equation_0"), val = tensor<string, []>("bchk,bkhq->bchq")];
            tensor<fp16, [2, 64, 1, 512]> var_15754_cast = einsum(equation = var_15754_equation_0, values = (var_15496_cast, var_15690_cast))[name = tensor<string, []>("op_15754_cast")];
            tensor<string, []> var_15756_equation_0 = const()[name = tensor<string, []>("op_15756_equation_0"), val = tensor<string, []>("bchk,bkhq->bchq")];
            tensor<fp16, [2, 64, 1, 512]> var_15756_cast = einsum(equation = var_15756_equation_0, values = (var_15500_cast, var_15691_cast))[name = tensor<string, []>("op_15756_cast")];
            tensor<string, []> var_15758_equation_0 = const()[name = tensor<string, []>("op_15758_equation_0"), val = tensor<string, []>("bchk,bkhq->bchq")];
            tensor<fp16, [2, 64, 1, 512]> var_15758_cast = einsum(equation = var_15758_equation_0, values = (var_15500_cast, var_15692_cast))[name = tensor<string, []>("op_15758_cast")];
            tensor<string, []> var_15760_equation_0 = const()[name = tensor<string, []>("op_15760_equation_0"), val = tensor<string, []>("bchk,bkhq->bchq")];
            tensor<fp16, [2, 64, 1, 512]> var_15760_cast = einsum(equation = var_15760_equation_0, values = (var_15500_cast, var_15693_cast))[name = tensor<string, []>("op_15760_cast")];
            tensor<string, []> var_15762_equation_0 = const()[name = tensor<string, []>("op_15762_equation_0"), val = tensor<string, []>("bchk,bkhq->bchq")];
            tensor<fp16, [2, 64, 1, 512]> var_15762_cast = einsum(equation = var_15762_equation_0, values = (var_15500_cast, var_15694_cast))[name = tensor<string, []>("op_15762_cast")];
            tensor<string, []> var_15764_equation_0 = const()[name = tensor<string, []>("op_15764_equation_0"), val = tensor<string, []>("bchk,bkhq->bchq")];
            tensor<fp16, [2, 64, 1, 512]> var_15764_cast = einsum(equation = var_15764_equation_0, values = (var_15500_cast, var_15695_cast))[name = tensor<string, []>("op_15764_cast")];
            tensor<string, []> var_15766_equation_0 = const()[name = tensor<string, []>("op_15766_equation_0"), val = tensor<string, []>("bchk,bkhq->bchq")];
            tensor<fp16, [2, 64, 1, 512]> var_15766_cast = einsum(equation = var_15766_equation_0, values = (var_15500_cast, var_15696_cast))[name = tensor<string, []>("op_15766_cast")];
            tensor<string, []> var_15768_equation_0 = const()[name = tensor<string, []>("op_15768_equation_0"), val = tensor<string, []>("bchk,bkhq->bchq")];
            tensor<fp16, [2, 64, 1, 512]> var_15768_cast = einsum(equation = var_15768_equation_0, values = (var_15500_cast, var_15697_cast))[name = tensor<string, []>("op_15768_cast")];
            tensor<string, []> var_15770_equation_0 = const()[name = tensor<string, []>("op_15770_equation_0"), val = tensor<string, []>("bchk,bkhq->bchq")];
            tensor<fp16, [2, 64, 1, 512]> var_15770_cast = einsum(equation = var_15770_equation_0, values = (var_15500_cast, var_15698_cast))[name = tensor<string, []>("op_15770_cast")];
            tensor<string, []> var_15772_equation_0 = const()[name = tensor<string, []>("op_15772_equation_0"), val = tensor<string, []>("bchk,bkhq->bchq")];
            tensor<fp16, [2, 64, 1, 512]> var_15772_cast = einsum(equation = var_15772_equation_0, values = (var_15504_cast, var_15699_cast))[name = tensor<string, []>("op_15772_cast")];
            tensor<string, []> var_15774_equation_0 = const()[name = tensor<string, []>("op_15774_equation_0"), val = tensor<string, []>("bchk,bkhq->bchq")];
            tensor<fp16, [2, 64, 1, 512]> var_15774_cast = einsum(equation = var_15774_equation_0, values = (var_15504_cast, var_15700_cast))[name = tensor<string, []>("op_15774_cast")];
            tensor<string, []> var_15776_equation_0 = const()[name = tensor<string, []>("op_15776_equation_0"), val = tensor<string, []>("bchk,bkhq->bchq")];
            tensor<fp16, [2, 64, 1, 512]> var_15776_cast = einsum(equation = var_15776_equation_0, values = (var_15504_cast, var_15701_cast))[name = tensor<string, []>("op_15776_cast")];
            tensor<string, []> var_15778_equation_0 = const()[name = tensor<string, []>("op_15778_equation_0"), val = tensor<string, []>("bchk,bkhq->bchq")];
            tensor<fp16, [2, 64, 1, 512]> var_15778_cast = einsum(equation = var_15778_equation_0, values = (var_15504_cast, var_15702_cast))[name = tensor<string, []>("op_15778_cast")];
            tensor<string, []> var_15780_equation_0 = const()[name = tensor<string, []>("op_15780_equation_0"), val = tensor<string, []>("bchk,bkhq->bchq")];
            tensor<fp16, [2, 64, 1, 512]> var_15780_cast = einsum(equation = var_15780_equation_0, values = (var_15504_cast, var_15703_cast))[name = tensor<string, []>("op_15780_cast")];
            tensor<string, []> var_15782_equation_0 = const()[name = tensor<string, []>("op_15782_equation_0"), val = tensor<string, []>("bchk,bkhq->bchq")];
            tensor<fp16, [2, 64, 1, 512]> var_15782_cast = einsum(equation = var_15782_equation_0, values = (var_15504_cast, var_15704_cast))[name = tensor<string, []>("op_15782_cast")];
            tensor<string, []> var_15784_equation_0 = const()[name = tensor<string, []>("op_15784_equation_0"), val = tensor<string, []>("bchk,bkhq->bchq")];
            tensor<fp16, [2, 64, 1, 512]> var_15784_cast = einsum(equation = var_15784_equation_0, values = (var_15504_cast, var_15705_cast))[name = tensor<string, []>("op_15784_cast")];
            tensor<string, []> var_15786_equation_0 = const()[name = tensor<string, []>("op_15786_equation_0"), val = tensor<string, []>("bchk,bkhq->bchq")];
            tensor<fp16, [2, 64, 1, 512]> var_15786_cast = einsum(equation = var_15786_equation_0, values = (var_15504_cast, var_15706_cast))[name = tensor<string, []>("op_15786_cast")];
            tensor<bool, []> var_15788_interleave_0 = const()[name = tensor<string, []>("op_15788_interleave_0"), val = tensor<bool, []>(false)];
            tensor<fp16, [2, 64, 1, 4096]> var_15788_cast = concat(axis = var_12782, interleave = var_15788_interleave_0, values = (var_15708_cast, var_15710_cast, var_15712_cast, var_15714_cast, var_15716_cast, var_15718_cast, var_15720_cast, var_15722_cast))[name = tensor<string, []>("op_15788_cast")];
            tensor<bool, []> var_15790_interleave_0 = const()[name = tensor<string, []>("op_15790_interleave_0"), val = tensor<bool, []>(false)];
            tensor<fp16, [2, 64, 1, 4096]> var_15790_cast = concat(axis = var_12782, interleave = var_15790_interleave_0, values = (var_15724_cast, var_15726_cast, var_15728_cast, var_15730_cast, var_15732_cast, var_15734_cast, var_15736_cast, var_15738_cast))[name = tensor<string, []>("op_15790_cast")];
            tensor<bool, []> var_15792_interleave_0 = const()[name = tensor<string, []>("op_15792_interleave_0"), val = tensor<bool, []>(false)];
            tensor<fp16, [2, 64, 1, 4096]> var_15792_cast = concat(axis = var_12782, interleave = var_15792_interleave_0, values = (var_15740_cast, var_15742_cast, var_15744_cast, var_15746_cast, var_15748_cast, var_15750_cast, var_15752_cast, var_15754_cast))[name = tensor<string, []>("op_15792_cast")];
            tensor<bool, []> var_15794_interleave_0 = const()[name = tensor<string, []>("op_15794_interleave_0"), val = tensor<bool, []>(false)];
            tensor<fp16, [2, 64, 1, 4096]> var_15794_cast = concat(axis = var_12782, interleave = var_15794_interleave_0, values = (var_15756_cast, var_15758_cast, var_15760_cast, var_15762_cast, var_15764_cast, var_15766_cast, var_15768_cast, var_15770_cast))[name = tensor<string, []>("op_15794_cast")];
            tensor<bool, []> var_15796_interleave_0 = const()[name = tensor<string, []>("op_15796_interleave_0"), val = tensor<bool, []>(false)];
            tensor<fp16, [2, 64, 1, 4096]> var_15796_cast = concat(axis = var_12782, interleave = var_15796_interleave_0, values = (var_15772_cast, var_15774_cast, var_15776_cast, var_15778_cast, var_15780_cast, var_15782_cast, var_15784_cast, var_15786_cast))[name = tensor<string, []>("op_15796_cast")];
            tensor<bool, []> input_519_interleave_0 = const()[name = tensor<string, []>("input_519_interleave_0"), val = tensor<bool, []>(false)];
            tensor<fp16, [2, 320, 1, 4096]> input_519_cast = concat(axis = var_12807, interleave = input_519_interleave_0, values = (var_15788_cast, var_15790_cast, var_15792_cast, var_15794_cast, var_15796_cast))[name = tensor<string, []>("input_519_cast")];
            tensor<int32, [2]> var_15802 = const()[name = tensor<string, []>("op_15802"), val = tensor<int32, [2]>([1, 1])];
            tensor<int32, [2]> var_15804 = const()[name = tensor<string, []>("op_15804"), val = tensor<int32, [2]>([1, 1])];
            tensor<string, []> var_15806_pad_type_0 = const()[name = tensor<string, []>("op_15806_pad_type_0"), val = tensor<string, []>("custom")];
            tensor<int32, [4]> var_15806_pad_0 = const()[name = tensor<string, []>("op_15806_pad_0"), val = tensor<int32, [4]>([0, 0, 0, 0])];
            tensor<fp16, [320, 320, 1, 1]> up_blocks_3_attentions_2_transformer_blocks_0_attn2_to_out_0_weight_to_fp16_palettized = constexpr_lut_to_dense()[indices = tensor<uint8, [76800]>(BLOBFILE(path = tensor<string, []>("@model_path/weights/weight.bin"), offset = tensor<uint64, []>(648867712))), lut = tensor<fp16, [64]>(BLOBFILE(path = tensor<string, []>("@model_path/weights/weight.bin"), offset = tensor<uint64, []>(648944576))), name = tensor<string, []>("up_blocks_3_attentions_2_transformer_blocks_0_attn2_to_out_0_weight_to_fp16_palettized"), shape = tensor<uint32, [4]>([320, 320, 1, 1])];
            tensor<fp16, [320]> up_blocks_3_attentions_2_transformer_blocks_0_attn2_to_out_0_bias_to_fp16 = const()[name = tensor<string, []>("up_blocks_3_attentions_2_transformer_blocks_0_attn2_to_out_0_bias_to_fp16"), val = tensor<fp16, [320]>(BLOBFILE(path = tensor<string, []>("@model_path/weights/weight.bin"), offset = tensor<uint64, []>(648944768)))];
            tensor<fp16, [2, 320, 1, 4096]> var_15806_cast = conv(bias = up_blocks_3_attentions_2_transformer_blocks_0_attn2_to_out_0_bias_to_fp16, dilations = var_15804, groups = var_12807, pad = var_15806_pad_0, pad_type = var_15806_pad_type_0, strides = var_15802, weight = up_blocks_3_attentions_2_transformer_blocks_0_attn2_to_out_0_weight_to_fp16_palettized, x = input_519_cast)[name = tensor<string, []>("op_15806_cast")];
            tensor<fp16, [2, 320, 1, 4096]> inputs_cast = add(x = var_15806_cast, y = inputs_93_cast)[name = tensor<string, []>("inputs_cast")];
            tensor<int32, [1]> var_15810 = const()[name = tensor<string, []>("op_15810"), val = tensor<int32, [1]>([1])];
            tensor<fp16, [2, 1, 1, 4096]> channels_mean_cast = reduce_mean(axes = var_15810, keep_dims = var_12802, x = inputs_cast)[name = tensor<string, []>("channels_mean_cast")];
            tensor<fp16, [2, 320, 1, 4096]> zero_mean_cast = sub(x = inputs_cast, y = channels_mean_cast)[name = tensor<string, []>("zero_mean_cast")];
            tensor<fp16, [2, 320, 1, 4096]> zero_mean_sq_cast = mul(x = zero_mean_cast, y = zero_mean_cast)[name = tensor<string, []>("zero_mean_sq_cast")];
            tensor<int32, [1]> var_15814 = const()[name = tensor<string, []>("op_15814"), val = tensor<int32, [1]>([1])];
            tensor<fp16, [2, 1, 1, 4096]> var_15815_cast = reduce_mean(axes = var_15814, keep_dims = var_12802, x = zero_mean_sq_cast)[name = tensor<string, []>("op_15815_cast")];
            tensor<fp16, []> var_15816_to_fp16 = const()[name = tensor<string, []>("op_15816_to_fp16"), val = tensor<fp16, []>(0x1.5p-17)];
            tensor<fp16, [2, 1, 1, 4096]> var_15817_cast = add(x = var_15815_cast, y = var_15816_to_fp16)[name = tensor<string, []>("op_15817_cast")];
            tensor<fp16, []> denom_epsilon_0_to_fp16 = const()[name = tensor<string, []>("denom_epsilon_0_to_fp16"), val = tensor<fp16, []>(0x1p-24)];
            tensor<fp16, [2, 1, 1, 4096]> denom_cast = rsqrt(epsilon = denom_epsilon_0_to_fp16, x = var_15817_cast)[name = tensor<string, []>("denom_cast")];
            tensor<fp16, [2, 320, 1, 4096]> out_cast = mul(x = zero_mean_cast, y = denom_cast)[name = tensor<string, []>("out_cast")];
            tensor<fp16, [1, 320, 1, 1]> var_15821_to_fp16 = const()[name = tensor<string, []>("op_15821_to_fp16"), val = tensor<fp16, [1, 320, 1, 1]>(BLOBFILE(path = tensor<string, []>("@model_path/weights/weight.bin"), offset = tensor<uint64, []>(648945472)))];
            tensor<fp16, [2, 320, 1, 4096]> var_15822_cast = add(x = out_cast, y = var_15821_to_fp16)[name = tensor<string, []>("op_15822_cast")];
            tensor<fp16, [1, 320, 1, 1]> var_15824_to_fp16 = const()[name = tensor<string, []>("op_15824_to_fp16"), val = tensor<fp16, [1, 320, 1, 1]>(BLOBFILE(path = tensor<string, []>("@model_path/weights/weight.bin"), offset = tensor<uint64, []>(648946176)))];
            tensor<fp16, [2, 320, 1, 4096]> input_521_cast = mul(x = var_15822_cast, y = var_15824_to_fp16)[name = tensor<string, []>("input_521_cast")];
            tensor<int32, [2]> var_15832 = const()[name = tensor<string, []>("op_15832"), val = tensor<int32, [2]>([1, 1])];
            tensor<int32, [2]> var_15834 = const()[name = tensor<string, []>("op_15834"), val = tensor<int32, [2]>([1, 1])];
            tensor<string, []> var_15836_pad_type_0 = const()[name = tensor<string, []>("op_15836_pad_type_0"), val = tensor<string, []>("custom")];
            tensor<int32, [4]> var_15836_pad_0 = const()[name = tensor<string, []>("op_15836_pad_0"), val = tensor<int32, [4]>([0, 0, 0, 0])];
            tensor<fp16, [2560, 320, 1, 1]> up_blocks_3_attentions_2_transformer_blocks_0_ff_net_0_proj_weight_to_fp16_palettized = constexpr_lut_to_dense()[indices = tensor<uint8, [614400]>(BLOBFILE(path = tensor<string, []>("@model_path/weights/weight.bin"), offset = tensor<uint64, []>(648946880))), lut = tensor<fp16, [64]>(BLOBFILE(path = tensor<string, []>("@model_path/weights/weight.bin"), offset = tensor<uint64, []>(649561344))), name = tensor<string, []>("up_blocks_3_attentions_2_transformer_blocks_0_ff_net_0_proj_weight_to_fp16_palettized"), shape = tensor<uint32, [4]>([2560, 320, 1, 1])];
            tensor<fp16, [2560]> up_blocks_3_attentions_2_transformer_blocks_0_ff_net_0_proj_bias_to_fp16_palettized = constexpr_lut_to_dense()[indices = tensor<uint8, [1920]>(BLOBFILE(path = tensor<string, []>("@model_path/weights/weight.bin"), offset = tensor<uint64, []>(649561536))), lut = tensor<fp16, [64]>(BLOBFILE(path = tensor<string, []>("@model_path/weights/weight.bin"), offset = tensor<uint64, []>(649563520))), name = tensor<string, []>("up_blocks_3_attentions_2_transformer_blocks_0_ff_net_0_proj_bias_to_fp16_palettized"), shape = tensor<uint32, [1]>([2560])];
            tensor<fp16, [2, 2560, 1, 4096]> var_15836_cast = conv(bias = up_blocks_3_attentions_2_transformer_blocks_0_ff_net_0_proj_bias_to_fp16_palettized, dilations = var_15834, groups = var_12807, pad = var_15836_pad_0, pad_type = var_15836_pad_type_0, strides = var_15832, weight = up_blocks_3_attentions_2_transformer_blocks_0_ff_net_0_proj_weight_to_fp16_palettized, x = input_521_cast)[name = tensor<string, []>("op_15836_cast")];
            tensor<int32, [2]> var_15837_split_sizes_0 = const()[name = tensor<string, []>("op_15837_split_sizes_0"), val = tensor<int32, [2]>([1280, 1280])];
            tensor<int32, []> var_15837_axis_0 = const()[name = tensor<string, []>("op_15837_axis_0"), val = tensor<int32, []>(1)];
            tensor<fp16, [2, 1280, 1, 4096]> var_15837_cast_0, tensor<fp16, [2, 1280, 1, 4096]> var_15837_cast_1 = split(axis = var_15837_axis_0, split_sizes = var_15837_split_sizes_0, x = var_15836_cast)[name = tensor<string, []>("op_15837_cast")];
            tensor<string, []> var_15839_mode_0 = const()[name = tensor<string, []>("op_15839_mode_0"), val = tensor<string, []>("EXACT")];
            tensor<fp16, [2, 1280, 1, 4096]> var_15839_cast = gelu(mode = var_15839_mode_0, x = var_15837_cast_1)[name = tensor<string, []>("op_15839_cast")];
            tensor<fp16, [2, 1280, 1, 4096]> input_523_cast = mul(x = var_15837_cast_0, y = var_15839_cast)[name = tensor<string, []>("input_523_cast")];
            tensor<int32, [2]> var_15843 = const()[name = tensor<string, []>("op_15843"), val = tensor<int32, [2]>([1, 1])];
            tensor<int32, [2]> var_15845 = const()[name = tensor<string, []>("op_15845"), val = tensor<int32, [2]>([1, 1])];
            tensor<string, []> var_15847_pad_type_0 = const()[name = tensor<string, []>("op_15847_pad_type_0"), val = tensor<string, []>("custom")];
            tensor<int32, [4]> var_15847_pad_0 = const()[name = tensor<string, []>("op_15847_pad_0"), val = tensor<int32, [4]>([0, 0, 0, 0])];
            tensor<fp16, [320, 1280, 1, 1]> up_blocks_3_attentions_2_transformer_blocks_0_ff_net_2_weight_to_fp16_palettized = constexpr_lut_to_dense()[indices = tensor<uint8, [307200]>(BLOBFILE(path = tensor<string, []>("@model_path/weights/weight.bin"), offset = tensor<uint64, []>(649563712))), lut = tensor<fp16, [64]>(BLOBFILE(path = tensor<string, []>("@model_path/weights/weight.bin"), offset = tensor<uint64, []>(649870976))), name = tensor<string, []>("up_blocks_3_attentions_2_transformer_blocks_0_ff_net_2_weight_to_fp16_palettized"), shape = tensor<uint32, [4]>([320, 1280, 1, 1])];
            tensor<fp16, [320]> up_blocks_3_attentions_2_transformer_blocks_0_ff_net_2_bias_to_fp16 = const()[name = tensor<string, []>("up_blocks_3_attentions_2_transformer_blocks_0_ff_net_2_bias_to_fp16"), val = tensor<fp16, [320]>(BLOBFILE(path = tensor<string, []>("@model_path/weights/weight.bin"), offset = tensor<uint64, []>(649871168)))];
            tensor<fp16, [2, 320, 1, 4096]> var_15847_cast = conv(bias = up_blocks_3_attentions_2_transformer_blocks_0_ff_net_2_bias_to_fp16, dilations = var_15845, groups = var_12807, pad = var_15847_pad_0, pad_type = var_15847_pad_type_0, strides = var_15843, weight = up_blocks_3_attentions_2_transformer_blocks_0_ff_net_2_weight_to_fp16_palettized, x = input_523_cast)[name = tensor<string, []>("op_15847_cast")];
            tensor<fp16, [2, 320, 1, 4096]> hidden_states_333_cast = add(x = var_15847_cast, y = inputs_cast)[name = tensor<string, []>("hidden_states_333_cast")];
            tensor<int32, [4]> var_15849 = const()[name = tensor<string, []>("op_15849"), val = tensor<int32, [4]>([2, 320, 64, 64])];
            tensor<fp16, [2, 320, 64, 64]> input_525_cast = reshape(shape = var_15849, x = hidden_states_333_cast)[name = tensor<string, []>("input_525_cast")];
            tensor<int32, [2]> var_15853 = const()[name = tensor<string, []>("op_15853"), val = tensor<int32, [2]>([1, 1])];
            tensor<int32, [2]> var_15855 = const()[name = tensor<string, []>("op_15855"), val = tensor<int32, [2]>([1, 1])];
            tensor<string, []> hidden_states_pad_type_0 = const()[name = tensor<string, []>("hidden_states_pad_type_0"), val = tensor<string, []>("custom")];
            tensor<int32, [4]> hidden_states_pad_0 = const()[name = tensor<string, []>("hidden_states_pad_0"), val = tensor<int32, [4]>([0, 0, 0, 0])];
            tensor<fp16, [320, 320, 1, 1]> up_blocks_3_attentions_2_proj_out_weight_to_fp16_palettized = constexpr_lut_to_dense()[indices = tensor<uint8, [76800]>(BLOBFILE(path = tensor<string, []>("@model_path/weights/weight.bin"), offset = tensor<uint64, []>(649871872))), lut = tensor<fp16, [64]>(BLOBFILE(path = tensor<string, []>("@model_path/weights/weight.bin"), offset = tensor<uint64, []>(649948736))), name = tensor<string, []>("up_blocks_3_attentions_2_proj_out_weight_to_fp16_palettized"), shape = tensor<uint32, [4]>([320, 320, 1, 1])];
            tensor<fp16, [320]> up_blocks_3_attentions_2_proj_out_bias_to_fp16 = const()[name = tensor<string, []>("up_blocks_3_attentions_2_proj_out_bias_to_fp16"), val = tensor<fp16, [320]>(BLOBFILE(path = tensor<string, []>("@model_path/weights/weight.bin"), offset = tensor<uint64, []>(649948928)))];
            tensor<fp16, [2, 320, 64, 64]> hidden_states_cast = conv(bias = up_blocks_3_attentions_2_proj_out_bias_to_fp16, dilations = var_15855, groups = var_12807, pad = hidden_states_pad_0, pad_type = hidden_states_pad_type_0, strides = var_15853, weight = up_blocks_3_attentions_2_proj_out_weight_to_fp16_palettized, x = input_525_cast)[name = tensor<string, []>("hidden_states_cast")];
            tensor<fp16, [2, 320, 64, 64]> input_527_cast = add(x = hidden_states_cast, y = hidden_states_323_cast)[name = tensor<string, []>("input_527_cast")];
            tensor<int32, [5]> reshape_240_shape_0 = const()[name = tensor<string, []>("reshape_240_shape_0"), val = tensor<int32, [5]>([2, 32, 10, 64, 64])];
            tensor<fp16, [2, 32, 10, 64, 64]> reshape_240_cast = reshape(shape = reshape_240_shape_0, x = input_527_cast)[name = tensor<string, []>("reshape_240_cast")];
            tensor<int32, [3]> reduce_mean_180_axes_0 = const()[name = tensor<string, []>("reduce_mean_180_axes_0"), val = tensor<int32, [3]>([2, 3, 4])];
            tensor<bool, []> reduce_mean_180_keep_dims_0 = const()[name = tensor<string, []>("reduce_mean_180_keep_dims_0"), val = tensor<bool, []>(true)];
            tensor<fp16, [2, 32, 1, 1, 1]> reduce_mean_180_cast = reduce_mean(axes = reduce_mean_180_axes_0, keep_dims = reduce_mean_180_keep_dims_0, x = reshape_240_cast)[name = tensor<string, []>("reduce_mean_180_cast")];
            tensor<fp16, [2, 32, 10, 64, 64]> sub_120_cast = sub(x = reshape_240_cast, y = reduce_mean_180_cast)[name = tensor<string, []>("sub_120_cast")];
            tensor<fp16, [2, 32, 10, 64, 64]> square_60_cast = square(x = sub_120_cast)[name = tensor<string, []>("square_60_cast")];
            tensor<int32, [3]> reduce_mean_182_axes_0 = const()[name = tensor<string, []>("reduce_mean_182_axes_0"), val = tensor<int32, [3]>([2, 3, 4])];
            tensor<bool, []> reduce_mean_182_keep_dims_0 = const()[name = tensor<string, []>("reduce_mean_182_keep_dims_0"), val = tensor<bool, []>(true)];
            tensor<fp16, [2, 32, 1, 1, 1]> reduce_mean_182_cast = reduce_mean(axes = reduce_mean_182_axes_0, keep_dims = reduce_mean_182_keep_dims_0, x = square_60_cast)[name = tensor<string, []>("reduce_mean_182_cast")];
            tensor<fp16, []> add_120_y_0_to_fp16 = const()[name = tensor<string, []>("add_120_y_0_to_fp16"), val = tensor<fp16, []>(0x1.5p-17)];
            tensor<fp16, [2, 32, 1, 1, 1]> add_120_cast = add(x = reduce_mean_182_cast, y = add_120_y_0_to_fp16)[name = tensor<string, []>("add_120_cast")];
            tensor<fp16, [2, 32, 1, 1, 1]> sqrt_60_cast = sqrt(x = add_120_cast)[name = tensor<string, []>("sqrt_60_cast")];
            tensor<fp16, [2, 32, 10, 64, 64]> real_div_60_cast = real_div(x = sub_120_cast, y = sqrt_60_cast)[name = tensor<string, []>("real_div_60_cast")];
            tensor<int32, [4]> reshape_241_shape_0 = const()[name = tensor<string, []>("reshape_241_shape_0"), val = tensor<int32, [4]>([2, 320, 64, 64])];
            tensor<fp16, [2, 320, 64, 64]> reshape_241_cast = reshape(shape = reshape_241_shape_0, x = real_div_60_cast)[name = tensor<string, []>("reshape_241_cast")];
            tensor<fp16, [320]> add_121_gamma_0_to_fp16 = const()[name = tensor<string, []>("add_121_gamma_0_to_fp16"), val = tensor<fp16, [320]>(BLOBFILE(path = tensor<string, []>("@model_path/weights/weight.bin"), offset = tensor<uint64, []>(649949632)))];
            tensor<fp16, [320]> add_121_beta_0_to_fp16 = const()[name = tensor<string, []>("add_121_beta_0_to_fp16"), val = tensor<fp16, [320]>(BLOBFILE(path = tensor<string, []>("@model_path/weights/weight.bin"), offset = tensor<uint64, []>(649950336)))];
            tensor<fp16, []> add_121_epsilon_0_to_fp16 = const()[name = tensor<string, []>("add_121_epsilon_0_to_fp16"), val = tensor<fp16, []>(0x1.5p-17)];
            tensor<fp16, [2, 320, 64, 64]> add_121_cast = batch_norm(beta = add_121_beta_0_to_fp16, epsilon = add_121_epsilon_0_to_fp16, gamma = add_121_gamma_0_to_fp16, mean = add_1_mean_0_to_fp16, variance = add_1_variance_0_to_fp16, x = reshape_241_cast)[name = tensor<string, []>("add_121_cast")];
            tensor<fp16, [2, 320, 64, 64]> input_cast = silu(x = add_121_cast)[name = tensor<string, []>("input_cast")];
            tensor<int32, []> var_15869 = const()[name = tensor<string, []>("op_15869"), val = tensor<int32, []>(1)];
            tensor<int32, [2]> var_15872 = const()[name = tensor<string, []>("op_15872"), val = tensor<int32, [2]>([1, 1])];
            tensor<int32, [2]> var_15874 = const()[name = tensor<string, []>("op_15874"), val = tensor<int32, [2]>([1, 1])];
            tensor<string, []> var_15876_pad_type_0 = const()[name = tensor<string, []>("op_15876_pad_type_0"), val = tensor<string, []>("custom")];
            tensor<int32, [4]> var_15876_pad_0 = const()[name = tensor<string, []>("op_15876_pad_0"), val = tensor<int32, [4]>([1, 1, 1, 1])];
            tensor<fp16, [4, 320, 3, 3]> conv_out_weight_to_fp16_palettized = constexpr_lut_to_dense()[indices = tensor<uint8, [8640]>(BLOBFILE(path = tensor<string, []>("@model_path/weights/weight.bin"), offset = tensor<uint64, []>(649951040))), lut = tensor<fp16, [64]>(BLOBFILE(path = tensor<string, []>("@model_path/weights/weight.bin"), offset = tensor<uint64, []>(649959744))), name = tensor<string, []>("conv_out_weight_to_fp16_palettized"), shape = tensor<uint32, [4]>([4, 320, 3, 3])];
            tensor<fp16, [4]> conv_out_bias_to_fp16 = const()[name = tensor<string, []>("conv_out_bias_to_fp16"), val = tensor<fp16, [4]>([-0x1.39p-9, 0x1.9f8p-9, 0x1.c64p-12, 0x1.d6cp-10])];
            tensor<fp16, [2, 4, 64, 64]> var_15876_cast = conv(bias = conv_out_bias_to_fp16, dilations = var_15874, groups = var_15869, pad = var_15876_pad_0, pad_type = var_15876_pad_type_0, strides = var_15872, weight = conv_out_weight_to_fp16_palettized, x = input_cast)[name = tensor<string, []>("op_15876_cast")];
            tensor<string, []> var_15876_cast_to_fp32_dtype_0 = const()[name = tensor<string, []>("op_15876_cast_to_fp32_dtype_0"), val = tensor<string, []>("fp32")];
            tensor<fp32, [2, 4, 64, 64]> noise_pred = cast(dtype = var_15876_cast_to_fp32_dtype_0, x = var_15876_cast)[name = tensor<string, []>("cast_0")];
        } -> (noise_pred);
}